VFL/models/vfl_network/bottom_model_party1.pth (torch, 66902 bytes, 14 tensors)

0.weight f4 [16, 1, 3, 3]
0.07507289 0.21745941 0.008444138 0.24768594 -0.13898438 0.033236023 -0.35065362 0.31334022
0.3825574 -0.24141668 0.3210458 -0.099157624 0.1693268 0.16371405 0.19360727 -0.14206539
0.28435388 0.14297602 -0.025895126 0.19495435 -0.0054534627 0.08699391 -0.22630672 0.18593258
-0.38380384 -0.15063135 -0.07010058 -0.2069379 -0.056752283 -0.41253325 0.34615654 -0.31244949
0.22738215 0.023966651 0.076801725 0.20462188 -0.22353846 0.11993478 -0.028601183 -0.23505545
0.035567954 -0.09745632 0.06600627 0.45398784 0.20735198 0.06542005 0.15746263 0.0022709696
0.15959837 -0.14524348 -0.21993591 -0.14232688 -0.21306895 0.5280516 0.06030724 0.28255382
0.26286513 0.058556657 0.2138925 -0.1473793 0.026091686 -0.18855834 0.0038367135 -0.19654098
0.061208565 -0.013339741 0.09919611 0.020768302 -0.16565785 -0.2830673 0.42026696 0.2120805
0.18877341 -0.319474 -0.4388523 -0.40028048 -0.20659766 -0.0048951926 0.16096522 0.3439742
-0.5133911 -0.048596136 0.2053206 -0.022249997 0.19907774 0.059754405 0.24020457 -0.27550638
-0.1274036 0.020048026 -0.013716845 0.09452848 0.36118934 0.07812255 -0.22817263 -0.17949268
0.3206771 -0.071773246 -0.16456412 -0.21225937 -0.04627692 0.10103315 -0.015321475 -0.24369195
-0.03914655 -0.32247 -0.3107633 -0.2543663 -0.48923197 0.042407613 0.374066 -0.044482708
0.1438975 -0.26723167 -0.08384465 0.07362147 0.07224462 -0.17683871 0.00957054 -0.34798068
-0.071833044 -0.1464439 -0.12706442 -0.3428356 -0.19649032 -0.20849742 -0.28260446 -0.25559393
0.26776433 -0.28915915 0.18713641 0.012323862 -0.23015472 0.38854682 0.22152992 0.015260713
-0.19026868 -0.19788343 -0.074816294 -0.017005011 0.15883483 -0.24465472 0.40890262 -0.22175045
00000000: d1bf 993d aead 5e3e 4859 0a3c 62a1 7d3e
00000010: ec51 0ebe 7f22 083d df88 b3be 216e a03e
00000020: 90de c33e ef35 77be 1d60 a43e 2713 cbbd
00000030: 0164 2d3e a8a4 273e fc40 463e 9779 11be
00000040: d596 913e 4e68 123e 0422 d4bc 1da2 473e
00000050: f6b2 b2bb dd29 b23d f3bc 67be 1c65 3e3e
00000060: f081 c4be 1b3f 1abe e590 8fbd 87e7 53be
00000070: 1575 68bd 8f37 d3be 6e3b b13e 61f9 9fbe
00000080: ded6 683e b655 c43c 394a 9d3d 6688 513e
00000090: 44e7 64be 5ea0 f53d 074d eabc 60b2 70be
000000a0: b4af 113d 2e97 c7bd 4c2e 873d 1871 e83e
000000b0: 1454 543e f2fa 853d e23d 213e 8cd4 143b
000000c0: c16d 233e b5ba 14be e136 61be 23be 11be
000000d0: bf2e 5abe 642e 073f b904 773d e5aa 903e
000000e0: 4296 863e 1bd9 6f3d a306 5b3e 99ea 16be
000000f0: 3bbe d53c 7015 41be 5f71 7b3b 0a42 49be
00000100: d5b5 7a3d ee8e 5abc 5527 cb3d 4922 aa3c
00000110: 36a2 29be 32ee 90be 3b2d d73e a12b 593e
00000120: d14d 413e 1992 a3be 40b1 e0be 90f1 ccbe
00000130: 568e 53be da67 a0bb 11d4 243e 631d b03e
00000140: 996d 03bf be0c 47bd 903f 523e a045 b6bc
00000150: 09db 4b3e 09c1 743d 30f8 753e 2c0f 8dbe
00000160: 1776 02be c23b a43c 9ebc 60bc 2698 c13d
00000170: cfed b83e b7fe 9f3d 16a6 69be eecc 37be
00000180: ca2f a43e dafd 92bd 7f83 28be 855a 59be
00000190: de8c 3dbd 78ea ce3d ed06 7bbc 628a 79be
000001a0: 2258 20bd ca1a a5be 5e1c 9fbe 4d3c 82be
000001b0: 9d7c fabe 9bb3 2d3d 9485 bf3e 8033 36bd
000001c0: de59 133e 97d2 88be beb6 abbd dac6 963d
000001d0: fdf4 933d 3515 35be c1cd 1c3c 862a b2be
000001e0: 341d 93bd 64f5 15be 2d1d 02be 2688 afbe
000001f0: c234 49be 5980 55be 88b1 90be 35dd 82be
00000200: 6818 893e ab0c 94be b0a0 3f3e 06ea 493c
00000210: aead 6bbe 9cef c63e bdd8 623e 1208 7a3c
00000220: cbd5 42be f4a1 4abe 4939 99bd 184e 8bbc
00000230: 99a5 223e c486 7abe af5b d13e 8d12 63be

0.bias f4 [16]
-0.06458614 0.07208832 0.18269613 0.2488541 0.2836939 -0.2560341 0.12153688 -0.10976863
-0.02573499 -0.16666445 0.2704784 -0.23175901 0.161727 0.1534196 0.13030255 -0.12961245
00000000: bd45 84bd 0ba3 933d b214 3b3e 9cd3 7e3e
00000010: 5440 913e e716 83be 54e8 f83d 60ce e0bd
00000020: 30d2 d2bc 16aa 2abe 257c 8a3e 3c52 6dbe
00000030: c39b 253e 071a 1d3e 086e 053e 20b9 04be

1.weight f4 [16]
0.96393734 0.99678206 0.9697509 0.9658606 1.142442 1.076361 0.9898965 1.1627294
1.0325074 1.080262 0.97482914 0.9582536 1.0137979 0.9570798 0.9939545 1.0432835
00000000: 99c4 763f 1c2d 7f3f 9841 783f a442 773f
00000010: 8a3b 923f 32c6 893f db69 7d3f 51d4 943f
00000020: 3429 843f 0646 8a3f 678e 793f 1c50 753f
00000030: 21c4 813f 2f03 753f cd73 7e3f 508a 853f

1.bias f4 [16]
0.012707976 0.01965943 -0.10674672 -0.07815424 -0.10381766 -0.34165406 -0.12049222 -0.24373011
-0.07429267 -0.13128053 -0.22894643 -0.053927 -0.19841327 -0.13416693 -0.076706484 -0.35148686
00000000: 1d35 503c d00c a13c 069e dabd 550f a0bd
00000010: 5a9e d4bd 48ed aebe a0c4 f6bd 6394 79be
00000020: c126 98bd 676e 06be ef70 6abe 8fe2 5cbd
00000030: d92c 4bbe 0e63 09be 4a18 9dbd 16f6 b3be

1.running_mean f4 [16]
-0.06346408 0.07028052 0.18198137 0.24828182 0.28160328 -0.25754863 0.12143138 -0.11053955
-0.025206173 -0.16778423 0.2697773 -0.23027027 0.16143042 0.15334165 0.13076808 -0.13115652
00000000: 75f9 81bd 3cef 8f3d 5359 3a3e 973d 7e3e
00000010: 4e2e 903e 6add 83be 04b1 f83d 8f62 e2bd
00000020: 2d7d cebc a1cf 2bbe 4020 8a3e f8cb 6bbe
00000030: 044e 253e 9805 1d3e 11e8 053e e54d 06be

1.running_var f4 [16]
0.2847241 0.20838508 0.17796345 0.31747842 0.1930082 0.25432166 0.14860559 0.20054366
0.5212261 0.13903068 0.18133722 0.2138649 0.24363464 0.19900121 0.2990551 0.19554865
00000000: 5bc7 913e e662 553e 0d3c 363e 888c a23e
00000010: f1a3 453e 7336 823e 102c 183e 515b 4d3e
00000020: 136f 053f 0f5e 0e3e 77b0 393e 66ff 5a3e
00000030: 5c7b 793e f9c6 4b3e c01d 993e e83d 483e

5.weight f4 [32, 16, 3, 3]
0.07574596 0.018312536 0.010720007 -0.022577047 -0.061591845 0.012829781 -0.038177025 0.07157888
0.018579066 -0.04610637 -0.042178243 -0.0039796457 0.009931725 -0.072646126 0.021988457 -0.028536908
-0.06225624 0.029719375 0.06450335 -0.07845336 0.019354224 0.048108287 -0.07350885 -0.29866526
0.043495186 0.04379276 0.0311606 -0.014643453 -0.022066772 0.008915074 0.05871271 -0.039462667
0.039574604 0.07161663 -0.008249782 -0.018658072 0.0012160242 -0.004975684 0.020034276 -0.017721644
-0.005998586 -0.0036930148 0.07017746 0.032462917 -0.0041447952 -0.05024215 -0.050983757 -0.07464724
-0.08921387 -0.027558234 0.020410845 0.038474776 -0.073662005 -0.05011354 -0.013151385 0.08061246
0.012054794 -0.020818645 -0.010993604 -0.12628634 -0.05393797 0.06082394 -0.037891816 -0.016705565
-0.08290036 0.05577255 -0.08557961 0.0020362278 0.009467042 -0.08224499 -0.06768158 0.062141694
0.040008813 0.07012538 0.04365582 -0.044346422 -0.050627835 -0.110102266 -0.071397685 -0.077945724
0.034113497 -0.040914 -0.016771048 -0.047958773 0.008314239 -0.07454923 -0.22421457 0.02764257
-0.024766367 0.051445268 -0.026734065 -0.061130606 -0.014703244 -0.119373314 -0.16297781 -0.19617519
0.04662425 -0.058017045 0.041884817 0.037815355 0.059536062 -0.063921005 -0.020077 -0.22137138
-0.15250966 0.078259565 -0.011752658 -0.00064445287 -0.019185878 -0.069582045 0.039991908 -0.07623648
0.03315958 -0.14058185 0.07880887 -0.019656628 -0.068470165 0.018735856 0.04603561 -0.0829424
-0.058805887 -0.21478371 -0.14634798 -0.041017793 -0.034063965 -0.026454907 -0.079192005 0.068375625
0.06986094 -0.02247136 0.0014000549 0.00036360027 -0.07525524 -0.08109537 0.030971535 -0.045753848
-0.053573083 -0.0065019354 0.017795857 0.024711654 0.050752204 -0.017676033 -0.028692704 -0.039900493
-0.067818955 0.069875605 -0.03334893 0.011451466 -0.0372892 -0.08447847 0.07769171 0.038393557
-0.072216645 0.033075236 0.07910357 0.02192361 0.0017003946 -0.0211772 -0.07680922 0.017296202
-0.05791959 -0.01717309 0.061715312 0.04272049 -0.05273242 -0.08236624 -0.17766023 -0.013301609
-0.06430325 -0.02060812 0.05623976 0.0139485225 -0.06338379 -0.066851996 0.11989032 -0.16868798
-0.08524785 0.0399755 -0.038567673 -0.009086661 -0.0072537065 -0.01971528 -0.042252682 -0.014784718
0.0085226875 -0.15750514 0.080486484 -0.040251225 -0.055960666 0.020199515 0.022967525 0.045659147
0.037605513 -0.10857429 -0.055655994 0.007390715 0.05047942 -0.0077021196 -0.049106598 0.07944498
-0.03116899 -0.0710825 -0.2548367 -0.042143732 0.03692776 0.0184469 0.016479142 -0.063198954
-0.07782394 0.001467444 0.14366768 0.025640126 -0.045366175 -0.010817379 -0.061431967 -0.040201955
0.015091531 0.045378216 0.06903077 -0.09597525 0.076794885 -0.1351148 0.031205602 0.07052044
0.0011701956 0.07581741 -0.071004294 -0.031829935 0.033061676 -0.09096275 0.033197332 -0.03473264
0.05744218 0.040875264 0.02670417 -0.046830308 -0.0676458 -0.008724011 0.13871174 -0.13116635
-0.023316473 0.05628065 0.006638311 0.003759861 -0.020508379 -0.07546581 -0.085579045 -0.10965921
0.21455845 0.0259628 -0.024259232 -0.032601845 0.07945249 0.029026903 0.059408523 -0.08538494
00000000: b320 9b3d 2c04 963c f8a2 2f3c 80f3 b8bc
00000010: bb47 7cbd 0034 523c 835f 1cbd f397 923d
00000020: 2033 983c 08da 3cbd 18c3 2cbd b067 82bb
00000030: adb8 223c 7ec7 94bd 2321 b43c 3cc6 e9bc
00000040: 6600 7fbd 0c76 f33c 551a 843d 28ac a0bd
00000050: c08c 9e3c 320d 453d cf8b 96bd a7ea 98be
00000060: 0228 323d 0a60 333d 8444 ff3c 18eb 6fbc
00000070: 60c5 b4bc 8810 123c bd7c 703d 9ba3 21bd
00000080: fb18 223d bdab 923d 182a 07bc d0d8 98bc
00000090: 0063 9f3a 100b a3bb ec1e a43c fb2c 91bc
000000a0: c98f c4bb 8206 72bb 33b9 8f3d d6f7 043d
000000b0: 10d1 87bb b6ca 4dbd 58d4 50bd a7e0 98bd
000000c0: c3b5 b6bd cec1 e1bc a534 a73c ba97 1d3d
000000d0: 1bdc 96bd db43 4dbd e878 57bc 2518 a53d
000000e0: 7881 453c dd8b aabc 841e 34bc 3551 01be
000000f0: 10ee 5cbd 8622 793d 7334 1bbd 1cda 88bc
00000100: aac7 a9bd c271 643d 5d44 afbd 3c72 053b
00000110: a71b 1b3c 1070 a8bd a49c 8abd 4a88 7e3d
00000120: 48e0 233d e59d 8f3d 72d0 323d 98a4 35bd
00000130: 225f 4fbd 4c7d e1bd f338 92bd 02a2 9fbd
00000140: 98ba 0b3d 7095 27bd 7063 89bc 6b70 44bd
00000150: 7238 083c 44ad 98bd 8198 65be ac72 e23c
00000160: d6e2 cabc 46b8 523d 6601 dbbc 1664 7abd
00000170: e0e5 70bc ff79 f4bd a8e3 26be 26e2 48be
00000180: 12f9 3e3d 48a3 6dbd 6a8f 2b3d 46e4 1a3d
00000190: 16dc 733d 04e9 82bd 8578 a4bc 2eaf 62be
000001a0: 7e2b 1cbe 8d46 a03d 388e 40bc 80f0 28ba
000001b0: b42b 9dbc 0881 8ebd 8ece 233d df21 9cbd
000001c0: 57d2 073d b0f4 0fbe 8b66 a13d f006 a1bc
000001d0: 163a 8cbd f07b 993c d68f 3c3d b4dd a9bd
000001e0: 71de 70bd 43f0 5bbe 3fdc 15be 4602 28bd
000001f0: a886 0bbd f6b7 d8bc 6b2f a2bd 8508 8c3d
00000200: 4113 8f3d dc15 b8bc 0c82 b73a 9aa1 be39
00000210: 6b1f 9abd 5415 a6bd 04b8 fd3c 6368 3bbd
00000220: 736f 5bbd 300e d5bb 9ec8 913c 1870 ca3c
00000230: 8be1 4f3d 54cd 90bc f60c ebbc b36e 23bd
00000240: aae4 8abd f11a 8f3d e398 08bd ee9e 3b3c
00000250: 8fbc 18bd 0c03 adbd d51c 9f3d 9042 1d3d
00000260: 52e6 93bd e679 073d 0d01 a23d 2499 b33c
00000270: c6df de3a cf7b adbc 274e 9dbd c4b0 8d3c
00000280: 183d 6dbd 94ae 8cbc 32c9 7c3d aefb 2e3d
00000290: f3fd 57bd a2af a8bd 90ec 35be feee 59bc
000002a0: 6cb1 83bd 5cd2 a8bc aa5b 663d 5888 643c
000002b0: 5ccf 81bd b3e9 88bd 0e89 f53d 8bbc 2cbe
000002c0: 6d96 aebd 5abd 233d 23f9 1dbd 38e0 14bc
000002d0: 80b0 edbb f081 a1bc 2611 2dbd 9a3b 72bc
000002e0: bea2 0b3c 0749 21be 19d6 a43d 78de 24bd
000002f0: 0337 65bd 7479 a53c 6426 bc3c 1605 3b3d
00000300: 3d08 1a3d 335c debd 8af7 63bd d02d f23b
00000310: 82c3 4e3d 1062 fcbb 0024 49bd 0db4 a23d
00000320: 1c56 ffbc b493 91bd f579 82be e89e 2cbd
00000330: 9041 173d f41d 973c 44ff 863c 746e 81bd
00000340: 2862 9fbd 4057 c03a 9f1d 133e 3e0b d23c
00000350: e2d1 39bd 603b 31bc 16a0 7bbd ceaa 24bd
00000360: 7842 773c 82de 393d 0160 8d3d ac8e c4bd
00000370: a346 9d3d 895b 0abe e4a2 ff3c 056d 903d
00000380: 4061 993a 2946 9b3d b36a 91bd 1b60 02bd
00000390: ae6b 073d ae4a babd edf9 073d d043 0ebd
000003a0: 7e48 6b3d d26c 273d b4c2 da3c 23d1 3fbd
000003b0: e289 8abd 27ef 0ebc 730a 0e3e 7950 06be
000003c0: 3002 bfbc 8a86 663d 3086 d93b 0068 763b
000003d0: 3001 a8bc d28d 9abd 1144 afbd 0295 e0bd
000003e0: 36b5 5b3e f0af d43c 4cbb c6bc 8389 05bd
000003f0: fdb7 a23d d4c9 ed3c 5a56 733d 4dde aebd

5.bias f4 [32]
0.06520962 0.06252818 -0.09252234 -0.06442219 -0.08513919 0.03952564 0.05319614 -0.09612496
0.027872188 0.026128372 -0.051832598 0.02954353 0.02303687 0.082067885 0.011849955 -0.031817593
-0.075722255 -0.05832488 0.00063786324 -0.015337109 0.05206678 -0.073756374 -0.00955073 -0.034886874
0.0019171031 0.09425308 -0.0063527343 -0.024035519 -0.030916816 -0.10008347 -0.05116413 0.03705586
00000000: 9f8c 853d c60e 803d 5a7c bdbd c8ef 83bd
00000010: 755d aebd a3e5 213d 32e4 593d 2add c4bd
00000020: 3754 e43c 2b0b d63c 6b4e 54bd 4605 f23c
00000030: d1b7 bc3c 3513 a83d 5026 423c 2a53 02bd
00000040: 4514 9bbd 12e6 6ebd 4736 273a 7f48 7bbc
00000050: fa43 553d 950d 97bd aa7a 1cbc 8ae5 0ebd
00000060: 4e47 fb3a c207 c13d 992a d0bb 23e6 c4bc
00000070: 4345 fdbc 90f8 ccbd 7b91 51bd e3c7 173d

6.weight f4 [32]
1.1988511 0.94549775 0.99238616 1.0259142 1.000979 0.95786434 0.87002385 0.94181395
0.9189631 0.97855145 0.8608349 0.8875933 0.98293287 0.9278787 1.0944347 0.9939169
1.0647136 0.98288816 0.98860884 0.9582838 0.91999716 0.96287143 0.9752358 0.99957675
1.0440481 0.9587202 1.0159246 0.9462539 0.97112095 1.1279342 1.0862046 0.9451108
00000000: f473 993f 240c 723f 050d 7e3f 2851 833f
00000010: 1420 803f 9936 753f e2b9 5e3f b81a 713f
00000020: 2a41 6b3f 5982 7a3f ad5f 5c3f 5139 633f
00000030: 7da1 7b3f 7589 6d3f 7016 8c3f 5771 7e3f
00000040: 8948 883f 8f9e 7b3f 7815 7d3f 1652 753f
00000050: ef84 6b3f be7e 763f 0ea9 793f 43e4 7f3f
00000060: 5ea3 853f b06e 753f d109 823f b23d 723f
00000070: 629b 783f 2660 903f c108 8b3f c8f2 713f

6.bias f4 [32]
0.15595664 0.008156545 -0.07187271 0.14041257 -0.031122584 0.062910885 -0.100057274 -0.016978655
-0.058208194 -0.029843431 0.10496812 -0.010393979 0.06454735 0.03656474 0.17251265 -0.0788757
0.047533363 0.1265761 0.07202476 0.07248315 0.16623443 -0.08552841 -0.12798448 0.16210498
-0.015205816 0.07573547 0.12306622 -0.109449014 -0.09230841 0.09469069 0.07996811 0.07055632
00000000: 19b3 1f3e 08a3 053c 0032 93bd 50c8 0f3e
00000010: caf4 febc 6cd7 803d d4ea ccbd d216 8bbc
00000020: b76b 6ebd 367a f4bc 87f9 d63d 824b 2abc
00000030: 6731 843d e9c4 153d 28a7 303e 9589 a1bd
00000040: 58b2 423d 2a9d 013e b881 933d 0c72 943d
00000050: 5c39 2a3e 8529 afbd 5d0e 03be d9fe 253e
00000060: d121 79bc 331b 9b3d 240a fc3d ce26 e0bd
00000070: 310c bdbd 31ed c13d 52c6 a33d d57f 903d

6.running_mean f4 [32]
-1.1687608 -0.37337247 -0.10025617 -0.078205235 -0.10952906 0.049793698 0.8021526 -0.2528377
0.81753093 0.45740208 -0.0544729 -0.59999394 -0.7302369 -0.7533768 -0.5281889 0.5281812
0.27463025 0.1661944 -0.442309 -0.2620398 -0.64176226 -0.016663264 0.92664176 -1.1951467
-0.09383797 -0.4774077 -0.5206348 0.50830346 -0.66539454 -1.6916469 0.2431348 -0.24856701
00000000: f499 95bf ad2a bfbe 1b53 cdbd 112a a0bd
00000010: c650 e0bd 7af4 4b3d df59 4d3f f173 81be
00000020: b549 513f 9b30 ea3e fa1e 5fbd 3499 19bf
00000030: cef0 3abf 4ddd 40bf 6337 07bf e236 073f
00000040: 569c 8c3e dd2e 2a3e 5376 e2be 152a 86be
00000050: 884a 24bf 6681 88bc 6538 6d3f 91fa 98bf
00000060: 1f2e c0bd c86e f4be 5248 05bf 2d20 023f
00000070: 4c57 2abf e387 d8bf 54f8 783e 5a88 7ebe

6.running_var f4 [32]
2.8325574 1.9699907 1.3567647 1.7181245 1.0757482 1.4957929 1.9464644 1.3483416
1.8304088 1.3162234 1.345246 2.4787583 3.253334 2.523256 1.4033495 1.4043503
1.2864082 2.2531097 1.7791227 0.88542366 1.9220597 0.7226923 1.9497359 2.875602
0.9038954 2.9591181 2.7085638 1.9558827 1.7405709 5.7372603 0.87904483 0.9233783
00000000: 9f48 3540 a828 fc3f 77aa ad3f 81eb db3f
00000010: 1eb2 893f 2476 bf3f bf25 f93f 7596 ac3f
00000020: d64a ea3f 027a a83f 0531 ac3f faa3 1e40
00000030: a036 5040 077d 2140 f5a0 b33f c0c1 b33f
00000040: 06a9 a43f f332 1040 4bba e33f 20ab 623f
00000050: 0d06 f63f 5d02 393f f290 f93f dd09 3840
00000060: b065 673f 3162 3d40 1c59 2d40 5d5a fa3f
00000070: 07cb de3f a397 b740 1509 613f 8562 6c3f

10.weight f4 [64, 160]
-0.061245404 -0.015026796 -0.040091377 -0.0060374504 0.16562092 0.06944916 0.052531824 -0.087333634
-0.013385235 0.11362699 -0.08631981 0.19479212 0.077267535 -0.01327853 0.09506571 0.07761273
0.111052476 0.03807036 -0.12334762 0.028415874 -0.03555088 -0.0032160226 0.103645176 0.0071921926
-0.049374167 0.016481716 -0.0024286935 0.07781911 0.110139154 -0.071238056 0.08921882 0.056170557
-0.06343304 -0.015797192 0.05102239 -0.07289969 0.015954647 -0.029361717 0.03095171 -0.039111365
0.10754862 -0.0568925 0.16217771 -0.0834067 -0.05081501 0.10953097 0.025732063 -0.01621837
-0.0783555 -0.050495047 -0.08864581 0.13555753 0.124146104 -0.027600296 0.056129068 0.0696493
-0.025076482 -0.008875561 -0.0055541154 0.046111707 0.046479665 -0.065582946 0.06897789 -0.22314188
0.0945818 0.0077291615 0.13831376 0.06924495 -0.06696736 0.010083806 0.058904722 0.2268975
0.081373125 0.14988089 -0.047275905 -0.11732051 0.07706051 0.050549097 -0.026642729 -0.05852167
0.075295605 -0.13513897 -0.0045424043 -0.12696101 0.02707863 -0.0983053 -0.13372363 0.03713602
0.010417755 -0.17086552 0.2061579 0.06775234 -0.028506843 -0.12125005 0.14259936 -0.006951588
-0.058955576 0.0038237886 0.031578414 -0.028488044 -0.08361989 -0.11440554 0.05548893 -0.026158005
0.12153107 -0.053266667 0.15410326 -0.01671359 0.025679622 -0.0069922702 -0.017594146 0.091541424
0.10046059 0.09543395 -0.034055207 -0.04513198 -0.07755559 -0.08791246 0.19739337 -0.07452719
0.05073998 -0.031381145 0.08663917 0.023158086 0.053127214 -0.1116365 0.03432596 0.098874584
0.08262896 -0.14448729 -0.065436766 -0.20483768 -0.23306406 -0.0607163 -0.06955753 0.096184365
0.062076006 0.15547198 0.023087887 -0.092454396 -0.051163107 0.05393557 0.02130383 -0.0040541366
0.013396076 0.036536634 -0.03331638 0.033350825 0.12135184 0.13193005 0.027163878 0.14692907
-0.13331838 0.070550874 -0.033576436 0.10336283 -0.06398766 0.04065921 -0.044145275 -0.006064162
0.023830254 -0.021055613 -0.002912024 -0.010110496 0.12298747 0.26836073 -0.008693068 -0.07672148
0.009904699 -0.0012435195 -0.1585944 0.1867227 0.12001765 -0.05469511 -0.08187781 0.15368566
-0.011804502 0.064140245 -0.19611387 0.086226255 -0.04757239 -0.120168924 -0.05226213 0.02901165
-0.16010748 -0.02453257 -0.029322883 0.26751006 0.14630118 -0.054978453 -0.07252462 0.0402361
-0.034333646 -0.05626575 0.11219245 -0.025693096 -0.13522823 0.013173366 0.03502955 0.048815608
-0.0028493216 -0.20317744 -0.07389618 -0.024227025 0.0041733496 -0.15485147 0.011553958 0.016278649
0.017135857 -0.14330512 0.06194783 -0.090432614 -0.030384015 -0.04040031 0.03012813 -0.17935763
0.0787507 -0.04497226 0.058589827 -0.02785658 0.15381771 -0.08880809 -0.103712104 -0.19808513
0.034845028 -0.0029448217 0.0846301 0.07188167 -0.052952535 0.0211774 -0.11669558 0.24649268
0.08810947 -0.20757212 0.04025427 -0.007936937 -0.1796039 0.033994455 -0.09794811 -0.008181537
-0.03563851 -0.019020345 -0.03727872 0.0807733 0.0044842497 0.03291781 0.053680472 -0.024989665
0.09988528 -0.06221721 -0.01564581 0.113525495 -0.037600186 0.035386536 0.053048555 -0.030171493
00000000: 76dc 7abd f332 76bc db36 24bd ced5 c5bb
00000010: 8898 293e 5c3b 8e3d 9c2b 573d fadb b2bd
00000020: bf4d 5bbc 44b5 e83d 71c8 b0bd 9677 473e
00000030: 713e 9e3d 318e 59bc d0b1 c23d 6cf3 9e3d
00000040: 7b6f e33d aaef 1b3d ad9d fcbd 68c8 e83c
00000050: cd9d 11bd e8c3 52bb ec43 d43d 7cac eb3b
00000060: 913c 4abd aa04 873c b72a 1fbb a05f 9f3d
00000070: a390 e13d 42e5 91bd 5bb8 b63d 1913 663d
00000080: 2fe9 81bd 1d69 81bc dbfc 503d 6f4c 95bd
00000090: 52b3 823c fc87 f0bc 718e fd3c 3d33 20bd
000000a0: 7342 dc3d 1c08 69bd ea11 263e 22d1 aabd
000000b0: 6623 50bd c651 e03d 0ccc d23c 63dc 84bc
000000c0: d978 a0bd e5d3 4ebd ef8b b5bd 98cf 0a3e
000000d0: 5040 fe3d 041a e2bc 98e7 653d 4ba4 8e3d
000000e0: 326d cdbc cd6a 11bc 4cff b5bb a1df 3c3d
000000f0: 7661 3e3d 5a50 86bd 4844 8d3d 4e7f 64be
00000100: 1ab4 c13d e844 fd3b 1fa2 0d3e 4cd0 8d3d
00000110: 2f26 89bd 8c36 253c 1446 713d d157 683e
00000120: f4a6 a63d 607a 193e 61a4 41bd bc45 f0bd
00000130: e7d1 9d3d 920c 4f3d da41 dabc 6bb4 6fbd
00000140: 9534 9a3d df61 0abe 73d8 94bb 1102 02be
00000150: 01d4 dd3c 4a54 c9bd d9ee 08be f01b 183d
00000160: 3baf 2a3c 5ff7 2ebe 0e1b 533e bdc1 8a3d
00000170: 2f87 e9bc f251 f8bd 9105 123e 26ca e3bb
00000180: 677b 71bd 8798 7a3b 5e58 013d c25f e9bc
00000190: e840 abbd 744d eabd 5c48 633d 5049 d6bc
000001a0: 48e5 f83d 262e 5abd 3fcd 1d3e f0ea 88bc
000001b0: 125e d23c 6a1f e5bb 9921 90bc 127a bb3d
000001c0: 48be cd3d e072 c33d 797d 0bbd 50dc 38bd
000001d0: 77d5 9ebd 730b b4bd 7d21 4a3e b6a1 98bd
000001e0: bad4 4f3d 8489 00bd e16f b13d 07b6 bd3c
000001f0: ec9b 593d ada1 e4bd 6199 0c3d c27e ca3d
00000200: 5f39 a93d 7af4 13be b603 86bd f8c0 51be
00000210: 58a8 6ebe a8b1 78bd 2e74 8ebd 4ffc c43d
00000220: 6943 7e3d 0c34 1f3e cf22 bd3c bb58 bdbd
00000230: 6890 51bd 8beb 5c3d 5f85 ae3c 90d8 84bb
00000240: 377b 5b3c 70a7 153d c276 08bd e09a 083d
00000250: 5087 f83d ac18 073e c886 de3c 9374 163e
00000260: 9d84 08be fa7c 903d 7287 09bd e4af d33d
00000270: f60b 83bd 468a 263d add1 34bd e1b5 c6bb
00000280: aa37 c33c d27c acbc a8d7 3ebb 7ea6 25bc
00000290: dbe0 fb3d 9466 893e 5f6d 0ebc 2720 9dbd
000002a0: 5247 223c 97fd a2ba 9266 22be 3c34 3f3e
000002b0: d0cb f53d fb07 60bd 8eaf a7bd c65f 1d3e
000002c0: ac67 41bc f65b 833d 13d2 48be 6497 b03d
000002d0: 44db 42bd 201b f6bd d110 56bd d7a9 ed3c
000002e0: 37f3 23be 87f8 c8bc 8b36 f0bc 14f7 883e
000002f0: facf 153e 1631 61bd ca87 94bd 9cce 243d
00000300: 70a1 0cbd ea76 66bd 28c5 e53d 547a d2bc
00000310: 4579 0abe 1ad5 573c 257b 0f3d e0f2 473d
00000320: afbb 3abb bf0d 50be e156 97bd c177 c6bc
00000330: 98c0 883b 6291 1ebe d04c 3d3c cd5a 853c
00000340: 7f60 8c3c 94be 12be 02bd 7d3d bc34 b9bd
00000350: e6e7 f8bc cc7a 25bd 45cf f63c 87a9 37be
00000360: 0c48 a13d d534 38bd e3fb 6f3d 7c33 e4bc
00000370: 6482 1d3e 04e1 b5bd 0367 d4bd d4d6 4abe
00000380: a9b9 0e3d e9fd 40bb 8c52 ad3d b236 933d
00000390: c2e4 58bd 3a7c ad3c 18fe eebd 9468 7c3e
000003a0: bd72 b43d c98d 54be a9e1 243d ed09 02bc
000003b0: 16ea 37be c53d 0b3d 0599 c8bd da0b 06bc
000003c0: b0f9 11bd 8ed0 9bbc 92b1 18bd 796c a53d
000003d0: 9df0 923b d3d4 063d 0ee0 5b3d 20b7 ccbc
000003e0: a790 cc3d 79d7 7ebd a42b 80bc 0e80 e83d
000003f0: a702 1abd 79f1 103d 7149 593d 352a f7bc

10.bias f4 [64]
0.05113449 0.11886172 0.13054849 0.111613475 0.08145791 0.081717156 -0.18005037 0.040408533
0.19342631 -0.12088771 0.16570859 -0.106213264 0.117773205 -0.12616643 0.055254962 0.040880542
0.22896995 0.107121296 0.08194034 0.038511183 0.11177941 -0.004583394 -0.0030177303 0.092072345
-0.04848122 0.08459831 -0.04930079 0.10124068 0.039322186 -0.03869465 0.041351695 0.010607657
0.25794038 0.02906127 0.19707316 0.16921228 0.09838399 0.02075179 0.20707105 0.13043399
0.1407652 0.029592726 0.02995937 0.094279446 -0.04614453 0.095797144 -0.21260507 0.11695373
0.17944194 -0.034427013 0.04712056 0.06488391 0.15097414 -0.01908286 0.09084103 -0.04166948
0.024684222 0.04422049 0.0039602974 0.06468545 0.12880126 0.012236268 -0.01576656 -0.009881896
00000000: 6672 513d c66d f33d 81ae 053e 9b95 e43d
00000010: 68d3 a63d 535b a73d 205f 38be 6b83 253d
00000020: 8c11 463e fa93 f7bd 83af 293e 5786 d9bd
00000030: 1433 f13d c631 01be 0753 623d 5b72 273d
00000040: 1977 6a3e 6962 db3d 56d0 a73d e7bd 1d3d
00000050: 9aec e43d 4c30 96bb 1dc5 45bb 6d90 bc3d
00000060: 3e94 46bd e141 ad3d a0ef 49bd 4657 cf3d
00000070: 4d10 213d 487e 1ebd 6560 293d bdcb 2d3c
00000080: c310 843e e711 ee3c 8ccd 493e fc45 2d3e
00000090: 8c7d c93d a8ff a93c 6f0a 543e 7d90 053e
000000a0: c124 103e 726c f23c 5a6d f53c 9515 c13d
000000b0: 0c02 3dbd 4b31 c43d 25b5 59be 7085 ef3d
000000c0: a1bf 373e 5703 0dbd 7d01 413d dbe1 843d
000000d0: f798 1a3e a853 9cbc dd0a ba3d 9ead 2abd
000000e0: 9136 ca3c 8b20 353d 62c5 813b ce79 843d
000000f0: 7ae4 033e a17a 483c df28 81bc ade7 21bc
