VFL/models/vfl_network/bottom_model_party3.pth (torch, 108155 bytes, 14 tensors)

0.weight f4 [16, 1, 3, 3]
0	0x3e366e1d	0.17815442
1	0xbe5fc705	-0.21853264
2	0xbc40aec9	-0.011760422
3	0xbe8c2c4c	-0.27377546
4	0xbe0b9c5b	-0.13633864
5	0xbd8fe92e	-0.07026897
6	0x3e3f302b	0.18670718
7	0x3e72cc00	0.23710632
8	0xbef07962	-0.46967608
9	0xbe290456	-0.1650556
10	0x3c9a0299	0.018800067
11	0x3ea909c6	0.3301527
12	0x3e91e8bd	0.28497878
13	0x3eace10b	0.33765444
14	0x3ea3eda4	0.32017243
15	0xbb87f1da	-0.004148704
16	0xb99e0144	-0.0003013705
17	0xbc7b05f4	-0.015321244
18	0x3e647276	0.22309288
19	0xbde756a9	-0.11295826
20	0xbe31513d	-0.17316146
21	0x3e46e0d9	0.1942171
22	0x3e647fb1	0.22314335
23	0xbec1a540	-0.37821388
24	0xbe35984a	-0.17733875
25	0x3e4d65db	0.20058386
26	0xbc8831a2	-0.01662523
27	0x3d5cc1c5	0.05389573
28	0xbe8bbdf5	-0.27293363
29	0xbe2b5a33	-0.16733627
30	0x3dd65111	0.10464681
31	0xbea14567	-0.31498262
32	0xbebea30b	-0.37233767
33	0x3eb7c248	0.35890412
34	0x3eca9589	0.3956721
35	0x3e6a2f0e	0.22869512
36	0xbe07ce6c	-0.13262337
37	0xbd2bc252	-0.041933365
38	0x3c5d3048	0.013500281
39	0xbc026877	-0.007959477
40	0xbe55c9eb	-0.20877807
41	0xbed788b4	-0.42096484
42	0xbe9aa1f7	-0.30201694
43	0x3e6cfc8d	0.23143215
44	0xbc27adb6	-0.010234287
45	0x3a881dc6	0.001038485
46	0x3e978bcd	0.29598847
47	0xbea79cad	-0.32736722
48	0x3e8dd3c3	0.27700624
49	0x3e475892	0.1946738
50	0xbebedb0d	-0.37276497
51	0x3da0ffc2	0.07861282
52	0xbbf995f1	-0.0076167514
53	0xbebfd6d7	-0.37468597
54	0x3e04ef2d	0.12981863
55	0x3e318838	0.1733712
56	0x3ee1096c	0.439525
57	0x3e043395	0.12910302
58	0xbbf20254	-0.0073855314
59	0xb916a3de	-0.0001436616
60	0x3c623312	0.013806121
61	0x3e7aa05f	0.24475239
62	0xbc4de38f	-0.012566461
63	0xbde1b584	-0.110209495
64	0x3efaf73c	0.4901675
65	0x3b193194	0.0023375498
66	0xbbbce44d	-0.0057645203
67	0xbce28a0a	-0.027653713
68	0x3e49b133	0.19696502
69	0xbc82c59c	-0.015963368
70	0xbec2440d	-0.37942544
71	0x3c85e224	0.016343184
72	0x3e8a493a	0.27008992
73	0xbdb3d404	-0.08780673
74	0x3d15fef0	0.03662008
75	0xbedd3bce	-0.4320969
76	0xbd52c9b3	-0.051461887
77	0x3cb010e5	0.021492431
78	0xbcbed076	-0.023292761
79	0x3e2366ab	0.15957133
80	0x3b1114af	0.0022137573
81	0x3eade77a	0.33965665
82	0x3eb60230	0.35548544
83	0xbdeafecf	-0.11474382
84	0x3df59b10	0.119924664
85	0xbd3e63ff	-0.046482082
86	0xbb28b37a	-0.0025741742
87	0xbec3f404	-0.38272107
88	0x3e549ad8	0.20762193
89	0xbe5313ca	-0.20613018
90	0x3eb4f95e	0.35346502
91	0x3efdc3d1	0.4956346
92	0xbcb07212	-0.021538768
93	0xbe7b02b2	-0.24512747
94	0xbc861029	-0.016365128
95	0xbcc38561	-0.023867311
96	0x3d9b0731	0.07569731
97	0x3d34fb82	0.04418517
98	0xbe451084	-0.19244581
99	0xbe8c1a66	-0.2736389
100	0xbe048cd8	-0.12944353
101	0x3d312377	0.043246713
102	0xbe4a7263	-0.19770198
103	0xbe8c9b79	-0.27462366
104	0x3e38a102	0.1803017
105	0x3e9693cb	0.29409632
106	0x3eb0b39d	0.34512034
107	0xbdf550e7	-0.119783215
108	0x3e6916a5	0.22762544
109	0xbe352a89	-0.17692007
110	0x3ee3f457	0.44522354
111	0xbea79cc0	-0.32736778
112	0x3e3273eb	0.17427032
113	0xbd7daa8e	-0.06193023
114	0x3db16420	0.086616755
115	0xbe37a5c9	-0.17934336
116	0x3e7fa267	0.24964295
117	0xbdd83d89	-0.10558612
118	0xbea7965d	-0.32731906
119	0x3eaef4a2	0.34171015
120	0xbe8a6b91	-0.27035192
121	0xbe7ef963	-0.24899821
122	0x3ec01de9	0.3752282
123	0x3e3060aa	0.17224374
124	0x3e2a981c	0.16659588
125	0x3e49b595	0.19698174
126	0xbc29c83f	-0.010362684
127	0xbd8c068c	-0.06837186
128	0x3d87a983	0.06624129
129	0xbba33a11	-0.0049812873
130	0xbbc9e42d	-0.006161234
131	0xbe886fb7	-0.26647732
132	0xbe4bf78e	-0.19918653
133	0xbb5aed95	-0.003340577
134	0xbca5ccba	-0.020239223
135	0xbe1f4005	-0.15551765
136	0x3e5d3cc8	0.21605217
137	0x3ed40f53	0.4141794
138	0xbe020d67	-0.12700425
139	0xbcb4e56b	-0.022082051
140	0xbd075579	-0.033040497
141	0x3e162e71	0.14666153
142	0xbebfc2a0	-0.37453175
143	0x3dc259cd	0.094897844

0.bias f4 [16]
0	0xbd35b129	-0.044358406
1	0x3e7e72f9	0.24848546
2	0xbe90a289	-0.28249004
3	0x3da710f1	0.08157528
4	0x3e37facb	0.17966764
5	0xbe03e681	-0.12880899
6	0x3e36742d	0.17817755
7	0xbe936f6f	-0.28795955
8	0x3ea6cef7	0.32579777
9	0xbe4d7f04	-0.20067984
10	0xbe8ebb3a	-0.27877218
11	0x3ea78f4b	0.3272651
12	0x3dd10856	0.10206668
13	0x3e0ce16c	0.13757867
14	0xbe16072d	-0.14651175
15	0x3e2fe3ab	0.17176692

1.weight f4 [16]
0	0x3f6fe2c4	0.9370539
1	0x3f8bad84	1.0912328
2	0x3f87d4c5	1.0611807
3	0x3f7c587e	0.9857253
4	0x3f8db540	1.1070938
5	0x3f6fa332	0.9360839
6	0x3f6335c5	0.8875392
7	0x3f90f56b	1.1324896
8	0x3f8612ee	1.0474527
9	0x3f7ca098	0.98682547
10	0x3f806799	1.0031615
11	0x3f7e7551	0.9939776
12	0x3f66d970	0.90175533
13	0x3f6d6e25	0.9274619
14	0x3f83b3f2	1.028929
15	0x3f7e0dc5	0.9923976

1.bias f4 [16]
0	0xbdea4440	-0.11438799
1	0x3d493d95	0.049130995
2	0x3c078dc2	0.008273544
3	0xbb5b8419	-0.0033495484
4	0xbddbad83	-0.10726454
5	0xbd7c4976	-0.061593495
6	0x3c90a301	0.017655851
7	0xbd336ca8	-0.043804795
8	0xbd394dc5	-0.045240182
9	0xbd8cc92f	-0.0687431
10	0xbd48304b	-0.04887418
11	0xbdf1272f	-0.11775052
12	0xbd9cac8e	-0.076501
13	0xbe2fdf4e	-0.17175028
14	0xbddec46b	-0.108773075
15	0xbd96ef02	-0.07369806

1.running_mean f4 [16]
0	0xbd34e9ba	-0.04416821
1	0x3e7e43b7	0.24830519
2	0xbe909371	-0.2823749
3	0x3da80ab8	0.082051694
4	0x3e385d33	0.18004303
5	0xbe03d104	-0.12872702
6	0x3e360bb0	0.17777896
7	0xbe93ab3b	-0.28841576
8	0x3ea6b5e8	0.32560658
9	0xbe4df7c9	-0.20114054
10	0xbe8f1ad8	-0.27950168
11	0x3ea7c6ee	0.3276896
12	0x3dcfecf6	0.101526186
13	0x3e0cea35	0.13761218
14	0xbe15e7a6	-0.14639148
15	0x3e2f40d0	0.17114568

1.running_var f4 [16]
0	0x3e8ae979	0.2713125
1	0x3e8e8779	0.27837732
2	0x3e7e99aa	0.24863306
3	0x3ed45255	0.41469064
4	0x3e73a35c	0.23792785
5	0x3eb611af	0.35560367
6	0x3e32d6f5	0.17464812
7	0x3e81dccd	0.2536377
8	0x3e3ed1ca	0.18634716
9	0x3e8925d7	0.26786682
10	0x3e88570f	0.2662892
11	0x3e8cbbbc	0.2748698
12	0x3e99d86c	0.3004793
13	0x3ebb34a8	0.3656361
14	0x3d952915	0.072832264
15	0x3e73100d	0.23736592

5.weight f4 [32, 16, 3, 3]
0	0x3c23ff73	0.010009634
1	0xbd788069	-0.060669336
2	0x3ca86a4b	0.020558497
3	0xbcb1e998	-0.021717831
4	0x3e0bf912	0.13669232
5	0xbcab6dbc	-0.020926349
6	0xbdf1b53a	-0.11802144
7	0xba90f656	-0.0011059742
8	0x3d9f2dcc	0.07772407
9	0xbca224a0	-0.019792855
10	0xbe3d6c3a	-0.18498316
11	0xbcc13529	-0.023584919
12	0x3dea2198	0.11432189
13	0x3d8270d0	0.063691735
14	0xbcab2fbb	-0.020896783
15	0x3db59fd3	0.08868375
16	0x3d06441d	0.0327798
17	0x3cfd3708	0.03091003
18	0x3d57b0fe	0.052659027
19	0x3d71d04d	0.05903654
20	0x3d03891d	0.032113183
21	0xbc3bb338	-0.011456303
22	0x3e5fff6d	0.21874781
23	0xbd794df6	-0.060865365
24	0xbd25b7d5	-0.04045852
25	0x3d8e4382	0.0694647
26	0xbd87d106	-0.06631665
27	0xbbf6b592	-0.007528969
28	0x3da6bfb0	0.0814203
29	0xbd9029b2	-0.07039203
30	0xbb64328c	-0.0034820167
31	0x3d5f9982	0.054589756
32	0x3cab3291	0.020898135
33	0xbb2fefcb	-0.0026845809
34	0xbd206bff	-0.039165493
35	0x3e0f65d3	0.14003687
36	0xbb868caf	-0.0041061263
37	0x3dc38e38	0.095486104
38	0xbe153ba5	-0.14573534
39	0x3e183d10	0.14867043
40	0xbb6282be	-0.0034562792
41	0xbdabe8a3	-0.08393981
42	0x3d3b2848	0.045692712
43	0xbdbc2026	-0.09185819
44	0xbb888aad	-0.004166922
45	0xbb8ca713	-0.0042923777
46	0xbe257ed8	-0.16161668
47	0x3c461be6	0.012091612
48	0x3d44964e	0.047994904
49	0x3e2c8c71	0.16850449
50	0x3d926b33	0.07149353
51	0xbc0f4f67	-0.008746958
52	0x3dc4a92a	0.09602578
53	0x3e197630	0.14986491
54	0x3cc5fe2a	0.024169046
55	0x3c827d9e	0.01592904
56	0x3d293c66	0.041317366
57	0x3e12aee0	0.14324522
58	0x3d06e05e	0.032928817
59	0xbe154cce	-0.1458008
60	0x3d49be45	0.04925372
61	0xbc236d9c	-0.009974863
62	0x3d8ba48f	0.068184964
63	0xbd8bd71f	-0.068281405
64	0xbe1be6d5	-0.15224774
65	0xbd5e2eb3	-0.054243755
66	0x3d5c260b	0.053747218
67	0x3c8c27d6	0.017108839
68	0xbe8a8de8	-0.2706139
69	0x3dad90c4	0.084748775
70	0x3cd8eb32	0.026479337
71	0xbd133c31	-0.035946075
72	0xbd77ce5b	-0.06049953
73	0xbd0a1330	-0.033709705
74	0xbde514d2	-0.11185612
75	0x3b7efd3f	0.003890827
76	0x3e27b081	0.16375925
77	0xbd49a60c	-0.04923062
78	0xbd1ac37d	-0.03778409
79	0x3d714197	0.058900442
80	0x3da1577c	0.078780144
81	0xbd8c7215	-0.06857697
82	0x3d0095f8	0.03139302
83	0xbc4eed2c	-0.012629788
84	0x3b8712e5	0.0041221255
85	0x3a3aa68b	0.0007120154
86	0xbd653e60	-0.05596769
87	0x3d1988f0	0.03748411
88	0x3dcdbc66	0.100457
89	0xbd149c19	-0.03628168
90	0xbcafdd94	-0.021467961
91	0xbcb1b4d2	-0.021692667
92	0x3d8830a9	0.06649906
93	0xbd684c45	-0.05671336
94	0x3e34437b	0.17603867
95	0x3d908fba	0.07058664
96	0x3d94d485	0.072670974
97	0x3de4fec5	0.11181406
98	0xbd31a7a7	-0.043372776
99	0x3bcacea2	0.0061891833
100	0xbcd8a506	-0.026445877
101	0xbd0afcec	-0.03393261
102	0x3dc28b4c	0.09499225
103	0x3de0926b	0.10965427
104	0xbd089d30	-0.03335303
105	0x3d4fd919	0.05074415
106	0x3d86544a	0.065590456
107	0x3dcbc374	0.09949389
108	0xbdce99b8	-0.10087913
109	0x3bdc08e4	0.006714927
110	0xbd29c110	-0.041443884
111	0x3da01686	0.07816796
112	0x3dd743a1	0.10510946
113	0xbda62d76	-0.0811414
114	0x3d3abb4c	0.045588776
115	0x3e0b92cd	0.13630219
116	0x3e1c88bd	0.15286537
117	0xbdfbf6e4	-0.1230295
118	0xbd50227c	-0.050814137
119	0x3d4281f3	0.04748721
120	0x3da6efda	0.08151217
121	0x3cd31081	0.025764706
122	0xbd977566	-0.07395439
123	0x3e01dedd	0.12682672
124	0x3dd39953	0.10331979
125	0x3de9fa7f	0.114247315
126	0xbdee5a47	-0.11638313
127	0xbdb9d3dc	-0.09073612
128	0xbcedf993	-0.02904967
129	0x3bbe6233	0.005810046
130	0xbdbe877d	-0.09303186
131	0xbe572d94	-0.2101348
132	0x3d9821b1	0.07428301
133	0xbd26fc1b	-0.04076777
134	0x3c851d33	0.016249275
135	0xbd1339fc	-0.03594397
136	0xbdc661ba	-0.096866086
137	0x3d862799	0.065505214
138	0x3cfa8be2	0.03058428
139	0xbb69d800	-0.0035681725
140	0xbe1314b8	-0.14363372
141	0xbda29b84	-0.079398185
142	0xbbe8572b	-0.0070904694
143	0x3e08a1de	0.13342997
144	0x3cd02974	0.025410391
145	0x3c335deb	0.010947685
146	0xbc8c977d	-0.017162079
147	0x3bca8d98	0.00618143
148	0xbc99ebaf	-0.01878914
149	0xbdc67e22	-0.09692027
150	0xbcd21809	-0.025646226
151	0xbdbbbb57	-0.091665916
152	0x3d172d4e	0.03690844
153	0x3db458c6	0.08805995
154	0x3dedda48	0.116138995
155	0xbd67b6dc	-0.056570873
156	0xbce98624	-0.028506346
157	0xbdb5c811	-0.0887605
158	0xbe5bc85b	-0.21463148
159	0x3da8a0fa	0.08233829
160	0x3cf845cb	0.030306717
161	0x3d3dcb36	0.046336375
162	0xbd89be65	-0.06725768
163	0x3df685f2	0.12037267
164	0xbae851f6	-0.0017724622
165	0xbd883b8c	-0.06651983
166	0xbe008e6e	-0.12554333
167	0x3bc94b00	0.006142974
168	0x3cffc3f9	0.031221377
169	0xbe15e4a2	-0.14637998
170	0x3e79f907	0.24411403
171	0x3dab3913	0.083604954
172	0x3d9f4b35	0.077780165
173	0x3c98aa6d	0.018635953
174	0x3bde406f	0.0067825834
175	0xbe043e3f	-0.1291437
176	0x3d521f67	0.05129948
177	0x3e158c92	0.14604405
178	0x3d9b960a	0.07596977
179	0x3c9d75c6	0.019221198
180	0x3e66fea5	0.22558077
181	0xbe549a76	-0.20762047
182	0xbd228bd1	-0.03968412
183	0xbe055a42	-0.13022712
184	0xbe315587	-0.17317782
185	0xbd1b3bb4	-0.037898734
186	0xbcb2438e	-0.021760728
187	0xbd45821b	-0.04821978
188	0x3d75c6e7	0.06000414
189	0xbb4c81f2	-0.0031205383
190	0x3daffee1	0.08593536
191	0xbd0e33c4	-0.034717336
192	0x3db12d1e	0.086511835
193	0xbde2350c	-0.11045274
194	0xbe3474b3	-0.17622642
195	0xbc20abfc	-0.009806629
196	0x3d211741	0.039328817
197	0x3e221ca1	0.15831234
198	0x3da50767	0.080580525
199	0x3d2ba5bb	0.0419061
200	0x3dc70a87	0.09718805
201	0x3d77c5f4	0.060491517
202	0xbddecfbd	-0.10879467
203	0x3c8b86c3	0.017032033
204	0x3d77040c	0.060306594
205	0x3e0ca8a3	0.13736205
206	0x3c9ca45a	0.019121338
207	0xbbf545af	-0.0074851136
208	0x3bd1a6a7	0.0063980403
209	0x3d05653e	0.032567255
210	0x3e27629b	0.16346209
211	0xbd9ee2c1	-0.077580936
212	0xbe1277d7	-0.14303528
213	0xbdb1079d	-0.0864403
214	0xbdcf6f67	-0.1012867
215	0x3bdc983a	0.006732014
216	0x3e0de9e6	0.13858756
217	0x3d1f80e1	0.038941268
218	0xbd813891	-0.06309617
219	0xbe403513	-0.18770246
220	0x3d8c84ec	0.0686129
221	0xbdaa0803	-0.08302309
222	0xbcb2d3d5	-0.021829525
223	0xbcdf3f77	-0.027251942
224	0xbdcaa901	-0.09895516
225	0x3cdb48b6	0.02676807
226	0x3d1e983d	0.038719404
227	0x3d9e1764	0.07719305
228	0x3c294f10	0.010333791
229	0xbc836a32	-0.016041849
230	0xbd45828f	-0.048220214
231	0x3d372d1b	0.04472075
232	0x3ccc5f31	0.024947735
233	0xbccebdb8	-0.02523695
234	0xbd3dadcd	-0.046308327
235	0xbc98125d	-0.018563444
236	0xbc32ae50	-0.010905817
237	0x3de454de	0.11149
238	0xbcecab17	-0.028890176
239	0xbd6308d7	-0.055428352
240	0xbcf3bcb8	-0.029753074
241	0xbde9bea9	-0.11413319
242	0xba19c9a8	-0.0005866536
243	0x3e184324	0.14869362
244	0x3d302566	0.043004416
245	0xbdc5eb97	-0.09664076
246	0x3ca8d14f	0.020607619
247	0xbe5884fb	-0.21144478
248	0x3cb2ae71	0.021811696
249	0xbbaa93b4	-0.005205596
250	0x3d5c9ed8	0.053862423
251	0x3dbee69c	0.09321329
252	0x3c3d230c	0.011544
253	0xbd062f89	-0.032760177
254	0xbb96f2b8	-0.004606571
255	0xbc8ce93c	-0.017201059

5.bias f4 [32]
0	0x3c99c1e0	0.018769205
1	0xbd8e4b71	-0.06947983
2	0xbcbeedb4	-0.023306705
3	0x3dab141d	0.08353446
4	0x3d97fc70	0.074211955
5	0x3d5db2ce	0.0541256
6	0xbd9d9911	-0.07695211
7	0x3bee7330	0.007276915
8	0xbd3575cd	-0.044301797
9	0x3d28342a	0.041065373
10	0xbd7f0835	-0.062263686
11	0xbd6a455d	-0.057195056
12	0xbd126320	-0.035739064
13	0x3d01a55d	0.031651843
14	0xbd4285c4	-0.04749085
15	0x3d88390a	0.06651504
16	0x3da1c7a6	0.07899408
17	0x3d0740a0	0.033020616
18	0xbd7666cd	-0.060156632
19	0x3c974660	0.018466175
20	0x3c95f845	0.01830686
21	0xbd8616c6	-0.065473124
22	0xbd854dc5	-0.06508974
23	0xbd59fc59	-0.053219173
24	0xbd187a88	-0.03722623
25	0xbda8f76b	-0.08250316
26	0x3d3f1103	0.046647083
27	0xbd4abb6e	-0.049495153
28	0x3c0b2d61	0.008494706
29	0xbd894785	-0.067030944
30	0xbcf3d272	-0.029763434
31	0xbba18064	-0.0049286354

6.weight f4 [32]
0	0x3f4a5bfc	0.79046607
1	0x3f5d1c82	0.86371624
2	0x3f89dfc6	1.0771415
3	0x3f808a05	1.004212
4	0x3f54a2d5	0.8306096
5	0x3f570f6b	0.840079
6	0x3f8025f7	1.0011586
7	0x3f6a59d9	0.91543347
8	0x3f742953	0.95375556
9	0x3f7e71d4	0.9939244
10	0x3f8186ae	1.0119226
11	0x3f85b18f	1.0444812
12	0x3f7bfd95	0.9843381
13	0x3f5c0a40	0.8595314
14	0x3f812fd0	1.0092716
15	0x3f68bed2	0.9091617
16	0x3f83fd52	1.0311682
17	0x3f806ef6	1.0033863
18	0x3f77fdc8	0.96871614
19	0x3f7a60bb	0.9780385
20	0x3f794faf	0.9738721
21	0x3f782c9d	0.96943074
22	0x3f828e81	1.0199739
23	0x3f792332	0.9731933
24	0x3f6a233e	0.91460025
25	0x3f7ef44c	0.9959152
26	0x3f862411	1.0479757
27	0x3f839432	1.0279601
28	0x3f74f2fc	0.95683265
29	0x3f6842e5	0.9072707
30	0x3f52db8b	0.82366246
31	0x3f801db2	1.0009062

6.bias f4 [32]
0	0xbe4096b6	-0.18807492
1	0xbdb45cdf	-0.08806776
2	0x3dfc5399	0.123206325
3	0xbd844179	-0.064578004
4	0xbc51baf3	-0.01280092
5	0xbdee8c72	-0.116478816
6	0x3dab8079	0.083741136
7	0x3d26ce0d	0.04072385
8	0x3cf28323	0.029603546
9	0x3d771aa8	0.060328156
10	0x3dafdc52	0.08586945
11	0x3de17baa	0.11009915
12	0x3caf2257	0.02137868
13	0xbd1f83ec	-0.03894417
14	0x3d7b2575	0.06131502
15	0xbd085a03	-0.033288967
16	0x3c52079d	0.012819198
17	0x3d2ca437	0.042148795
18	0x3cdc859f	0.026919184
19	0x3d5df8c3	0.054192316
20	0x3d5d3d61	0.054013614
21	0x3d1f9f27	0.03897014
22	0x3d8a3d8b	0.0675002
23	0x3de61f79	0.11236472
24	0xbda31f53	-0.07964959
25	0x3b070a33	0.0020605444
26	0x3d3d58b3	0.04622717
27	0x3e04872e	0.12942192
28	0x3bdfbcf4	0.006827945
29	0x3d08350d	0.03325372
30	0xbe1a5dd6	-0.15074858
31	0x3d9e6e71	0.07735909

6.running_mean f4 [32]
0	0x3ea1f878	0.3163488
1	0xbed1afa8	-0.40954328
2	0xbf7c42be	-0.9853934
3	0xbf2b27d6	-0.6685766
4	0xbf4645ff	-0.77450556
5	0xbe8351d9	-0.25648382
6	0xbf697b10	-0.91203403
7	0xbf6130b6	-0.8796495
8	0xbf8125f2	-1.0089705
9	0xbf4cb892	-0.7996913
10	0xbf4292d8	-0.76005316
11	0xbf82a62a	-1.0206959
12	0xbf7c55bd	-0.98568326
13	0xbf2d41de	-0.6767863
14	0xbf51437d	-0.81743604
15	0xbf6130c8	-0.8796506
16	0xbf60b623	-0.8777792
17	0xbf33d739	-0.7025028
18	0xbf4a265d	-0.7896479
19	0xbf2ed372	-0.6829139
20	0xbf7dfc5f	-0.9921321
21	0xbf6eff7e	-0.933586
22	0xbf8e8d7e	-1.113693
23	0xbf9ed5c3	-1.2408985
24	0xbf72770d	-0.9471291
25	0xbfa18226	-1.2617843
26	0xbf38b210	-0.721467
27	0xbf79c53c	-0.9756658
28	0xbf59c388	-0.8506398
29	0xbf12e7a6	-0.5738472
30	0xbe94754b	-0.28995737
31	0xbf83316c	-1.0249457

6.running_var f4 [32]
0	0x40cd64e7	6.418567
1	0x40871631	4.221459
2	0x41150f3b	9.316218
3	0x40cd2fdf	6.4120936
4	0x40f4625b	7.6370063
5	0x403ea67f	2.978912
6	0x40c928b6	6.2862196
7	0x40f8227c	7.7542095
8	0x41195de1	9.58542
9	0x40f9a559	7.801434
10	0x40a7c804	5.243166
11	0x4107b39a	8.481348
12	0x4135e1f5	11.367665
13	0x40d537d4	6.663065
14	0x40d35972	6.6046686
15	0x40f2635c	7.574629
16	0x40b2fc6c	5.593313
17	0x40d80cf3	6.7515807
18	0x40e5ac86	7.17731
19	0x40c2f53e	6.092437
20	0x411eb6a0	9.919586
21	0x40f3c9fd	7.618407
22	0x412f0cfb	10.940669
23	0x41423b7d	12.1395235
24	0x41230f6b	10.191264
25	0x4166b81e	14.4199505
26	0x40bab978	5.83514
27	0x4107155c	8.442715
28	0x40e8b64e	7.272254
29	0x40882e5b	4.2556586
30	0x409a9171	4.830254
31	0x4134e4fa	11.3059025

10.weight f4 [64, 320]
0	0x3d33a2c8	0.043856412
1	0xbdad9955	-0.084765114
2	0x3c2aa46b	0.010415177
3	0x3daa29fa	0.08308788
4	0x3b1d5650	0.0024007745
5	0xbd5116c6	-0.05104711
6	0xbc0ce0c2	-0.008598508
7	0xbd227e68	-0.03967133
8	0x3d411929	0.047143135
9	0x3da2c5da	0.079478934
10	0xbda351ae	-0.079745635
11	0x3d6f4633	0.058416557
12	0xbc9857ce	-0.018596556
13	0xbcf5681b	-0.029956868
14	0xbda0386d	-0.07823262
15	0xbdbe33d8	-0.09287232
16	0x3daf8948	0.08571106
17	0xbc0168c1	-0.00789851
18	0x3c8ac762	0.016940776
19	0xbcde0a93	-0.027104652
20	0xbd2c0bf7	-0.042003598
21	0xbc248c9f	-0.010043292
22	0xbc100223	-0.008789572
23	0x3d4852c8	0.04890707
24	0x3db4b835	0.08824197
25	0xbda04101	-0.078248985
26	0xbcff3827	-0.031154705
27	0xbda9e7ab	-0.0829614
28	0x3df718b2	0.12065257
29	0x3d2feb48	0.04294899
30	0xbdc62e56	-0.09676807
31	0xbdee4ef8	-0.11636156
32	0xbcf8d444	-0.030374654
33	0x3d36598c	0.044518992
34	0x3d193af8	0.037409753
35	0x3e457b41	0.19285299
36	0xbda08238	-0.07837337
37	0xbbda42fc	-0.006660817
38	0x3db99d10	0.090631604
39	0xbd95a5a0	-0.07306981
40	0xbd9f4f20	-0.07778764
41	0xbda8d3aa	-0.08243497
42	0xbd78345a	-0.0605968
43	0xbc816ccb	-0.015798947
44	0xbce70956	-0.028202694
45	0xbdf212db	-0.11820003
46	0x3d4c82b8	0.04992935
47	0x3ca3273e	0.019916173
48	0x3d547f1e	0.05187904
49	0x3ce94020	0.02847296
50	0xbde3532f	-0.110998504
51	0xbd0ebd17	-0.0348483
52	0x3d8d0a98	0.06886786
53	0xbd8abeee	-0.06774698
54	0x3d5d3552	0.05400593
55	0x3d550d9f	0.052014943
56	0xbdb41927	-0.0879386
57	0xbdca7e6f	-0.098873965
58	0x3db31c6e	0.08745657
59	0x3d197af0	0.037470758
60	0xbc6110c9	-0.013736912
61	0xbdc79164	-0.09744528
62	0xbc851e3c	-0.016249768
63	0x3ceca101	0.028885366
64	0xbb351548	-0.0027631093
65	0xbdf10606	-0.11768727
66	0x3dd49c09	0.10381324
67	0x3d331d10	0.043728888
68	0x3d78618a	0.060639895
69	0x3da39a59	0.07988424
70	0x3d3ac1d8	0.04559502
71	0x3cc76fdc	0.02434533
72	0x3dc9c1de	0.0985143
73	0xbb98a528	-0.00465836
74	0x3c88b60c	0.01668837
75	0xbce1e9a7	-0.027577234
76	0x3db0e032	0.08636512
77	0x3bc41595	0.005984018
78	0x3d233f4b	0.039855283
79	0x3c973831	0.018459411
80	0x3d4b7493	0.04967172
81	0x3c19e55b	0.0093930615
82	0xbd920891	-0.0713054
83	0x3d81dde7	0.06341153
84	0x3d3a8a75	0.0455422
85	0x3c93d245	0.0180446
86	0xbd24e997	-0.04026183
87	0xbda0efd4	-0.078582436
88	0x3da82c0b	0.082115255
89	0xbc81414a	-0.015778203
90	0x3c4ac027	0.012374914
91	0x3c1b7cdc	0.009490218
92	0x3d832492	0.064034596
93	0x3c39f636	0.011350205
94	0x3d71362b	0.05888955
95	0xbd541546	-0.0517781
96	0xbc84aee0	-0.016196668
97	0xbc49557d	-0.012288448
98	0xbd06a9f2	-0.032876916
99	0x3d9668e8	0.07344228
100	0xbd29847a	-0.041386105
101	0xbd683709	-0.05669311
102	0x3cf405c4	0.029787906
103	0x3dbb1f79	0.09136862
104	0x3c9457f3	0.018108344
105	0xbd50c85a	-0.05097232
106	0xbe3a1e87	-0.18175708
107	0x3dded047	0.108795695
108	0x3d9ca966	0.07649498
109	0x3cc59db9	0.02412306
110	0x3c852b60	0.016256034
111	0xbc8b0b44	-0.016973145
112	0x3b47e578	0.0030501764
113	0x3e19a6d2	0.15005043
114	0x3ca8c273	0.020600533
115	0xbd1efd3e	-0.03881573
116	0x3dc86abd	0.09785984
117	0xba9711d3	-0.0011525698
118	0xbc6f754c	-0.014615368
119	0x3dc7d852	0.09758057
120	0x3c5567af	0.013025208
121	0x3d6644cc	0.056217954
122	0x3d8a62be	0.06757115
123	0x3dc16e3f	0.09444856
124	0x3dbf9050	0.09353697
125	0xbc5af89d	-0.013364938
126	0xbd11ef71	-0.03562874
127	0x3d40f054	0.047104195
128	0x3de7817b	0.11303993
129	0x3d63e406	0.055637382
130	0xbcf145a9	-0.029452162
131	0x3b995530	0.0046793446
132	0xbdd6fdf9	-0.1049766
133	0xbd2dc389	-0.042422805
134	0xbd3ace02	-0.04560662
135	0xbd7e7d3b	-0.062131148
136	0xbcdcfedf	-0.026977
137	0xbd0bc0d6	-0.03411945
138	0xbd43bbbb	-0.047786456
139	0x3d82062b	0.06348833
140	0xbda673f4	-0.08127585
141	0xbd0c7d09	-0.03429893
142	0xbd194d86	-0.037427448
143	0x3dbc96f5	0.0920848
144	0xbd023b06	-0.03179457
145	0x3cfc6509	0.030809896
146	0xbdf82211	-0.12115873
147	0xbd101dec	-0.035184786
148	0x3cff7c30	0.031187147
149	0xbd05c3e3	-0.032657515
150	0x3e3cd0d9	0.18439044
151	0xbcad287e	-0.021137472
152	0x3c77fee5	0.015136455
153	0xbcc4505c	-0.0239641
154	0xbc7ff057	-0.015621266
155	0xbd4efb85	-0.050532836
156	0xbd9fb542	-0.07798244
157	0x3de4ae52	0.111660615
158	0x3d0e8ee0	0.034804225
159	0x3cad9f80	0.02119422
160	0xbc40653b	-0.011742885
161	0xbcb83608	-0.022486702
162	0x3d81f950	0.06346381
163	0x3cee92d1	0.029122742
164	0x3c8dea4a	0.017323632
165	0xbd63b946	-0.055596612
166	0x3d7825f7	0.06058308
167	0x3d9ceace	0.07661973
168	0xbd9f75d0	-0.07786143
169	0x3d90b68b	0.07066067
170	0xbdc3f7d6	-0.09568755
171	0x3d38ff76	0.0451655
172	0xbd242681	-0.040075783
173	0x3d531edb	0.051543098
174	0xbcd03a49	-0.025418418
175	0x3ccc1e3c	0.02491676
176	0x3cb36cef	0.02190253
177	0x3dd5a6f5	0.10432235
178	0x3cd7b464	0.026331134
179	0x3e006dcc	0.12541884
180	0xbcd84d45	-0.026404032
181	0x3e09174d	0.13387795
182	0xbd63ebd6	-0.055644833
183	0x3d947ddf	0.072505705
184	0x3d8920e1	0.06695724
185	0x3d525fdb	0.051360946
186	0x3c95be8c	0.018279336
187	0xbd98c0ff	-0.07458686
188	0xbc6766fe	-0.014123676
189	0xbd0251f8	-0.031816453
190	0xbd6c8dd0	-0.05775243
191	0xbd53a9b8	-0.05167553
192	0x3d0c76cd	0.034292985
193	0xbda529da	-0.08064623
194	0x3d11e355	0.03561719
195	0x3d840951	0.064470895
196	0x3c08aaf7	0.008341542
197	0x3d67be7b	0.05657814
198	0x3db5e466	0.08881454
199	0x3da436f2	0.080182925
200	0x3cad9462	0.021188919
201	0xbd4110f7	-0.04713532
202	0xbc60030c	-0.013672601
203	0xbc83427f	-0.016022919
204	0x3da2bb68	0.07945901
205	0x3dbd6131	0.092470534
206	0xbc3ccf25	-0.0115239965
207	0x3d16b000	0.03678894
208	0x3da32843	0.07966664
209	0xbd08c072	-0.033386655
210	0x3c979035	0.01850138
211	0xbdd6d3c8	-0.10489613
212	0xbd94bf75	-0.0726308
213	0x3e1b996f	0.15195249
214	0x3e2c73d9	0.16841067
215	0x3d20a768	0.03922215
216	0x3d6302e5	0.055422682
217	0xbc134aaf	-0.008989974
218	0xbd69a051	-0.057037655
219	0xbb5719db	-0.0032821808
220	0xbda949b6	-0.08266012
221	0x3d2e181a	0.042503454
222	0x3bc6a22e	0.006061814
223	0x3d25fd86	0.040524982
224	0xbc3eb1f6	-0.011639109
225	0xbc0b33a5	-0.0084962
226	0xbc78c765	-0.015184258
227	0x3d019663	0.03163756
228	0xbca113ea	-0.019662816
229	0x3d6c33b2	0.057666488
230	0x3c72f855	0.014829715
231	0xbdcb11aa	-0.099154785
232	0x3d89aa22	0.067219034
233	0xbcd19921	-0.025585713
234	0x3cf8411f	0.03030449
235	0xbdc37ef9	-0.095457025
236	0xbe204888	-0.15652668
237	0xbdd64935	-0.10463182
238	0x3e5be719	0.21474876
239	0xbc5ea904	-0.013590101
240	0x3d836855	0.06416384
241	0xbd5a4d20	-0.05329621
242	0xbc8ac143	-0.016937857
243	0xbc97fbbe	-0.018552657
244	0xbdca03c2	-0.09863998
245	0x3c398332	0.011322783
246	0xbc0ae5de	-0.008477656
247	0xbcd5d35c	-0.02610176
248	0x3e74feb6	0.2392529
249	0xbcf82b5f	-0.030294118
250	0x3d5feabc	0.05466722
251	0x3dc5c79d	0.09657214
252	0xbd851f6e	-0.06500135
253	0x3e181ea6	0.14855441
254	0x3d863ed8	0.06554955
255	0xbd92cd1e	-0.07168029

10.bias f4 [64]
0	0x3d1273ce	0.03575497
1	0x3e301821	0.17196704
2	0x3d195959	0.037438724
3	0x3d86816d	0.06567655
4	0x3c827da4	0.01592905
5	0x3d54afd4	0.051925495
6	0x3d33a3c3	0.043857347
7	0x3d26a7b0	0.040687263
8	0x3d0a0f3f	0.033705946
9	0x3caa5d58	0.020796463
10	0x3d39c2cd	0.045351792
11	0xbd4c91e3	-0.049943816
12	0xbd8b76aa	-0.06809743
13	0x3e047662	0.12935784
14	0x3e1496d8	0.14510667
15	0x3dbdc501	0.09266091
16	0xbd8f3e2f	-0.069942825
17	0x3df238cc	0.118272394
18	0x3d1050d4	0.035233334
19	0xbc384008	-0.011245735
20	0x3d830eb9	0.063992925
21	0x3cb57ffe	0.022155758
22	0xbd5cfbc0	-0.053951025
23	0x3d90874d	0.070570566
24	0x3d8eff04	0.06982234
25	0xbd94421f	-0.07239174
26	0x3dbe45c9	0.09290654
27	0x3dd3562f	0.103191726
28	0x3dc2421d	0.09485266
29	0x3cf7b51e	0.03023773
30	0x3e1358aa	0.14389291
31	0xbcd81b18	-0.026380107
32	0xbcab8562	-0.020937625
33	0x3e0cec9a	0.13762131
34	0x3e5b1640	0.21395206
35	0x3e4cba8e	0.1999304
36	0x3d9e84ca	0.07740171
37	0x3d0fe0da	0.035126545
38	0x3d619a0c	0.05507855
39	0x3b831a59	0.0040009436
40	0x3d9613bc	0.07327983
41	0x3d42057e	0.04736852
42	0x3d1576e5	0.03649034
43	0xb966336b	-0.00021953664
44	0x3e2782d9	0.16358508
45	0xbd8c73c5	-0.06858019
46	0x3d9fc4ad	0.07801185
47	0xbd7403b4	-0.059573844
48	0x3d451e1c	0.048124418
49	0xbd14d5a1	-0.036336545
50	0x3cc0605f	0.023483453
51	0x3d9972e9	0.074926205
52	0x3dede654	0.11616197
53	0x3e4197e6	0.18905601
54	0x3e775d7c	0.24156755
55	0x3d4776fc	0.048697457
56	0x3df975de	0.121806845
57	0x3dd5c1ce	0.10437356
58	0xbcb7f928	-0.022457674
59	0x3e2b2449	0.1671306
60	0xbd443e04	-0.047910705
61	0x3d31d0d7	0.043412056
62	0x3df4054f	0.11915075
63	0x3c92c40c	0.017915748
