VFL/models/vfl_network/bottom_model_party1.pth (torch, 67195 bytes, 14 tensors)

0.weight f4 [16, 1, 3, 3]
000000 e3 70 01 3e 3b ee b4 3d 88 eb b9 3d 05 75 56 3d
       0.12640719 0.08834501 0.09078127 0.052357692
000010 48 8a de bd 39 9f ea 3d 47 78 d8 bd 55 f5 3d 3e
       -0.10866219 0.114561506 -0.10569816 0.18550618
000020 17 01 18 3f e5 2b f6 be be 7a 15 3e 89 05 8c bd
       0.5937666 -0.48080364 0.14597604 -0.06836993
000030 37 5a 36 3d 49 93 2d 3e 1b b6 1f 3e 96 b5 7f be
       0.04451963 0.16950716 0.15596811 -0.24971613
000040 fd 95 9e 3e f1 0b 06 3e 58 c3 8b bd cb 6f 18 be
       0.30973807 0.13090493 -0.06824368 -0.14886396
000050 2e 88 8a be ea af 31 be d8 02 69 be f2 8a 52 3e
       -0.27057022 -0.17352262 -0.22754991 0.20560816
000060 a4 c6 94 be 99 3a d4 bd 13 8a 76 bb 80 45 f6 bd
       -0.290578 -0.10362739 -0.003761892 -0.12024975
000070 7d c1 02 be 17 60 d8 be ed 60 93 3e cb 35 f7 be
       -0.12769122 -0.4226081 0.28784886 -0.48283228
000080 18 73 2f 3e 72 f7 5a 3c c9 d8 f4 3c 18 3f 44 3e
       0.17133749 0.01336466 0.029888527 0.19164693
000090 5a 96 8d be 25 52 2a 3e 52 ae a6 bd ba 92 81 be
       -0.27653772 0.16632898 -0.08138718 -0.25307256
0000a0 21 1c 37 3e 62 d2 58 bd 58 78 90 3c b7 24 be 3e
       0.17881824 -0.05293501 0.01763551 0.37137386
0000b0 9b 8a 45 3e 92 30 01 bf fb bd fd 3c 5b ad 5c bc
       0.19291155 -0.5046474 0.030974379 -0.013469066
0000c0 66 e7 c8 3c 0e c0 67 bd 1b d1 3a be 16 93 1e bd
       0.024524402 -0.056579642 -0.1824383 -0.03871449
0000d0 1b 70 48 be 34 30 e0 3e 6d c9 cb be 18 05 ba bc
       -0.19574015 0.43786776 -0.39802113 -0.022707507
0000e0 c6 3a 93 3e 61 c5 f0 bd 97 15 6d 3d 14 1b 8c be
       0.28755778 -0.11756397 0.057881918 -0.2736441
0000f0 de c7 46 3d 16 e5 56 be 5f 97 c2 bc 6c 86 73 be
       0.048530452 -0.20985827 -0.02375382 -0.23781747
000100 b5 65 a7 bd 0c 80 ec bb 13 d6 b7 3c 2a 2d 82 3d
       -0.08173696 -0.007217413 0.022440946 0.063562706
000110 a4 3c 35 be 12 0c 98 be 12 8a d3 3e d2 41 4a 3e
       -0.17698914 -0.2969671 0.41316277 0.19751671
000120 f8 5b 2b 3b e6 bc f9 bd 73 fe cf be 8b d5 93 be
       0.0026147347 -0.12194233 -0.40623817 -0.28873858
000130 a1 99 a2 bc 61 18 eb 3c 0d ab 89 3d d1 d7 89 3e
       -0.019848647 0.028698148 0.067220785 0.26922467
000140 3c 3e f2 be a8 8a 15 bd 99 da 7f 3e a2 10 0d bb
       -0.47313106 -0.036509186 0.24985732 -0.0021524807
000150 bf 2f 53 bd 6c 36 5e be 4f b0 84 3e 56 08 a3 be
       -0.051559206 -0.21700448 0.25915763 -0.31842297
000160 5c d5 07 be 90 98 77 3c 63 2b 69 be 03 8b bd be
       -0.13264984 0.015112057 -0.22770457 -0.3702012
000170 be 13 8d 3e 96 d2 e8 bc 65 f0 c4 be a3 9e 80 bd
       0.27554125 -0.028420728 -0.38464656 -0.062802576
000180 7a c4 2b 3e c2 c6 fa bd 71 92 c3 bd f6 58 f8 be
       0.16774169 -0.12244941 -0.09549416 -0.48505372
000190 b0 4c b7 be 56 7f 6c 3e 86 fc 65 bd f4 3a b7 be
       -0.35800695 0.2309545 -0.05614903 -0.35787165
0001a0 12 80 16 bd 5d 84 0a be 8b 43 80 bd af 84 aa bd
       -0.03674323 -0.13527055 -0.06262883 -0.08326089
0001b0 b0 90 15 bf aa c5 98 bb 65 90 b0 3e 8f 9e 72 3d
       -0.584239 -0.0046622353 0.34485164 0.059233245
0001c0 d4 22 8e 3b c3 42 56 be 7d 3b 20 be c6 a6 d6 3b
       0.004337648 -0.20923905 -0.15647693 0.0065506427
0001d0 79 77 68 bc d5 c3 cb be 99 63 19 be 00 af c3 be
       -0.014188641 -0.39797845 -0.149794 -0.38219452
0001e0 2b 6f c7 bd ac 38 9a be d0 7a 39 3c 2a 16 b8 bd
       -0.097380005 -0.30121362 0.011320785 -0.089886025
0001f0 71 6c 1c be 98 a9 10 be dd 60 05 bf df 0c 11 bd
       -0.15275742 -0.14127195 -0.52100927 -0.035412665
000200 6e 2a cc 3e b7 df f1 bb 9e af db 3c 76 76 c1 bd
       0.3987612 -0.007381405 0.02681714 -0.09446423
000210 99 bc 3d be 98 0f 5c 3e 6b 61 a9 3d 2f ed 7c be
       -0.18528976 0.21490324 0.08270534 -0.24699853
000220 9c dd 2d be b6 b1 cc be db fb 80 bd 8d 3b 01 3e
       -0.16979069 -0.39979333 -0.062980376 0.12620373
000230 6e f8 27 3e 64 98 70 be 3f 91 8f 3e 92 9d 6f be
       0.16403362 -0.23495632 0.280405 -0.23399952

0.bias f4 [16]
000000 17 28 5f bd 07 bc 8d 3d 53 3d 3e 3e b0 62 90 3e
       -0.054481592 0.06920629 0.18578081 0.28200293
000010 51 96 a3 3e c1 2e 89 be be d9 c0 3d d2 0e 22 be
       0.3195062 -0.26793483 0.09416531 -0.15825966
000020 c3 f0 30 bd 80 fc 8e be e0 71 a0 3e 03 5a 60 be
       -0.04319836 -0.27927017 0.3133688 -0.21909337
000030 80 3e 32 3e ab c0 ee 3d 9c 10 f3 3d a7 e3 3c be
       0.17406654 0.11657842 0.11868402 -0.18446217

1.weight f4 [16]
000000 cb bf 5d 3f 3f d7 7a 3f 16 6f 81 3f ad d1 80 3f
       0.8662078 0.9798469 1.0112026 1.0063988
000010 9f 30 78 3f 94 04 80 3f 86 e1 6d 3f 2d 32 80 3f
       0.9694919 1.0001397 0.92922246 1.0015312
000020 86 93 83 3f 97 34 6f 3f fe 1f 82 3f f0 d9 8a 3f
       1.0279396 0.9343962 1.0166013 1.0847759
000030 55 c8 8c 3f c6 4b 99 3f 87 fb 78 3f 5a c9 6b 3f
       1.0998636 1.1976249 0.972588 0.92104113

1.bias f4 [16]
000000 53 cc b4 3c 18 cf 9b ba dc a5 04 be 3c fe 60 be
       0.022070086 -0.001188728 -0.12953895 -0.21971983
000010 42 43 46 be 2e 30 cd be 9d cb 5b be d4 fb 4c be
       -0.19361594 -0.4007582 -0.21464391 -0.2001794
000020 f0 5b 6d be 49 f9 bb bd cb c0 e8 bd 22 04 4b bd
       -0.23179603 -0.09178407 -0.11364897 -0.04956449
000030 b8 29 33 be 59 fe 89 bd d9 01 84 bd fd 91 8c be
       -0.17496383 -0.06737966 -0.06445665 -0.2745513

1.running_mean f4 [16]
000000 58 50 60 bd 09 6f 8c 3d 83 21 3f 3e f9 90 90 3e
       -0.05476412 0.06857116 0.18665127 0.28235605
000010 62 6e a3 3e ba fa 88 be 9d cc c1 3d 2b 11 22 be
       0.31920153 -0.2675379 0.09462855 -0.15826862
000020 ab a6 2e bd 2a d9 8e be 2c 9c a0 3e 25 c9 5f be
       -0.042639416 -0.27900058 0.3136915 -0.21854074
000030 64 9d 32 3e cd 31 ef 3d b6 92 f3 3d 75 2e 3c be
       0.17442852 0.116794206 0.11893217 -0.18377097

1.running_var f4 [16]
000000 67 b5 67 3e aa 91 64 3e 01 02 41 3e 4f c2 bf 3e
       0.22627793 0.22321191 0.1884842 0.37452933
000010 17 df 3e 3e 18 0b 83 3e 04 88 4d 3e c1 5b 4e 3e
       0.1863979 0.255944 0.20071417 0.20152189
000020 7c 80 95 3e 0a de 36 3e 60 db 7a 3e 32 da 9a 3e
       0.29199588 0.17858139 0.24497747 0.30244595
000030 f4 16 7c 3e 43 6c 84 3e 73 3d 71 3e 86 b3 60 3e
       0.24618131 0.25863847 0.23558597 0.21943483

5.weight f4 [32, 16, 3, 3]
000000 b3 20 9b 3d 2b 04 96 3c f6 a2 2f 3c 4e c1 46 bd
       0.07574596 0.018312534 0.010720005 -0.048524193
000010 51 39 df 3c a9 98 3e 3d 83 5f 1c bd f3 97 92 3d
       0.02724901 0.046532307 -0.038177025 0.07157888
000020 20 33 98 3c 08 da 3c bd 18 c3 2c bd ab 67 82 bb
       0.018579066 -0.04610637 -0.042178243 -0.0039796433
000030 e0 a4 82 bd e3 f0 63 3b ad 4c 83 bd 3b c6 e9 bc
       -0.06379104 0.003478103 -0.06411109 -0.028536906
000040 66 00 7f bd 0b 76 f3 3c 56 1a 84 3d 28 ac a0 bd
       -0.06225624 0.029719373 0.06450336 -0.07845336
000050 c0 8c 9e 3c 5f c2 c4 3d 22 95 ac bd b5 fe 1d be
       0.019354224 0.09607386 -0.08426882 -0.15429194
000060 00 28 32 3d 0b 60 33 3d 86 44 ff 3c 16 eb 6f bc
       0.04349518 0.043792766 0.031160604 -0.014643451
000070 60 c5 b4 bc 8b 10 12 3c e0 8a 67 3d 09 7d de bd
       -0.022066772 0.008915077 0.056528926 -0.10863692
000080 16 db 2a 3c be ab 92 3d 16 2a 07 bc d0 d8 98 bc
       0.010428211 0.071616635 -0.00824978 -0.018658072
000090 00 63 9f 3a 16 0b a3 bb eb 1e a4 3c ad 18 f4 3c
       0.0012160242 -0.004975687 0.020034274 0.029796923
0000a0 b5 b3 40 bc 1e f1 c9 3c 33 b9 8f 3d d6 f7 04 3d
       -0.0117615955 0.024651106 0.07017746 0.032462917
0000b0 16 d1 87 bb b6 ca 4d bd 58 d4 50 bd a7 e0 98 bd
       -0.004144798 -0.05024215 -0.050983757 -0.07464724
0000c0 c0 88 36 be ec 3a 20 3c 26 03 21 bd bb 97 1d 3d
       -0.17825603 0.009779673 -0.039309643 0.03847478
0000d0 1b dc 96 bd db 43 4d bd eb 78 57 bc 26 18 a5 3d
       -0.073662005 -0.05011354 -0.013151388 0.080612466
0000e0 76 81 45 3c 45 d0 55 3b 2d d9 b5 bd 7f c7 b4 3c
       0.012054792 0.003262536 -0.088793136 0.022067783
0000f0 10 ee 5c bd 86 22 79 3d 73 34 1b bd 1b da 88 bc
       -0.05393797 0.06082394 -0.037891816 -0.016705563
000100 aa c7 a9 bd c3 71 64 3d 50 13 09 be 1a 0b 0f 3d
       -0.08290036 0.055772554 -0.13386273 0.034922697
000110 b7 e2 81 bd 10 70 a8 bd a4 9c 8a bd 48 88 7e 3d
       -0.063420705 -0.08224499 -0.06768158 0.062141687
000120 48 e0 23 3d e4 9d 8f 3d 73 d0 32 3d a2 00 02 be
       0.040008813 0.07012537 0.043655824 -0.12695554
000130 54 49 2d bd ea 81 36 3b f3 38 92 bd 02 a2 9f bd
       -0.04230626 0.002784843 -0.071397685 -0.077945724
000140 98 ba 0b 3d 70 95 27 bd 70 63 89 bc 6b 70 44 bd
       0.034113497 -0.040914 -0.016771048 -0.047958773
000150 4e 0e 47 bc 13 13 6b bc 8f b5 8c be ab 72 e2 3c
       -0.012149407 -0.014347809 -0.27482268 0.027642569
000160 d6 e2 ca bc 46 b8 52 3d 66 01 db bc 16 64 7a bd
       -0.024766367 0.051445268 -0.026734065 -0.061130606
000170 e0 e5 70 bc 57 37 bb bd fd c2 87 be 1d f4 fc bd
       -0.014703244 -0.091414146 -0.26515952 -0.123512484
000180 10 f9 3e 3d 48 a3 6d bd 68 8f 2b 3d 46 e4 1a 3d
       0.046624243 -0.058017045 0.04188481 0.037815355
000190 16 dc 73 3d 04 e9 82 bd a5 77 ec bd 4a d2 77 be
       0.059536062 -0.063921005 -0.11546258 -0.24201313
0001a0 54 4c 36 bd 8c 46 a0 3d 36 8e 40 bc ab f0 28 ba
       -0.044506386 0.07825956 -0.011752656 -0.0006444554
0001b0 b6 2b 9d bc 08 81 8e bd 8e ce 23 3d 9c 3d 55 be
       -0.019185882 -0.069582045 0.039991908 -0.20824283
0001c0 b0 4d e0 3c 0c 59 1b be 8b 66 a1 3d f0 06 a1 bc
       0.027380794 -0.15170687 0.07880887 -0.019656628
0001d0 16 3a 8c bd f0 7b 99 3c d6 8f 3c 3d b4 dd a9 bd
       -0.068470165 0.018735856 0.04603561 -0.0829424
0001e0 31 51 d6 3d d0 38 be be 89 0c b1 bd 46 02 28 bd
       0.10464705 -0.3715272 -0.08644969 -0.041017793
0001f0 a8 86 0b bd f6 b7 d8 bc 6b 2f a2 bd 86 08 8c 3d
       -0.034063965 -0.026454907 -0.079192005 0.06837563
000200 40 13 8f 3d 11 28 ea bd 60 49 d7 bb 3c 0a 93 bd
       0.069860935 -0.11433423 -0.0065700263 -0.071796864
000210 6b 1f 9a bd 54 15 a6 bd 06 b8 fd 3c 63 68 3b bd
       -0.07525524 -0.08109537 0.030971538 -0.045753848
000220 73 6f 5b bd 2b 0e d5 bb 86 89 c0 bd 00 9d da 3c
       -0.053573083 -0.006501933 -0.094012305 0.026686192
000230 44 4c 2f bd 56 cd 90 bc f6 0c eb bc b3 6e 23 bd
       -0.042797342 -0.017676037 -0.028692704 -0.039900493
000240 aa e4 8a bd f0 1a 8f 3d e3 98 08 bd 11 f2 23 3d
       -0.067818955 0.0698756 -0.03334893 0.040025774
000250 08 e0 89 3b fe 12 34 bc d4 1c 9f 3d 90 42 1d 3d
       0.004207615 -0.010990856 0.077691704 0.038393557
000260 52 e6 93 bd e6 79 07 3d 0e 01 a2 3d 26 99 b3 3c
       -0.072216645 0.033075236 0.079103574 0.021923613
000270 27 3f 9c 3d bc 77 b7 3c 95 03 06 3d c6 b0 8d 3c
       0.07629233 0.022395961 0.03271826 0.017296206
000280 18 3d 6d bd 96 ae 8c bc 33 c9 7c 3d ae fb 2e 3d
       -0.05791959 -0.017173093 0.061715316 0.04272049
000290 f3 fd 57 bd ab fb ae bd 08 24 b4 be ff 71 13 be
       -0.05273242 -0.085440956 -0.3518374 -0.14398955
0002a0 6c b1 83 bd 5b d2 a8 bc ab 5b 66 3d 56 88 64 3c
       -0.06430325 -0.020608118 0.056239765 0.013948521
0002b0 5c cf 81 bd b3 e9 88 bd df 18 97 3d d5 f4 e6 bd
       -0.06338379 -0.066851996 0.07377791 -0.11277167
0002c0 b6 29 c7 bd 5b bd 23 3d 23 f9 1d bd 36 e0 14 bc
       -0.097247526 0.039975505 -0.038567673 -0.009086659
0002d0 80 b0 ed bb f0 81 a1 bc 26 11 2d bd 60 6a de ba
       -0.0072537065 -0.01971528 -0.042252682 -0.0016968958
0002e0 6b b0 42 bd d9 10 df 3c 18 d6 a4 3d 78 de 24 bd
       -0.047531527 0.027229713 0.08048648 -0.040251225
0002f0 03 37 65 bd 76 79 a5 3c 66 26 bc 3c 16 05 3b 3d
       -0.055960666 0.020199519 0.022967529 0.045659147
000300 3c 6f 3e 3d 07 6b 09 bd da a4 5a bd d6 2d f2 3b
       0.0464928 -0.033549335 -0.05337987 0.007390718
000310 83 c3 4e 3d 16 62 fc bb 00 24 49 bd 0e b4 a2 3d
       0.050479423 -0.0077021224 -0.049106598 0.07944499
000320 1b 56 ff bc 71 3c 0a be ca 69 2c be d8 69 50 3d
       -0.031168988 -0.13499619 -0.1683723 0.05088219
000330 90 41 17 3d f6 1d 97 3c 46 ff 86 3c 74 6e 81 bd
       0.03692776 0.018446904 0.016479146 -0.063198954
000340 28 62 9f bd 56 57 c0 3a ba f7 42 bd 40 44 94 3b
       -0.07782394 0.0014674466 -0.04759953 0.0045247376
000350 0e a3 55 3d 60 3b 31 bc 16 a0 7b bd ce aa 24 bd
       0.052157454 -0.010817379 -0.061431967 -0.040201955
000360 76 42 77 3c 80 de 39 3d 02 60 8d 3d 28 0b a8 be
       0.015091529 0.04537821 0.06903078 -0.32821012
000370 26 a0 26 3d 83 76 ba bd e6 a2 ff 3c 06 6d 90 3d
       0.040680073 -0.091046356 0.031205606 0.070520446
000380 56 61 99 3a 2a 46 9b 3d b3 6a 91 bd 1b 60 02 bd
       0.0011701982 0.07581742 -0.071004294 -0.031829935
000390 5b 05 88 3b 34 23 3b ba 69 4f 09 bc d0 43 0e bd
       0.004151029 -0.00071387296 -0.008380749 -0.03473264
0003a0 7e 48 6b 3d d3 6c 27 3d b6 c2 da 3c 23 d1 3f bd
       0.05744218 0.040875267 0.026704174 -0.046830308
0003b0 e2 89 8a bd bb 2f 0d bd 74 ac a6 bd 5e ff df bd
       -0.0676458 -0.034469347 -0.081383616 -0.10937379
0003c0 30 02 bf bc 88 86 66 3d 2b 86 d9 3b 00 68 76 3b
       -0.023316473 0.056280643 0.0066383085 0.003759861
0003d0 30 01 a8 bc d2 8d 9a bd 5c 17 45 be 9a e7 91 be
       -0.020508379 -0.07546581 -0.19247192 -0.2849701
0003e0 4b be 40 bc f0 af d4 3c 4b bb c6 bc 83 89 05 bd
       -0.011764119 0.0259628 -0.02425923 -0.032601845
0003f0 fc b7 a2 3d d6 c9 ed 3c 5b 56 73 3d df 51 09 be
       0.079452485 0.029026907 0.059408527 -0.13410138

5.bias f4 [32]
000000 04 d3 af 3c a7 d4 26 3d 90 e1 a0 bd d6 15 61 bd
       0.021462925 0.040730145 -0.07855523 -0.054952465
000010 74 ff a3 bd 81 f5 22 3d a4 81 79 3d 07 f2 a8 bd
       -0.08007708 0.039784912 0.06091465 -0.08249288
000020 9b 97 8d 3c c4 f6 94 3c 20 be 35 bd 40 64 89 3c
       0.017284205 0.018184073 -0.04437077 0.016771436
000030 75 db 7e 3d 4d 3a a6 3d f6 af 0b 3d c0 4d 96 bc
       0.06222101 0.08116589 0.034103356 -0.018347621
000040 17 8c 43 bd 6c 38 01 bd 15 9c a2 b9 41 7b dd bb
       -0.047741022 -0.03154795 -0.00031015338 -0.006759078
000050 ff cf 73 3d 8a 16 a2 bd 84 ec 9d 3b 4e 25 cd bc
       0.059524532 -0.07914455 0.0048194546 -0.025042202
000060 2b 36 e3 3b d7 f1 a4 3d 7e d3 15 3b 59 d2 6b bc
       0.0069339476 0.0805394 0.0022861655 -0.0143934125
000070 82 d5 ed bc a4 7b a6 bd e4 60 99 bd 2c fe 17 3d
       -0.029032473 -0.08129051 -0.074891835 0.03710763

6.weight f4 [32]
000000 ac d6 98 3f 8f 08 94 3f 14 1a 90 3f ee 23 81 3f
       1.1940513 1.1565112 1.1257958 1.008909
000010 8b 17 86 3f 68 c9 93 3f f5 c0 83 3f e0 04 89 3f
       1.0475935 1.1545839 1.0293261 1.0704613
000020 d7 93 92 3f f0 ec 8a 3f 56 4d 8c 3f a8 e4 90 3f
       1.1451367 1.0853558 1.0961101 1.131978
000030 1b 0b 93 3f 59 2c 82 3f 25 00 8c 3f d4 5f 7b 3f
       1.1487764 1.0169784 1.0937544 0.981931
000040 35 3d 8c 3f 61 3a 85 3f 46 56 91 3f 51 2e 7e 3f
       1.0956179 1.0408441 1.1354454 0.99289423
000050 56 76 82 3f 93 a8 89 3f 5b e4 8d 3f 53 40 8c 3f
       1.0192363 1.075457 1.1085314 1.095713
000060 1e c0 89 3f a0 6c 91 3f f3 c2 7c 3f 15 79 77 3f
       1.0761755 1.1361275 0.9873497 0.9666913
000070 a3 68 8d 3f d8 fa 88 3f 96 2f 8c 3f 60 25 8d 3f
       1.1047558 1.0701551 1.0952022 1.1027031

6.bias f4 [32]
000000 57 6b 8f 3d 8d 4f 81 3d fa ec 51 be 3e 08 36 3e
       0.07002895 0.06314001 -0.20500556 0.17776582
000010 65 18 d7 3d a3 58 7c 3d 33 21 63 3d 54 7b e1 3d
       0.105027 0.061607968 0.055451583 0.11009851
000020 8e 53 b3 3d 0d 9f fe 3d ed d9 93 3d f6 19 89 3c
       0.08756171 0.1243268 0.072193004 0.016736012
000030 a5 b5 a3 3d 90 92 aa bd a7 b8 9e 3d 72 c5 39 3d
       0.0799363 -0.08328736 0.077500634 0.045354314
000040 59 63 6c 3c 60 fc 4f 3d 5b 84 c4 3d 54 ff 0e bd
       0.014427983 0.050777793 0.09595557 -0.03491147
000050 10 01 93 3d cc b8 77 bb de 6a 8a 3d 66 cd 5f 3d
       0.07177937 -0.0037799357 0.067586645 0.054639243
000060 83 55 c2 bc 73 3a c5 3d e6 56 9a bd 01 93 fc 3c
       -0.023722416 0.09630289 -0.07536106 0.030831816
000070 d9 b0 3c 3c fa 28 b7 3d 64 d8 ed 3d c8 2b 7f bb
       0.011516773 0.089433625 0.11613539 -0.0038936008

6.running_mean f4 [32]
000000 6c 90 7d bf 1b 9b 51 bf fc 46 01 3f b9 f7 77 bf
       -0.99048495 -0.818773 0.5049894 -0.9686237
000010 36 07 89 be 2d 88 84 bf b0 d1 ca be 2d 6a 3e bf
       -0.26763314 -1.0354058 -0.39613104 -0.7438076
000020 65 94 2e bf 28 40 38 bf a3 db 0d bf 5e 65 3a bf
       -0.6819518 -0.71972895 -0.55413264 -0.72810924
000030 2e 37 7c bf 0d dc 84 be a1 8a 45 bf 7a 9e 34 3e
       -0.985217 -0.25949135 -0.77164656 0.17638579
000040 3c 45 66 bf 6d d7 16 bf 88 d9 e6 be f6 0e 78 3d
       -0.89949393 -0.58922464 -0.45087838 0.060561143
000050 93 15 2d bf fd c3 2c bf 3d 82 79 be 49 2a 76 bf
       -0.67611045 -0.67486554 -0.24366088 -0.9615827
000060 46 9e ae bd 8e e1 2c bf 43 e4 ae 3e 80 09 4c be
       -0.08526282 -0.6753167 0.34158525 -0.19925499
000070 aa 8b f2 be 48 31 44 bf 0c 67 52 bf 04 6b 60 bf
       -0.4737218 -0.766377 -0.8218849 -0.8766329

6.running_var f4 [32]
000000 0a d8 0d 40 c1 b6 ff 3f 77 01 a5 3f 3f 0c 01 40
       2.216311 1.9977647 1.2891072 2.0163724
000010 66 85 3d 3f 1f 30 23 40 fe 1f 3e 3f ba 75 d0 3f
       0.74031675 2.549812 0.74267566 1.6285927
000020 4c c4 f4 3f 65 2a bb 3f 0e b6 98 3f aa 26 17 40
       1.9122405 1.4622313 1.1930559 2.3617349
000030 f7 45 1b 40 9e 20 28 3f ac b9 1e 40 c5 d3 50 3f
       2.4261453 0.6567477 2.4800825 0.81573135
000040 2c 08 df 3f f6 b6 b5 3f ba 96 92 3f 37 7d 67 3f
       1.7424369 1.419646 1.1452248 0.9042544
000050 52 8c be 3f 6f 10 ff 3f d3 a4 9b 3f 4c cc fc 3f
       1.4886572 1.992689 1.2159675 1.9749846
000060 0c 9e 99 3f d1 77 bb 3f e0 11 77 3f 3c 0b 81 3f
       1.2001357 1.464594 0.9651165 1.0081553
000070 3d 59 67 3f 8f 5b dd 3f f1 7f 0f 40 ba e2 eb 3f
       0.9037054 1.7293566 2.242184 1.8428566

10.weight f4 [64, 160]
000000 b4 b6 63 bb 56 f5 85 3d 0e b7 84 bd 39 e3 2e 3e
       -0.003474635 0.06540935 -0.064802274 0.17078866
000010 7e 33 fd 3d 02 f1 8c 3d 79 1a ba 3d e2 ef 00 3e
       0.12363337 0.06881906 0.090870805 0.12591508
000020 87 3c d8 bc f0 0b d9 3d e0 17 2b bd 08 28 56 bd
       -0.02639605 0.1059798 -0.041770816 -0.05228427
000030 9c d9 e7 bd 1b 1a 19 be 6b 0f 61 3d e1 af 80 bc
       -0.113208026 -0.14951365 0.054946344 -0.015708866
000040 3e 9b ef 3d 02 72 36 bd 23 4e 12 be 2d e2 a6 3d
       0.11699532 -0.04454232 -0.1428762 0.08148608
000050 4b b8 3c 3d 3f 12 89 3d aa a9 b8 3d 8f 70 da 3d
       0.046074193 0.06692933 0.09016736 0.10666
000060 01 de 46 be aa 03 7a 3c f4 1b 90 bc eb 17 3c 3d
       -0.19420625 0.015259663 -0.017591454 0.045921247
000070 5d 61 f9 bd cc bf 98 bd 39 9c 08 3e d9 2e b6 3d
       -0.12176774 -0.07458457 0.13340844 0.08895654
000080 2b a0 36 3d cd 94 99 bb 83 f4 c2 3d b9 3b e0 bb
       0.04458634 -0.004686928 0.09519293 -0.006843057
000090 bb c3 f2 3d d4 52 a5 3d 76 73 e8 3c 62 6c ea bd
       0.11853739 0.08072439 0.028375369 -0.11446454
0000a0 35 9c 1f 3e 10 71 96 3d ef b6 bc 3d 07 72 9e bc
       0.15586932 0.07345784 0.09214579 -0.019341482
0000b0 e1 16 cb 3b 7e 82 8e 3c 49 34 f5 3b fb 47 ab 3d
       0.0061977957 0.017396208 0.0074830395 0.083633386
0000c0 b8 76 be 3c ad bc 32 be 16 e9 20 bb 4b c9 da bc
       0.023249969 -0.17454787 -0.0024552993 -0.026707312
0000d0 29 3d af 3c a3 9a 9c bc af 12 36 3d 06 2c 0d 3d
       0.021391468 -0.019116705 0.04445141 0.034465812
0000e0 58 7d 28 3d c6 bd 1a 3d 43 6f a4 3d 02 2e 38 bd
       0.041135162 0.03777864 0.08029034 -0.04496575
0000f0 37 79 83 3c 62 8f 73 3d 61 55 27 3d f8 c6 d2 3c
       0.01604901 0.059462912 0.040852908 0.025729641
000100 ce 5a e8 3d d7 da 04 3d 75 d8 a4 3d 86 7e a5 bd
       0.113454446 0.032435264 0.080490984 -0.08080773
000110 85 75 30 bc b3 ba f5 bb e1 16 eb 3d d7 2d ef 3d
       -0.010770206 -0.007499063 0.11478973 0.11678665
000120 44 b1 11 3e 5e 06 de 3d 64 ea 3a bd f3 0c cb bd
       0.14227778 0.10841058 -0.04563369 -0.09914579
000130 72 b9 ae bd 65 bb f2 3c 83 de 92 bd 5f 9f 62 3d
       -0.08531465 0.029630372 -0.07171347 0.05532777
000140 8f 98 d8 3d 5c 30 f2 3c 1d 25 f2 3d 68 fa f5 bd
       0.10575973 0.029564075 0.11823485 -0.12010652
000150 e1 17 32 bd 7a 5c dc ba d6 39 85 3d 80 3c fd 3c
       -0.043479804 -0.0016812228 0.06505172 0.030912638
000160 4a 06 98 bc f4 ea 0a 3c 04 7a ee 3d b3 fe 29 3d
       -0.018557686 0.008478869 0.116443664 0.041502666
000170 41 45 62 bc da 23 d9 bc 67 cc 0e 3e d3 c3 34 3d
       -0.013810457 -0.026506353 0.13945161 0.044132065
000180 86 28 f0 bb 7f 46 d7 bc 47 3d 84 bd be 95 ad bd
       -0.0073290495 -0.026278732 -0.06457 -0.08475827
000190 6a 23 64 bd 87 e0 5a bd cc d7 03 bd 22 08 8e 3d
       -0.055697836 -0.053436782 -0.03218822 0.06935145
0001a0 ec b7 b8 3d 3d d1 48 3c 95 94 ba 3d 29 21 82 bd
       0.09019455 0.012256918 0.09110371 -0.06353981
0001b0 43 f7 68 3d 1e a0 d1 bd cd 8c 6e 3d f5 10 e6 3d
       0.056876432 -0.10235618 0.058239747 0.11233703
0001c0 15 78 7a 3c d5 f0 f2 bd 2b 71 91 bd d8 3e 9d bc
       0.015287419 -0.11862341 -0.07101663 -0.019195005
0001d0 cc 7a a0 bc 84 4a 51 3c 23 c2 86 3d 2d b5 2e 3d
       -0.019589804 0.012774114 0.065799974 0.04265325
0001e0 52 49 0c 3d 49 90 eb bd 73 69 00 bd 09 8e 08 3e
       0.03424961 -0.115021296 -0.031350564 0.13335432
0001f0 e6 6a 8d bd 3d f8 4c 3d c1 c2 b7 bc dc 7e 2e 3d
       -0.06905155 0.050041426 -0.022431733 0.04260145
000200 b6 30 f9 3d 00 a2 16 bd 24 2e 42 3c 7a 8d 27 be
       0.12167494 -0.03677559 0.011851821 -0.16362563
000210 da 22 86 be d5 54 82 bc 00 d5 f9 bd 5d 24 d3 bc
       -0.26198465 -0.015909592 -0.1219883 -0.025774175
000220 81 df 7e 3d ad e6 b4 3c f8 6a 1d be 1e 34 91 be
       0.06222487 0.022082651 -0.15372837 -0.28360075
000230 7f 43 19 bd 3f 5a 72 bc 37 92 c6 3c 51 19 f5 bc
       -0.037417885 -0.014792024 0.024239643 -0.029919298
000240 d8 58 d6 3d 68 ff 83 3d e5 f0 c8 3d 33 8c 88 3c
       0.10466164 0.06445199 0.09811572 0.016668415
000250 42 58 19 3c 3b 72 38 bc 08 4a 99 3d 56 46 96 3d
       0.009359421 -0.011257703 0.074848235 0.07337634
000260 1c 7a 8d bd 06 cb 06 3e d1 25 20 bd 87 e3 f9 3d
       -0.06908056 0.13163385 -0.039098565 0.122016005
000270 91 e8 ae 3d 20 07 6b 3d 16 8e 02 be c9 6a 9d 3b
       0.08540452 0.05737984 -0.12749514 0.0048039895
000280 83 2e 0a bb a1 18 5e 3d e4 ce d2 3d d8 69 12 3e
       -0.0021084852 0.054222707 0.102933675 0.14298189
000290 5a fe f8 3d f1 d9 d0 bc 7a 2a 8b bd 19 ac 20 3e
       0.12157889 -0.025494548 -0.06795211 0.1569065
0002a0 22 22 f4 3d 41 0c f6 3c 90 ef bb bd 2d 63 4c bd
       0.11920573 0.03003514 -0.09176552 -0.04989927
0002b0 a2 69 8e bc 4f 4e 83 bd 3e 1f 14 be eb ea 89 bd
       -0.017384354 -0.064114206 -0.14465043 -0.0673426
0002c0 8b 6c cb 3d cd cf 2b 3d 5e 1b 98 bd 6a a3 53 3a
       0.09932812 0.04194622 -0.07427095 0.0008073362
0002d0 db e4 ae ba 44 cf 85 bc df b2 18 bd 21 3f bf bd
       -0.0013343351 -0.016334184 -0.03727996 -0.09338213
0002e0 23 98 f4 bd 79 40 b7 3b f2 95 ef 3d 8d 16 67 3d
       -0.1194308 0.0055924025 0.11698522 0.05641799
0002f0 ef 36 9e 3d 85 7c 7c bc 81 84 89 bd b1 bf 97 3d
       0.077253215 -0.015410547 -0.06714726 0.07409609
000300 78 a3 32 3e ff e7 36 3d b1 c7 0f bb 73 65 82 3d
       0.17445171 0.044654842 -0.0021939094 0.06367006
000310 fa 81 47 bc c4 f5 6f bd 96 1a 9a bc d2 31 b9 3b
       -0.012176985 -0.05858399 -0.018811505 0.005651691
000320 ff 6a f1 3d f0 fb 36 bc 31 a9 34 3d a4 f8 85 3d
       0.11787986 -0.011168465 0.044106666 0.06541565
000330 4a d1 0f 3d 6f 0a 5d 3d 34 66 12 3c 2d 64 11 3e
       0.035111703 0.05396503 0.0089355 0.1419837
000340 4f 26 17 3d b6 49 18 bd 53 3a 56 3e 07 c3 ea bd
       0.03690177 -0.03717967 0.20920686 -0.1146298
000350 0b 8d ba bc 0d 32 ba 3c d4 32 ca bd 32 44 d7 bb
       -0.022772333 0.022728944 -0.09872976 -0.006569409
000360 98 86 07 3d 73 73 28 3d 48 d8 19 3c de 7b 9f 3d
       0.033087343 0.041125726 0.009389944 0.07787298
000370 de 76 e9 3d c3 38 09 3d 70 99 71 3d 87 bd fd 3d
       0.11399625 0.033501398 0.05898422 0.12389665
000380 8f 46 1f 3e 29 e0 26 bd d1 f1 68 3d 36 02 60 bd
       0.1555426 -0.04074112 0.05687124 -0.05468961
000390 1d 64 21 bd da 4a ca 3d a7 e4 06 bc a6 9e 82 3d
       -0.039402116 0.09877558 -0.008233226 0.06377916
0003a0 51 fe e1 3d 71 a9 a8 bd cb 4b 40 bd 7c 8e a9 3d
       0.11034835 -0.082354434 -0.04694728 0.0827913
0003b0 dd 83 3d be 1b 68 92 bd 9c 20 b8 bd 2d 03 b3 bc
       -0.18507333 -0.07148763 -0.08990595 -0.0218521
0003c0 87 30 5b bc 70 f5 bc 3d ce ef de bd a3 5c 81 3b
       -0.013378269 0.09226501 -0.10885583 0.0039478107
0003d0 6c a6 32 3e 89 ab cf 3d 22 20 18 bd a0 9c 36 bc
       0.17446297 0.101401396 -0.03714002 -0.011145741
0003e0 19 ec 5d 3e de ce fe 3c c2 2f 16 bd b0 62 91 3d
       0.21672095 0.031104501 -0.03666664 0.07098901
0003f0 0c 6c da bc 5e d0 f9 3b df d2 63 bd 38 c4 c2 bb
       -0.026662849 0.0076237163 -0.055621024 -0.0059438013

10.bias f4 [64]
000000 cd 12 28 3d 84 21 49 3d 9a 76 87 3d ca c5 17 3e
       0.041033555 0.04910423 0.06614418 0.14821544
000010 f2 9d 09 bd 1e 4a 0e 3e 59 32 62 3d 38 84 e6 3d
       -0.033597894 0.13895461 0.055223797 0.112556875
000020 f4 f1 26 3e 73 62 81 3d e8 3f 74 3e 2e f9 ff bd
       0.16303235 0.06317606 0.23852503 -0.12498699
000030 c8 dd 27 3e 8d 75 c1 3d 66 97 64 3d 8e 69 4a 3d
       0.16393197 0.09446249 0.055808447 0.04941707
000040 ef 7f 2d 3e f7 55 60 bc 9c 48 1a 3e ed 7a 71 bc
       0.16943334 -0.013692371 0.15066761 -0.01473878
000050 d8 15 0e 3e c3 d2 aa 3d 24 8d 08 3d 15 09 55 3e
       0.1387552 0.08340981 0.033337727 0.20804246
000060 20 80 91 3d 60 bf c7 bd 16 b1 e7 3c e6 dd 40 3d
       0.07104516 -0.09753299 0.028282683 0.04708662
000070 3a 7f e0 bd be 71 7c 3c 01 8f 01 3e 0e a1 97 3d
       -0.109617665 0.015407978 0.12652208 0.074037656
000080 4a e9 56 3e fb dd 83 3d be a6 9e 3d 3c ea cd 3d
       0.2098743 0.06438824 0.07746647 0.10054442
000090 48 38 52 3e e1 fa 5d 3d 19 ac 1a 3e 53 e2 4c 3e
       0.20529282 0.054194335 0.15104713 0.20008211
0000a0 8e a4 8a 3d 89 bc 2b 3e eb 76 b8 3d e9 ac 20 3e
       0.067696676 0.16771139 0.09007057 0.1569096
0000b0 a3 51 ad 3d 7f 6e 67 3e ac 5d 97 3e 3c 37 0e 3e
       0.084628366 0.22600745 0.29563653 0.13888258
0000c0 f7 7e df 3d 3b 50 58 3d 74 0a ff 3c 1f 6a bb 3d
       0.109128885 0.05281089 0.031132914 0.091511
0000d0 53 61 f6 3d 88 4e f1 bb fe 08 18 3e f7 87 a0 3d
       0.12030282 -0.007364098 0.1484718 0.07838433
0000e0 8c 00 c1 3d ee 35 08 3e f8 d9 4d bd 16 ec 23 3e
       0.094239324 0.13301823 -0.0502567 0.16008028
0000f0 45 01 ae 3d 7e c9 72 3c ef 3a 68 3e dc 95 8c bc
       0.08496336 0.014818547 0.22678731 -0.017161302
