VFL/models/vfl_network/bottom_model_party2.pth (torch, 107862 bytes, 14 tensors)

0.weight f4 [16, 1, 3, 3]
0	0x3e8b77a7	0.27239725
1	0xbebdada4	-0.3704654
2	0xbea62644	-0.3245107
3	0x3e1349c7	0.14383613
4	0x3ccd2d69	0.025046067
5	0xbd855857	-0.0651099
6	0xbe56650c	-0.20936984
7	0x3eb52c83	0.35385522
8	0xbe03dad4	-0.12876445
9	0x3e99bcac	0.30026758
10	0xbea16c48	-0.31527925
11	0xbd55abfa	-0.052165963
12	0xbe139bbb	-0.14414875
13	0x3e717f7f	0.23583792
14	0xbe087fab	-0.13329951
15	0x3cb3e224	0.021958418
16	0xbe4f8e43	-0.20269112
17	0xbe6acd5f	-0.22929905
18	0x3ecd715b	0.40125546
19	0x3e4fc9ce	0.20291826
20	0xbeb19551	-0.34684232
21	0xbe04971a	-0.12948266
22	0xbd36b24a	-0.044603623
23	0x3e84774d	0.2587227
24	0xbe9cd5d8	-0.306319
25	0xbe2f6f55	-0.17132314
26	0x3e4afb94	0.19822532
27	0x3d12072f	0.035651382
28	0xbd45a432	-0.048252292
29	0xbea4d523	-0.3219386
30	0xbe11a4a9	-0.14222969
31	0xbd6c0f28	-0.05763164
32	0xbdaba624	-0.08381298
33	0xbb0dbeb4	-0.002162856
34	0x3ea20858	0.3164699
35	0xbe200454	-0.15626651
36	0x3e7dffe5	0.24804647
37	0x3d565356	0.05232557
38	0x3e93bfd6	0.28857297
39	0xbe8bc9f0	-0.27302504
40	0x3ec14544	0.37748158
41	0x3ecae98a	0.396313
42	0xbeb77971	-0.3583484
43	0xbe17f703	-0.14840321
44	0xbe70e237	-0.23523794
45	0xbdd5f861	-0.10447765
46	0xbe14e40f	-0.14540122
47	0xbdbdac6f	-0.09261405
48	0x3cbaebde	0.022817548
49	0x3e978db7	0.29600307
50	0x3ea8f01c	0.3299569
51	0x3e8473d4	0.2586962
52	0xbbef8d63	-0.007310556
53	0xbcfb11f1	-0.030648204
54	0x3c0a55d4	0.008443315
55	0x3ec994d7	0.39371368
56	0x3eb9c9c4	0.36286747
57	0xbe7349bf	-0.237586
58	0x3ed409d2	0.41413742
59	0xbcac8e50	-0.021063954
60	0xbd6f1f3e	-0.058379404
61	0xbe8573a4	-0.2606479
62	0x3d65f5da	0.056142665
63	0x3e7f8386	0.24952516
64	0x3e8f7b38	0.28023696
65	0xbcd65145	-0.0261618
66	0x3e3e48fb	0.18582527
67	0xbe9fca24	-0.3120891
68	0x3ea28077	0.31738636
69	0x3e0c5af4	0.13706571
70	0xbe86e698	-0.26347804
71	0xbe5337f6	-0.20626816
72	0x3e05625a	0.130258
73	0x3e1add19	0.15123405
74	0x3eb28125	0.34864154
75	0x3e1fbd52	0.15599564
76	0xbe503815	-0.20333894
77	0x3e887083	0.2664834
78	0xbeb1935a	-0.34682733
79	0xbe76d457	-0.24104439
80	0x3cf733c5	0.030176053
81	0x3e2333c3	0.15937714
82	0xbea1364b	-0.31486735
83	0xbe8f072d	-0.27935162
84	0xbe9fafaa	-0.3118871
85	0xbeb85935	-0.3600556
86	0xbe53eab9	-0.20695008
87	0x3c9ea707	0.019366754
88	0x3d9f2b54	0.07771936
89	0x3e22062e	0.1582267
90	0xbe3a1c70	-0.1817491
91	0xbe23e8d6	-0.16006789
92	0xbabc1d35	-0.0014351966
93	0xbe63f5a3	-0.22261672
94	0x3eba6b54	0.3641001
95	0x3ed145cd	0.40873566
96	0xbe564414	-0.20924407
97	0xbe88f6c5	-0.2675077
98	0xbcb1a190	-0.021683484
99	0xbc69db80	-0.014273524
100	0xbc94546a	-0.018106658
101	0xbe89b804	-0.26898205
102	0xbe02530d	-0.12726994
103	0xbe987b61	-0.2978163
104	0x3ec4ce91	0.38438848
105	0xbe3b006d	-0.18261881
106	0xbbcbbda9	-0.0062176776
107	0x3e9a03d7	0.30081055
108	0xbea24b4f	-0.3169808
109	0x3d5b083a	0.053474642
110	0x3ec4ad4e	0.3841347
111	0xbd34d323	-0.04414667
112	0xbcdf70c8	-0.027275458
113	0xbcc1babe	-0.023648616
114	0xbe48713c	-0.19574445
115	0xbe3753cd	-0.17903061
116	0xbc820eec	-0.015876256
117	0x3e932994	0.2874266
118	0x3e2e1ef7	0.17004
119	0xbce6caba	-0.02817284
120	0x3ec0b959	0.3764141
121	0xbe651a09	-0.22373213
122	0x3e5becc3	0.21477036
123	0xbe4d3ea0	-0.20043421
124	0x3dfae04d	0.12249813
125	0xbe8a3e1c	-0.2700051
126	0x3e591952	0.21201065
127	0x3d9ba4d8	0.07599801
128	0xbe729698	-0.2369026
129	0x3eaf9631	0.34294274
130	0x3df467ff	0.11933898
131	0xbea258d0	-0.31708384
132	0x3e1949b6	0.14969525
133	0xbe38e043	-0.18054299
134	0xbe478fd8	-0.19488466
135	0xbba04682	-0.0048912177
136	0x3e3235b1	0.17403294
137	0xbe16fdeb	-0.147453
138	0x3ecbb75b	0.39788327
139	0x3e30688c	0.17227381
140	0xbe26f775	-0.16305335
141	0x3d1c2679	0.038122628
142	0x3e4f30b7	0.20233427
143	0x3e4ff990	0.20310044

0.bias f4 [16]
0	0xbd5faa4b	-0.054605763
1	0xbd59eefe	-0.053206436
2	0x3d21327f	0.039354797
3	0xbd776473	-0.06039853
4	0x3e2f5143	0.17120843
5	0xbdf1f988	-0.118151724
6	0x3e3b5302	0.18293384
7	0x3e9fe696	0.3123061
8	0x3e12a052	0.1431897
9	0x3e7a8f40	0.24468708
10	0xbe6a951c	-0.22908443
11	0x3dffd2c8	0.12491375
12	0xbe9de6f6	-0.30840272
13	0xbca60584	-0.020266302
14	0xbdb5ce44	-0.08877233
15	0x3ec1ad43	0.378275

1.weight f4 [16]
0	0x3f826d64	1.0189633
1	0x3f84cd93	1.0375236
2	0x3f7ca860	0.9869442
3	0x3f9f2283	1.2432407
4	0x3f67e693	0.90586203
5	0x3f6cc3ed	0.9248646
6	0x3f81b785	1.0134131
7	0x3f804bef	1.0023173
8	0x3f74c7ad	0.9561718
9	0x3f813b16	1.0096157
10	0x3f8e231f	1.1104468
11	0x3f817f4d	1.0116974
12	0x3f8c46c0	1.0959091
13	0x3f8848fb	1.0647272
14	0x3f834ed3	1.025843
15	0x3f7e81be	0.9941672

1.bias f4 [16]
0	0x3d94fa3a	0.072742894
1	0xbe041f25	-0.12902506
2	0xbca6183b	-0.020275226
3	0x3ce05771	0.027385445
4	0x3d488738	0.04895708
5	0xbe0a044f	-0.13478206
6	0xbd807fbe	-0.06274365
7	0xbe28da08	-0.16489422
8	0x3cbf1751	0.023326548
9	0x3cbae825	0.022815773
10	0xbcd5f640	-0.026118398
11	0xbdb28b44	-0.08717969
12	0x3d7fce8a	0.06245283
13	0xbcecb54f	-0.028895048
14	0x3d164a79	0.036692116
15	0xbd6eaa66	-0.058267973

1.running_mean f4 [16]
0	0xbd515973	-0.051110696
1	0xbd5a2881	-0.053261284
2	0x3d206462	0.039158233
3	0xbd6fee38	-0.058576792
4	0x3e2e4920	0.17020082
5	0xbdf4b114	-0.119478375
6	0x3e38a9e0	0.18033552
7	0x3ea0527e	0.31312937
8	0x3e0fcab8	0.14042175
9	0x3e7c5123	0.24640326
10	0xbe6873de	-0.2270045
11	0x3e0071a7	0.12543355
12	0xbe9df3a3	-0.30849943
13	0xbc9e3695	-0.019313136
14	0xbdb263ee	-0.08710466
15	0x3ec0f1bb	0.37684426

1.running_var f4 [16]
0	0x3ea270c0	0.31726646
1	0x3e65d195	0.2244323
2	0x3eb1de04	0.34739697
3	0x3e2a6fe9	0.16644253
4	0x3f033476	0.51251924
5	0x3e70ab2b	0.23502795
6	0x3ecbcc13	0.39804134
7	0x3eab4f96	0.33459157
8	0x3e9c7d68	0.30564427
9	0x3ec1616d	0.37769642
10	0x3eca599e	0.39521497
11	0x3ea24e19	0.3170021
12	0x3e39f8fe	0.18161389
13	0x3ea54d54	0.3228556
14	0x3e9d2a05	0.3069612
15	0x3e835949	0.25654057

5.weight f4 [32, 16, 3, 3]
0	0x3d4bd0ee	0.049759798
1	0x3d54c381	0.05194426
2	0x3dd0c731	0.10194243
3	0xbe4e96ba	-0.20174685
4	0x3e6feccb	0.23430173
5	0x3d2509b7	0.040292468
6	0xbd8fec61	-0.070275076
7	0xbddac67c	-0.10682389
8	0x3da851bb	0.08218714
9	0x3d241844	0.040062204
10	0xbb951ff7	-0.0045509296
11	0x3e23a1a4	0.1597963
12	0xbe760be1	-0.24027969
13	0xbc5ef6ca	-0.013608644
14	0xbdb87191	-0.09006036
15	0x3c9052ce	0.01761761
16	0xbce30ae0	-0.027715147
17	0xbcdc9543	-0.026926642
18	0xbe080ceb	-0.13286178
19	0x3d73b16c	0.059495375
20	0xbd34322c	-0.04399316
21	0xbe6cb942	-0.23117545
22	0xbda3df8b	-0.08001622
23	0xbc16f9d2	-0.009214835
24	0xbd745738	-0.05965349
25	0x3a20b7f7	0.00061309285
26	0x3cdb2fcc	0.02675619
27	0x3d853915	0.06505028
28	0x3ca4460d	0.020052934
29	0x3e07890b	0.13235871
30	0xbe2dac9d	-0.16960378
31	0x3e3d07dc	0.1846003
32	0x3d07ca37	0.03315183
33	0xbd7027e9	-0.05863181
34	0x3d0cd40f	0.034381922
35	0x3de1ef26	0.11031942
36	0x3d8b3c8b	0.06798657
37	0x3dc2f5a0	0.095195055
38	0x3daccaef	0.08437144
39	0xbd230b07	-0.03980544
40	0x3d08f48d	0.033436347
41	0x3be58c8c	0.00700528
42	0x3e04d7e8	0.12972987
43	0x3d8f9794	0.07011333
44	0xbc298305	-0.010346179
45	0x3de342dd	0.110967375
46	0x3e61335f	0.21992253
47	0xbd9b1e5c	-0.0757415
48	0xbe550748	-0.20803559
49	0xbc4adca2	-0.0123817045
50	0x3ce2fcb1	0.027708383
51	0x3cb3e125	0.021957943
52	0xbceb9c31	-0.028761001
53	0xbe26777b	-0.16256516
54	0x3c9694ba	0.018381465
55	0x3e5868a1	0.21133663
56	0x3df56394	0.11981884
57	0xbd8b18ba	-0.067918256
58	0xbdddd8f6	-0.10832398
59	0xbd1c50c3	-0.038162958
60	0xbd606960	-0.054787993
61	0x3c54b110	0.012981668
62	0xbe0413f0	-0.1289823
63	0xbd252420	-0.040317655
64	0x3ce52279	0.02797054
65	0x3c5f4eae	0.013629599
66	0xbe9b6317	-0.30349037
67	0xbd7807c8	-0.060554296
68	0x3c2edc12	0.010672586
69	0x3d8925a4	0.066966325
70	0xbd16b024	-0.036789075
71	0xbd2b34a4	-0.04179825
72	0x3e1694bb	0.14705174
73	0x3db853f5	0.090003885
74	0xbbdf890a	-0.0068217563
75	0xbd5c54ce	-0.053791814
76	0xbd8a2b52	-0.06746544
77	0x3adcc1af	0.001684239
78	0x3d648b16	0.055796705
79	0x3d477939	0.04869959
80	0xbe50d29b	-0.2039284
81	0xbca9d952	-0.02073351
82	0xbdfdc032	-0.12390174
83	0x3cc2419c	0.023712926
84	0xbd462876	-0.04837843
85	0xbcac38bd	-0.021023149
86	0xbcad2a13	-0.021138227
87	0xbd8c0973	-0.0683774
88	0x3cd15509	0.025553243
89	0x3e2fd0dd	0.17169519
90	0x3e1feb7d	0.15617175
91	0x3e64d348	0.22346222
92	0x3d7421d7	0.059602585
93	0xbe17d050	-0.14825559
94	0xbd4b456d	-0.049626756
95	0x3dc1a7ca	0.09455831
96	0xbdbfee6b	-0.093716465
97	0xbe03ca5d	-0.12870164
98	0xbc615b23	-0.013754639
99	0x3d3ac806	0.045600913
100	0x3d65d7f9	0.05611417
101	0xbd1dac2a	-0.038494267
102	0x3d08a3c3	0.0333593
103	0xbd65acc3	-0.05607296
104	0x3d855b8a	0.065116
105	0x3dcc27ea	0.099685505
106	0xbc3d53dc	-0.011555638
107	0x3ddeee12	0.10885252
108	0xbd1819fa	-0.03713415
109	0x3de605f4	0.11231604
110	0xbd539574	-0.0516562
111	0x3dc85bfe	0.09783171
112	0xbcb44767	-0.022006704
113	0xbd2bea00	-0.041971207
114	0x3bcebf7c	0.006309448
115	0x3deab672	0.1146058
116	0xbd8a786a	-0.067612484
117	0xbd9d01d2	-0.07666363
118	0x3da93fc1	0.08264113
119	0xbd12d190	-0.035844386
120	0xbe2bf240	-0.1679163
121	0x3dd8d49d	0.10587428
122	0xbd22102a	-0.039566197
123	0xbe15e99c	-0.14639896
124	0xbbb21aea	-0.0054353373
125	0xbc8e5a3c	-0.017377011
126	0xbb76a4ce	-0.0037634852
127	0x3da6d024	0.081451684
128	0x3d987691	0.0744449
129	0xbe8682a6	-0.26271552
130	0x3d32718d	0.04356532
131	0x3cabc3d3	0.0209674
132	0xbde88f72	-0.11355485
133	0x3ddcb6a3	0.10777023
134	0x3d90942e	0.07059513
135	0xbe2c2f20	-0.16814852
136	0x3d582745	0.052771825
137	0x3da13516	0.078714535
138	0xbe44f7bf	-0.19235133
139	0xbb4a593c	-0.0030875942
140	0xbe089375	-0.133375
141	0xbd8fa12f	-0.07013165
142	0x3da1182a	0.07865937
143	0x3d183570	0.037160337
144	0xbdd04854	-0.101700455
145	0xbd6ed48d	-0.058308173
146	0x3e28d341	0.16486837
147	0xbdec6e78	-0.11544508
148	0x3d7a1d1c	0.061062917
149	0x3e0179d5	0.12644131
150	0xbd4cad7b	-0.04997013
151	0x3d02c38b	0.031924766
152	0x3c59e2a1	0.013298661
153	0xbe4fd659	-0.20296611
154	0xbe5494d2	-0.20759895
155	0x3d4db80f	0.05022436
156	0xbdd149da	-0.10219164
157	0xbde6d239	-0.112705655
158	0x3d68cc40	0.056835413
159	0x3c741249	0.014896938
160	0xbca4e256	-0.020127457
161	0xbc1707f0	-0.009218201
162	0xbe4d4fd5	-0.20049985
163	0x3deedb07	0.1166287
164	0xbbb3d552	-0.0054880762
165	0xbe2c5cd1	-0.16832282
166	0x3df3ae04	0.11898425
167	0xbd039e7f	-0.032133576
168	0xbcdae7c9	-0.026721852
169	0x3e063a75	0.13108237
170	0x3bdae6ca	0.006680344
171	0xbd82469c	-0.06361124
172	0xbe8810da	-0.26575357
173	0x3e4ab9c7	0.19797431
174	0xbe0a600a	-0.13513198
175	0xbb5e3abe	-0.0033909525
176	0x3e607bcc	0.21922225
177	0xbdaa13ce	-0.08304559
178	0xbddf5138	-0.10904163
179	0xbda49f28	-0.08038169
180	0xbe444763	-0.19167857
181	0xbdbbf547	-0.09177642
182	0x3d84755a	0.064676955
183	0xbe0523b8	-0.13001907
184	0x3d32a638	0.04361555
185	0xbb939f4a	-0.0045050727
186	0xbbb3bc7d	-0.005485116
187	0xbdb7f0e4	-0.08981493
188	0x3d86f568	0.06589776
189	0x3cea6c14	0.028615989
190	0x3c6d2096	0.014473101
191	0xbaabbeb0	-0.0013103094
192	0xbe07d0cb	-0.13263242
193	0xbd398b68	-0.045298964
194	0x3e60ac76	0.21940789
195	0xbc812c03	-0.015768057
196	0xbdcf35c0	-0.10117674
197	0x3d92a628	0.07160598
198	0xbe1c0576	-0.15236458
199	0xbced7fc8	-0.028991595
200	0xbde5c379	-0.11218924
201	0xbd820018	-0.06347674
202	0x3d697084	0.05699207
203	0xbc9040a9	-0.017608957
204	0xbde8d6d1	-0.11369098
205	0x3dcd9ed3	0.10040059
206	0x3d06d1bb	0.03291486
207	0xbdb49d4c	-0.088190645
208	0xbdc22014	-0.09478775
209	0xbcc05709	-0.023479002
210	0xbe16ec49	-0.14738573
211	0xbdb5614b	-0.08856448
212	0xbd0f6260	-0.035005927
213	0x3d2c4126	0.042054318
214	0xbcc10a97	-0.02356462
215	0x3d8cd041	0.06875659
216	0xbd93b702	-0.0721264
217	0x3c814b83	0.015783077
218	0x3c5e52ef	0.013569578
219	0xbdb9cdf3	-0.09072485
220	0x3e1b9385	0.15192993
221	0xbd5c05c6	-0.053716443
222	0xbcaa280a	-0.020771045
223	0x3de1d8c9	0.110276766
224	0x3c872e83	0.01650167
225	0xbda8e7dc	-0.08247349
226	0xbd158bb1	-0.036510173
227	0x3e1760e1	0.1478305
228	0x3c29a993	0.010355371
229	0x3e04b26f	0.12958692
230	0x3d6bda28	0.057581097
231	0xbcaa1942	-0.020763997
232	0xbe166a2c	-0.14688939
233	0x3e012994	0.12613517
234	0xbdb13f4b	-0.0865465
235	0x3d1cffba	0.038329817
236	0xbda03562	-0.07822682
237	0xbe195cb8	-0.14976776
238	0xba8d0104	-0.0010757749
239	0x3db40b07	0.08791166
240	0x3d8c4eea	0.06850989
241	0x3df595d1	0.11991466
242	0x3da71727	0.08158713
243	0xbc9cf445	-0.019159446
244	0x3cbae603	0.022814756
245	0xbd53abae	-0.0516774
246	0xba37ab93	-0.00070064625
247	0x3db61ec5	0.088925876
248	0xbdebf6a8	-0.11521655
249	0xbc8e9c4c	-0.017408513
250	0x3c1ff855	0.009763797
251	0xbdd97900	-0.10618782
252	0x3b05f67f	0.0020441113
253	0x3dd3452a	0.103159264
254	0xbe81e774	-0.25371897
255	0x3d4a378f	0.04936939

5.bias f4 [32]
0	0xbd97df64	-0.07415655
1	0x3cbefc7b	0.023313751
2	0xbd7f019d	-0.062257398
3	0xbce24539	-0.027620899
4	0x3d729c05	0.059230823
5	0x3d51a396	0.0511814
6	0x3d82d7bf	0.063888066
7	0xbcc33b13	-0.02383188
8	0xbd487ba3	-0.048946034
9	0x3d99ae37	0.07503932
10	0x3d3ce7d8	0.04611954
11	0x3bbf9414	0.0058465097
12	0xbdadd4eb	-0.084878765
13	0xbd506536	-0.050877772
14	0xbd0f8217	-0.035036173
15	0xbd908f5e	-0.07058595
16	0xbd993447	-0.07480674
17	0xbcd02053	-0.025406038
18	0x3d9325bb	0.07184931
19	0xbc94b0c7	-0.0181507
20	0x3cdd0ebc	0.026984565
21	0x3c68e403	0.0142145185
22	0xbd691f65	-0.056914706
23	0x3d97b10e	0.074068174
24	0x3d4cfd8d	0.050046492
25	0xbafb901a	-0.0019192726
26	0x3cd89bfa	0.026441563
27	0x3cbd53da	0.023111273
28	0xbd335fba	-0.043792464
29	0x3b996326	0.004681009
30	0xbd14eb4a	-0.0363572
31	0x3d17d43b	0.037067633

6.weight f4 [32]
0	0x3f630352	0.8867694
1	0x3f705cc0	0.93891525
2	0x3f6c589c	0.9232271
3	0x3f8e4e09	1.1117564
4	0x3f78eb73	0.97234267
5	0x3f6e2843	0.93030185
6	0x3f6d1802	0.9261476
7	0x3f933f7b	1.1503748
8	0x3f569020	0.8381367
9	0x3f817af5	1.0115649
10	0x3f8ca372	1.098738
11	0x3f7bcd87	0.98360485
12	0x3f524274	0.8213265
13	0x3f624e9e	0.8840121
14	0x3f67e6f4	0.9058678
15	0x3f89996d	1.0749947
16	0x3f6bdf4f	0.92137617
17	0x3f6aa7f4	0.91662526
18	0x3f530b7d	0.82439405
19	0x3f7bd026	0.98364484
20	0x3f719e0c	0.94381785
21	0x3f77780b	0.96667546
22	0x3f75b697	0.95981735
23	0x3f8ad42a	1.0845997
24	0x3f88537c	1.0650477
25	0x3f7b9dc4	0.98287606
26	0x3f859a25	1.0437666
27	0x3f659814	0.8968518
28	0x3f714b26	0.9425529
29	0x3f7cd321	0.9875966
30	0x3f784adf	0.96989244
31	0x3f7ea6b7	0.99473137

6.bias f4 [32]
0	0xbde72652	-0.11286606
1	0xbdd0e5cb	-0.102000795
2	0x3df4fc16	0.11962144
3	0x3dd225c3	0.10261109
4	0xbda6d7f9	-0.08146662
5	0xbc86dc61	-0.016462507
6	0x3e1e1dc8	0.15441048
7	0x3d43f9ab	0.047845524
8	0xbe40b77a	-0.18819991
9	0x3e04f841	0.12985326
10	0x3e3f5164	0.18683392
11	0x3e000f11	0.12505747
12	0xbe8975f3	-0.268478
13	0xbdda31c0	-0.1065402
14	0x3d82e0ee	0.06390558
15	0x3e4b34ea	0.19844404
16	0xbe0cb44b	-0.13740651
17	0xbdee6255	-0.11639849
18	0xbdbcae08	-0.09212881
19	0x3e3f6fee	0.18695042
20	0x3c49232f	0.012276455
21	0x3e484084	0.19555861
22	0x3df28079	0.118409105
23	0x3deeea51	0.11665786
24	0x3df49720	0.11942887
25	0x3e08b59f	0.13350533
26	0x3e0fcf4f	0.14043926
27	0x3cfe8f5e	0.031074222
28	0x3dbed597	0.09318083
29	0x3e539e13	0.2066577
30	0x3df37024	0.118866235
31	0x3da75e6f	0.08172309

6.running_mean f4 [32]
0	0xbe1217e3	-0.14266925
1	0xbe2472d3	-0.16059427
2	0xbf89386d	-1.0720345
3	0xbf9a0110	-1.2031574
4	0xbe62830c	-0.22120303
5	0x3db2a4a5	0.0872281
6	0xbf5ed935	-0.8705018
7	0xbf3066ab	-0.6890666
8	0x3e29f990	0.16599107
9	0xbff0394c	-1.8767486
10	0xbf836f54	-1.026835
11	0xbfe2ff18	-1.7734098
12	0x3f2a79ab	0.665919
13	0xbf9f5973	-1.2449173
14	0xbffd74bf	-1.9801253
15	0xc0152515	-2.3303883
16	0xbf99e5ae	-1.2023218
17	0xbe2fbbcc	-0.17161483
18	0xbecdf42f	-0.4022536
19	0xbfb35d97	-1.4012936
20	0xbfb0a99a	-1.3801758
21	0xbfcebc29	-1.6151172
22	0xbfd946ba	-1.6974709
23	0xbf647436	-0.89239824
24	0xbffb7ea5	-1.9648024
25	0xbff82b04	-1.9388127
26	0xbff98f49	-1.9496852
27	0xbfbc8942	-1.4729388
28	0xbfdb0c6e	-1.7113168
29	0xbf26bbb5	-0.6513017
30	0xbfcbe17c	-1.5928187
31	0xbf3cff7b	-0.7382733

6.running_var f4 [32]
0	0x40f92fb0	7.787071
1	0x40fbf58a	7.873723
2	0x40d104bb	6.5318274
3	0x40ac7d5e	5.3903036
4	0x40fc2336	7.879298
5	0x410e8113	8.906512
6	0x40c6527d	6.1975694
7	0x407c7d12	3.9451337
8	0x41068295	8.40688
9	0x4151a9f0	13.103989
10	0x413b3fc9	11.703073
11	0x414bbb43	12.733218
12	0x40a13652	5.037881
13	0x412780a4	10.468906
14	0x41b5568a	22.667255
15	0x41b6dc6c	22.857628
16	0x40c344f4	6.102167
17	0x405b2c74	3.4245882
18	0x40db112f	6.8458476
19	0x40f3a8ab	7.6143394
20	0x416c7e78	14.780876
21	0x41484656	12.517172
22	0x4171fce0	15.124237
23	0x41349acf	11.287795
24	0x415faf9d	13.980374
25	0x41954f63	18.663763
26	0x41d8beb1	27.093111
27	0x4159fb1c	13.623806
28	0x41289b6d	10.537946
29	0x408ebdc7	4.460666
30	0x4115df46	9.36701
31	0x410452c9	8.270211

10.weight f4 [64, 320]
0	0x3e177254	0.14789706
1	0xbd99f973	-0.07518282
2	0xbda31943	-0.07963803
3	0xbc2682ef	-0.010163053
4	0xbd196822	-0.037452824
5	0xbcec41dd	-0.02884
6	0x3b28b661	0.0025743472
7	0x3bf8ff33	0.0075987815
8	0x3d405c56	0.04696306
9	0x3dc6ffff	0.09716796
10	0xbd92c862	-0.07167126
11	0xbe07bd8c	-0.132559
12	0x3d875727	0.0660842
13	0x3d009571	0.03139252
14	0x3dbb6dcf	0.09151804
15	0xbe00850c	-0.12550753
16	0xbda9e0bf	-0.0829482
17	0xbd2b91df	-0.04188716
18	0x3b27e202	0.002561689
19	0xbd253d26	-0.04034152
20	0xbc91b9f2	-0.017788861
21	0x3c91ccc5	0.017797837
22	0x3ca310a9	0.019905405
23	0x3da5466c	0.080700725
24	0x3de86e3e	0.11349152
25	0xbc26295d	-0.010141698
26	0xbd90a1c9	-0.07062108
27	0x3de31959	0.11088819
28	0xbe2830df	-0.16424893
29	0xbcaaf7de	-0.020870145
30	0xbb29f3b1	-0.0025932605
31	0x3dc7729c	0.09738657
32	0xbc7b1f45	-0.015327279
33	0xbd764319	-0.060122583
34	0xbd9b8809	-0.07594306
35	0xbbecf99c	-0.007231904
36	0xbda4e2dd	-0.08051083
37	0xbd5e1665	-0.054220576
38	0xbdd0b59b	-0.101908885
39	0xbcb83899	-0.022487925
40	0x3dc7369e	0.09727214
41	0xbdd7ef44	-0.10543683
42	0xbddb78a9	-0.107163735
43	0xbe288c0e	-0.16459677
44	0xbd20486b	-0.039131563
45	0x3bec2ccb	0.007207488
46	0xbe0d3581	-0.13789941
47	0xbcbf463d	-0.023348922
48	0xbe0f1e6f	-0.13976453
49	0x3e0d12ee	0.13776752
50	0x3eb1c0f5	0.34717527
51	0xbd7f1512	-0.062275954
52	0x3b21f624	0.0024713362
53	0x3ddad7ef	0.10685717
54	0x3c14c3bf	0.009079873
55	0x3d038650	0.032110512
56	0xbd84b5b8	-0.064799726
57	0xbb8f73c8	-0.004377816
58	0xbbe83a83	-0.0070870533
59	0x3cff9c4b	0.031202456
60	0x3cae9be0	0.021314561
61	0xbdba5372	-0.09097947
62	0x3e9cadb8	0.30601287
63	0xbd044f2d	-0.03230207
64	0xbda52de6	-0.08065395
65	0x3cb0440f	0.021516828
66	0xbc8459fa	-0.016156185
67	0x3dd5cd5f	0.10439562
68	0xbdaa8fd7	-0.083282165
69	0xbd33e1e1	-0.043916587
70	0x3cbc4799	0.02298336
71	0x3d45a926	0.048257016
72	0xbe0d36de	-0.13790461
73	0xbd105f1e	-0.03524696
74	0x3e3f31be	0.18671319
75	0xbdef414f	-0.116823785
76	0x3d864e1e	0.065578684
77	0x3caead92	0.021323
78	0xbd7cf24c	-0.06175451
79	0xbd82a270	-0.06378639
80	0x3dc71699	0.09721107
81	0xbdbabfba	-0.091186
82	0x3c2f3a87	0.010695106
83	0xbc0d0b7b	-0.008608694
84	0x3cefa920	0.02925545
85	0x3e1ceaf3	0.15324001
86	0x3cd44d44	0.02591575
87	0xbc76cd9f	-0.015063672
88	0x3d6f847d	0.05847596
89	0x3daf559d	0.08561251
90	0xbdb02af1	-0.086019404
91	0xbdec1799	-0.115279384
92	0x3c6d4685	0.014482145
93	0xbe331617	-0.17488895
94	0xbe14f2b9	-0.14545716
95	0xbac7f0ae	-0.0015254223
96	0x3c890600	0.016726494
97	0xbe08f397	-0.13374172
98	0xbd01817f	-0.031617638
99	0xbe38668c	-0.18007869
100	0xbdf61d3a	-0.12017293
101	0x3d658e4b	0.056043904
102	0xbd0ef50c	-0.034901664
103	0xbcf31173	-0.029671406
104	0x3de175e7	0.11008816
105	0xbd4cbb9d	-0.04998361
106	0xbc85d048	-0.016334668
107	0xbe623187	-0.22089206
108	0xbe109e34	-0.1412285
109	0xbd6d13fa	-0.05788038
110	0xbd401729	-0.046897087
111	0x3d94190c	0.0723134
112	0xbe6ebc76	-0.2331408
113	0x3db43c84	0.08800605
114	0xbdd8e3e3	-0.10590341
115	0xbdfbd1a9	-0.12295849
116	0x3ce72068	0.028213695
117	0xbe07a20f	-0.13245414
118	0xbdd1b779	-0.10240073
119	0xbe0db7b5	-0.1383961
120	0xbb8dbe7d	-0.0043256865
121	0xbdcafbcc	-0.09911308
122	0xbddf6997	-0.109088115
123	0xbd8400de	-0.06445478
124	0xbd9746d7	-0.073865585
125	0x3c4ab293	0.012371677
126	0xbd9cced3	-0.07656636
127	0xbd5aa93c	-0.05338405
128	0x3df0214a	0.117250994
129	0xbcc3d9e5	-0.023907611
130	0x3d761aa4	0.060084
131	0x3d191068	0.03736916
132	0x3d11b261	0.035570506
133	0xbbfcf73a	-0.0077199014
134	0x3c7c0c73	0.0153838275
135	0x3d9e6166	0.07733421
136	0xbd37fab5	-0.044916827
137	0xbd381a94	-0.044947222
138	0xbd94ea58	-0.0727126
139	0x3de1d1a3	0.11026313
140	0x3d1039e2	0.03521145
141	0xbb2a2c57	-0.002596637
142	0xbd1febca	-0.039043225
143	0xbde8aa61	-0.11360622
144	0x3dfa9808	0.12236029
145	0x3c8b898e	0.017033365
146	0xbdcae7c5	-0.09907488
147	0xbde6a5b2	-0.112620726
148	0xbe0b6d7e	-0.13615987
149	0xbdeeae13	-0.11654296
150	0xbbd5ab3a	-0.006520656
151	0xbc8ec1a5	-0.017426321
152	0x3c85e5c3	0.01634491
153	0xbcd3138b	-0.025766155
154	0x3d06f97d	0.032952774
155	0xbdd72bad	-0.10506377
156	0xbd7143a8	-0.058902413
157	0x3e4fb537	0.20283972
158	0x3dd3dadf	0.10344481
159	0xbd33f16d	-0.043931413
160	0x3ab70b2b	0.001396512
161	0x3c2a7cf4	0.010405768
162	0xbde05700	-0.10954094
163	0x3ce99f5d	0.028518373
164	0x3b8c24d4	0.004276851
165	0xbdced55d	-0.100992896
166	0xbcd30dc8	-0.025763407
167	0xbd2eaa3e	-0.042642824
168	0xbd206fe0	-0.039169192
169	0x3e0afec3	0.13573746
170	0xbd9f41eb	-0.07776245
171	0xbd8989ce	-0.06715737
172	0x3c4488d6	0.011995515
173	0x3d86920a	0.065708235
174	0xbda34b6c	-0.0797337
175	0x3e1b93a9	0.15193047
176	0xbde1aa44	-0.11018804
177	0xbe03fb72	-0.12888888
178	0x3d4731d3	0.0486315
179	0x3cae9b8c	0.021314405
180	0xbce4a9eb	-0.027913054
181	0x3cbc5ff9	0.022994982
182	0xbc9486fe	-0.018130776
183	0xbb8e1b53	-0.0043367534
184	0x3e64fc59	0.22361888
185	0xbcfbd9fa	-0.030743588
186	0xbd62a47b	-0.055332642
187	0x3d01ab2c	0.031657383
188	0xbd30a0be	-0.043122046
189	0x3d2b52f9	0.041827176
190	0xbd35adf3	-0.044355344
191	0xbcee64c3	-0.029100781
192	0x3bf96d55	0.0076119103
193	0xbdd15ce0	-0.102227926
194	0xbd8af304	-0.06784633
195	0xbd3f023e	-0.046632998
196	0x3d305df7	0.04305836
197	0x3dedcbf9	0.1161117
198	0xbc702892	-0.01465811
199	0xbe02ba0d	-0.12766285
200	0x3d41f487	0.04735234
201	0xbd3858ea	-0.04500667
202	0x3cfc69e5	0.030812213
203	0xbd8e0695	-0.06934849
204	0xbe08384b	-0.13302724
205	0x3d513570	0.051076353
206	0xbdc4369e	-0.0958073
207	0xbe11a787	-0.14224063
208	0xbcf194a8	-0.02948983
209	0x3c0c6ebb	0.008571322
210	0xbd0c0742	-0.03418661
211	0xbdf82f72	-0.121184245
212	0x3e363f7f	0.1779766
213	0xbe10b063	-0.14129786
214	0xbe31ee77	-0.17376123
215	0x3c9616be	0.018321391
216	0xbd0402a7	-0.032229092
217	0xbe00ad92	-0.12566212
218	0x3dc6e731	0.09712065
219	0xbe116cd3	-0.1420167
220	0x3d420033	0.04736347
221	0xbdb1dde2	-0.08684899
222	0xbd9f1529	-0.07767708
223	0xbd95f10b	-0.07321366
224	0x3d5601df	0.05224788
225	0x3e450377	0.19239603
226	0xbc9266ac	-0.017871223
227	0x3e81b62c	0.253343
228	0x3e60f5a9	0.21968712
229	0xbe4e9fe2	-0.20178178
230	0x3d2a77f3	0.0416183
231	0x3d1fa746	0.038977884
232	0x3e1769a5	0.14786394
233	0xbd281127	-0.041031983
234	0xbda7cfbc	-0.08193919
235	0xbc2d0c69	-0.010562041
236	0x3e35b0c5	0.17743213
237	0x3d21ffef	0.039550718
238	0xbda60526	-0.08106451
239	0xbe1385d0	-0.14406514
240	0x3d85093b	0.06495901
241	0xbc21df35	-0.009879877
242	0x3e311116	0.17291674
243	0xbcee5b22	-0.02909619
244	0x3d3cb0e4	0.046067134
245	0xbcc0fcaf	-0.023557989
246	0x3e1361cf	0.1439278
247	0xbdfba17e	-0.122866616
248	0xbd551eb8	-0.05203125
249	0xbe7908bb	-0.24319737
250	0xbc3b3133	-0.011425304
251	0xbdf6e0fc	-0.12054631
252	0x397d4b5b	0.00024156032
253	0xbc88b332	-0.01668701
254	0xbd999389	-0.07498843
255	0xbd113de6	-0.03545942

10.bias f4 [64]
0	0xbc358771	-0.011079655
1	0xbd3ef5bc	-0.04662107
2	0x3d4cdb9f	0.050014134
3	0x3da0fad5	0.078603424
4	0x3daa569d	0.083173014
5	0x3d703d72	0.05865235
6	0xbcc48b94	-0.023992337
7	0xbdaf0847	-0.08546501
8	0x3c1dd0c2	0.009632291
9	0xbd85ec22	-0.065391794
10	0x3e0f6caa	0.14006296
11	0x3cb0f1fe	0.021599766
12	0x3b7aae4d	0.0038250864
13	0x3d8573c8	0.06516224
14	0x3dc54b4f	0.096335046
15	0xbd8caeea	-0.068693
16	0xbd0a6dc4	-0.033796087
17	0xbd2f0bc8	-0.042735845
18	0xbd24cda9	-0.040235195
19	0x3dcbffd9	0.099609084
20	0x3e19f7e8	0.15035975
21	0x3cf08493	0.029360091
22	0x3da0d538	0.07853168
23	0xbd1d6198	-0.03842315
24	0x3e06cdaa	0.13164392
25	0x3c441447	0.011967725
26	0x3db388cd	0.08766327
27	0x3e0f0686	0.13967332
28	0xbdb37b54	-0.08763757
29	0x3bf0db5e	0.0073503694
30	0x3caf9005	0.021430979
31	0x3d7f1ecb	0.062285226
32	0xbc9bf61c	-0.019038253
33	0x3d363231	0.04448146
34	0x3d53c4df	0.051701423
35	0x39863936	0.00025601097
36	0x3d95085d	0.07276986
37	0xbe01706c	-0.12640542
38	0x3d480166	0.04882946
39	0x3ce61873	0.02808783
40	0xbd39ab14	-0.04532917
41	0x3db8de2c	0.09026751
42	0x3dc56b03	0.096395515
43	0x3dbe5a9e	0.092946276
44	0x3daaa2e2	0.08331849
45	0x3d97abca	0.07405813
46	0x3d55c745	0.05219199
47	0x3dca29a7	0.09871226
48	0xbd5dc047	-0.054138448
49	0x3d8bb365	0.06821326
50	0x3e0189ab	0.12650172
51	0x3cf21108	0.029549137
52	0x3e39eb39	0.18156137
53	0x3d06f9ba	0.032953
54	0x3e181826	0.14852962
55	0xbcf3c06c	-0.02975484
56	0xbd6d4648	-0.057928354
57	0x3d938458	0.07202977
58	0x3e024606	0.12722024
59	0x3de28e04	0.110622436
60	0xbdc180cb	-0.094483934
61	0x3d583b56	0.052790962
62	0x3d552e4b	0.0520461
63	0x3db13cc0	0.08654165
