VFL/models/vfl_network/bottom_model_party3.pth (torch, 107862 bytes, 14 tensors)

0.weight f4 [16, 1, 3, 3]
0	0x3e1e3d9a	0.15453187
1	0xbe6da973	-0.23209171
2	0xbb34c060	-0.0027580485
3	0xbe9a1b3b	-0.300989
4	0xbdd53548	-0.10410553
5	0xbcf10517	-0.029421372
6	0x3e79a04a	0.24377552
7	0x3eb49306	0.3526842
8	0xbec46316	-0.38356847
9	0xbe405e40	-0.18785954
10	0xbc2f7d14	-0.010710973
11	0x3ebc6b7c	0.36800754
12	0x3ebbcecd	0.36681214
13	0x3e9add41	0.30246928
14	0x3ce630d6	0.028099459
15	0xbe2a4dd4	-0.16631252
16	0xb915383c	-0.00014230696
17	0x3db351d1	0.087558396
18	0x3e853f77	0.26024982
19	0xbd96addc	-0.0735738
20	0xbe5b0021	-0.21386768
21	0x3e18f576	0.14937386
22	0x3d88d7d5	0.06681792
23	0xbec01cf6	-0.37522095
24	0xbe6c1280	-0.23053932
25	0x3e59f3de	0.21284434
26	0xbc9e342e	-0.01931199
27	0x3d7fa833	0.062416267
28	0xbeb40815	-0.35162416
29	0xbc36f56e	-0.011166913
30	0x3cd1e3bf	0.025621293
31	0xbeca5682	-0.39519125
32	0xbea7028d	-0.32619134
33	0x3e929ea8	0.2863667
34	0x3e8570b9	0.26062563
35	0x3ebf8bae	0.37411255
36	0xbe4f384b	-0.20236318
37	0xbdc01e52	-0.09380783
38	0x3d11b46d	0.035572458
39	0xbda9e787	-0.082961135
40	0xbe6b1a6b	-0.22959296
41	0xbed8add2	-0.42320114
42	0xbeafb1fb	-0.34315476
43	0x3e5ef322	0.21772435
44	0xbc9a8c73	-0.0188658
45	0x3dfb9ae4	0.122854024
46	0x3e3fff03	0.18749623
47	0xbe56e627	-0.20986234
48	0x3ec145c1	0.3774853
49	0x3e98aa5a	0.29817468
50	0xbe8d44a0	-0.2759142
51	0xbc0bad74	-0.008525241
52	0xbe48de95	-0.19616158
53	0xbe31d80d	-0.17367573
54	0x3e24ea09	0.16104902
55	0x3e8d5edd	0.27611437
56	0x3e97a122	0.29615122
57	0x3e93d33c	0.28872097
58	0xbe1c0cb8	-0.15239227
59	0xbdaf1fb3	-0.08550968
60	0x3cfb4664	0.030673213
61	0x3e8ab328	0.2708981
62	0xbd466422	-0.048435338
63	0xbe4e6dfa	-0.2015914
64	0x3edfbe31	0.43699792
65	0xbc664a3b	-0.014055784
66	0x3e2ff59e	0.1718354
67	0x3cc96033	0.024582004
68	0x3dc14440	0.09436846
69	0x3df8f2ec	0.12155709
70	0xbed85e3f	-0.42259404
71	0x3bb5a36e	0.005543164
72	0x3e988151	0.2978616
73	0xbdf6e412	-0.1205522
74	0xbc948ebe	-0.018134471
75	0xbea78fab	-0.32726797
76	0x3e144771	0.14480378
77	0xbd401230	-0.046892345
78	0xbd2bc4c8	-0.041935712
79	0x3e5045ea	0.2033917
80	0x3a978aa3	0.0011561703
81	0x3e5e87e7	0.2173153
82	0x3ee5ccb7	0.44882748
83	0xbe097a29	-0.13425507
84	0x3d13c156	0.03607305
85	0xbd738d4a	-0.059460916
86	0xbc201a34	-0.009771872
87	0xbe750ff6	-0.2393187
88	0x3e85d9dc	0.26142776
89	0xbe8850d4	-0.26624167
90	0x3e8e0fc3	0.277464
91	0x3eac3d66	0.33640593
92	0xbd11e101	-0.03561497
93	0xbe1f8c8a	-0.15580955
94	0xbd48eb88	-0.049052745
95	0xbdb58692	-0.08863558
96	0x3eb50b10	0.35360003
97	0xbc862d80	-0.016379118
98	0xbe01e6a5	-0.1268564
99	0xbe55ce85	-0.20879562
100	0xbbee5940	-0.007273823
101	0x3c9d56e6	0.019206475
102	0xbe953fc0	-0.291502
103	0xbe7a2ab3	-0.24430351
104	0x3d2ffcc5	0.04296567
105	0x3e9a3f94	0.3012663
106	0x3ecc558a	0.3990901
107	0x3c05475e	0.008134691
108	0x3ea3c80a	0.31988555
109	0xbdb4ed7a	-0.088343576
110	0x3edf18e9	0.43573692
111	0xbe71b135	-0.23602755
112	0x3e9cdbd1	0.30636457
113	0xbdd183ec	-0.1023024
114	0x3da5ca5a	0.08095236
115	0xbe289cee	-0.16466114
116	0x3e0fa940	0.14029408
117	0xbdf88c81	-0.12136174
118	0xbebb9ae4	-0.3664161
119	0x3eaffbf6	0.34371918
120	0xbed8d51f	-0.42350098
121	0xbe9f6b30	-0.31136465
122	0x3e3dc4b5	0.18532069
123	0x3e98d3f3	0.29849204
124	0x3e37e9d5	0.17960294
125	0x3e15f59c	0.14644474
126	0xbce26f8d	-0.027641082
127	0xbc36ef78	-0.011165492
128	0xbbd45b22	-0.0064805904
129	0x3d380320	0.044924855
130	0x3e69e998	0.22843015
131	0xbd2f1064	-0.04274024
132	0xbd742f3f	-0.05961537
133	0xbe26bed2	-0.1628373
134	0xbc5ebd9d	-0.013595012
135	0xbe5993fb	-0.21247856
136	0x3e04f308	0.12983334
137	0x3ecdf09a	0.40222627
138	0xbe035417	-0.12825046
139	0xbd2e3d81	-0.042539123
140	0xbdc05412	-0.09391035
141	0x3e572974	0.21011907
142	0xbe83c012	-0.25732476
143	0x3dacef57	0.08444088

0.bias f4 [16]
0	0xbce3cea8	-0.027808502
1	0x3e70ef81	0.23528863
2	0xbe9660a1	-0.29370597
3	0x3da9ffcd	0.08300743
4	0x3e3eeb1a	0.18644372
5	0xbe044b10	-0.12919259
6	0x3e2e5bca	0.17027202
7	0xbe915d01	-0.2839127
8	0x3eb088f8	0.344795
9	0xbe59ca16	-0.21268496
10	0xbe5e83cb	-0.21729963
11	0x3eafe216	0.34352177
12	0x3db1abeb	0.08675369
13	0x3e37f495	0.17964394
14	0xbe17ccd2	-0.14824226
15	0x3e1693c4	0.14704806

1.weight f4 [16]
0	0x3f6ba27b	0.920448
1	0x3f862a70	1.0481701
2	0x3f8181a0	1.0117683
3	0x3f70c39b	0.9404847
4	0x3f83d3ef	1.0299052
5	0x3f8bdf00	1.0927429
6	0x3f5769b3	0.8414566
7	0x3f830281	1.0235139
8	0x3f8245e3	1.0177578
9	0x3f835ac9	1.026208
10	0x3f84f420	1.0387001
11	0x3f880e7d	1.0629421
12	0x3f809b94	1.0047479
13	0x3f65af97	0.89721054
14	0x3f919f37	1.1376714
15	0x3f835931	1.0261594

1.bias f4 [16]
0	0x3d6aaa5c	0.057291374
1	0xbd85ff07	-0.06542783
2	0xbd1bb498	-0.038014024
3	0x3d871f55	0.06597773
4	0xbd5f3127	-0.054490235
5	0xbdd68fbe	-0.104766354
6	0xbd412a21	-0.047159318
7	0x3c4f0664	0.012635801
8	0x3d233d36	0.039853297
9	0xba10d216	-0.00055244693
10	0xbc24b3f7	-0.010052673
11	0xbe0b2726	-0.13589153
12	0xbdf34aa7	-0.11879473
13	0x3dac3fb2	0.084105864
14	0xbd73349e	-0.05937635
15	0xbc0f1dbb	-0.008735116

1.running_mean f4 [16]
0	0xbce52e06	-0.027976047
1	0x3e70f699	0.2353157
2	0xbe966af8	-0.29378486
3	0x3daa4d53	0.0831553
4	0x3e3ee3fc	0.18641657
5	0xbe047b3e	-0.12937638
6	0x3e2dc094	0.16967994
7	0xbe91a905	-0.28449264
8	0x3eb11548	0.3458655
9	0xbe58b239	-0.21161737
10	0xbe5f1a9d	-0.21787496
11	0x3eb027c6	0.34405345
12	0x3db024af	0.08600747
13	0x3e372490	0.17885041
14	0xbe1839ff	-0.14865874
15	0x3e1710e8	0.14752543

1.running_var f4 [16]
0	0x3e948bee	0.29013008
1	0x3e88c55c	0.26713073
2	0x3e6885c1	0.22707273
3	0x3ed3ed0a	0.41391784
4	0x3e8e49bf	0.2779064
5	0x3e9a751d	0.30167475
6	0x3e66962c	0.22518224
7	0x3e899c53	0.26877078
8	0x3e2da948	0.16959107
9	0x3e820005	0.2539064
10	0x3e4dab26	0.20084819
11	0x3e88bb3a	0.26705343
12	0x3e99af83	0.30016717
13	0x3edf592e	0.43622726
14	0x3d731883	0.059349548
15	0x3e4c79e8	0.19968379

5.weight f4 [32, 16, 3, 3]
0	0xbe19b99e	-0.15012214
1	0xbdb0ee19	-0.086391635
2	0xbcd81f24	-0.026382037
3	0xbcd49053	-0.025947725
4	0xbd0ce8bb	-0.034401637
5	0xbd17c542	-0.037053354
6	0xbda0bd05	-0.078485526
7	0xbd9e3614	-0.07725158
8	0xbd89330c	-0.066991895
9	0xbd04dd0b	-0.032437366
10	0xbde859d5	-0.11345259
11	0xbc777627	-0.015103853
12	0x3d8c0172	0.06836213
13	0x3dc63288	0.09677607
14	0xbdfab2a7	-0.122411065
15	0x3cba0a7a	0.022710074
16	0xbe01fc11	-0.12693812
17	0xbde33ecc	-0.11095962
18	0xbc6c1f33	-0.014411735
19	0xb9baa163	-0.00035596927
20	0x3e341967	0.17587815
21	0xbc9a5853	-0.018840944
22	0x3d1e3a24	0.038629666
23	0xbd810148	-0.062990725
24	0xbe1d5a7f	-0.15366553
25	0xbd80f336	-0.06296389
26	0xbe317a54	-0.1733182
27	0xbd155e72	-0.036467023
28	0x3d928ff1	0.07156361
29	0xbc513ea4	-0.012771282
30	0xbd148a1e	-0.03626453
31	0xbc7c65c9	-0.015405127
32	0xbd874ded	-0.0660666
33	0xbd10c156	-0.03534063
34	0xbe1f6621	-0.15566303
35	0x3d321992	0.043481417
36	0x3daf6282	0.08563711
37	0x3da8d0a7	0.08242922
38	0xbe056fdf	-0.13030957
39	0x3d781aef	0.06057256
40	0xbdce46ee	-0.100721225
41	0x3d903d22	0.0704291
42	0xbe47316d	-0.19452448
43	0xbe017616	-0.12642702
44	0xbdabe7c3	-0.083938144
45	0xbe9321b5	-0.28736654
46	0xbd2c0703	-0.041998874
47	0xba75c640	-0.000937555
48	0x3c816e2e	0.015799608
49	0x3e227133	0.15863495
50	0x3d4ff917	0.05077466
51	0xbd7d1382	-0.061786182
52	0x3caab1c8	0.020836726
53	0xbb367084	-0.002783806
54	0xbd3605fa	-0.044439293
55	0x3e22d285	0.1590062
56	0x3de6593b	0.11247488
57	0x3df13163	0.11776998
58	0x3d7f7ab1	0.062372867
59	0xbcddcf37	-0.027076347
60	0xbdb92630	-0.09040487
61	0xbdc38c12	-0.09548201
62	0xbe21960e	-0.15779898
63	0xbe2ad6e3	-0.16683535
64	0xbe0c8da2	-0.13725904
65	0xbe019d76	-0.12657723
66	0x3d3a6bf7	0.04551312
67	0x3dc6c17f	0.09704875
68	0xbe8449bd	-0.25837508
69	0xbdb819ca	-0.08989294
70	0xbe0fd86c	-0.14047402
71	0xbd2a71ae	-0.04161232
72	0xbd83fda1	-0.0644486
73	0xbc4d8fff	-0.012546538
74	0xbe090901	-0.13382341
75	0x3cb35cba	0.021894801
76	0x3d485586	0.048909687
77	0x3d893e2d	0.06701312
78	0xbda3eda1	-0.080043085
79	0xbde7945d	-0.11307595
80	0xbddabe49	-0.10680825
81	0xbe5c790a	-0.21530548
82	0x3d1e9d11	0.03872401
83	0xbd3a9a28	-0.04555717
84	0x3d62e4d1	0.055393998
85	0x3d9bfc55	0.07616488
86	0x3c365eda	0.011131013
87	0xbdd2abd8	-0.10286683
88	0xbe1ff414	-0.15620452
89	0xbe0cefa1	-0.13763286
90	0xbe0b4ca1	-0.1360345
91	0xbd8ea371	-0.06964768
92	0x3c3a4c3e	0.011370717
93	0xbd879fa4	-0.06622246
94	0x3dc52a4e	0.096272096
95	0x3cba8d8c	0.022772573
96	0xbe03be56	-0.12865576
97	0xbd36ba15	-0.044611055
98	0xbe391666	-0.1807495
99	0xbdbd2348	-0.09235245
100	0xbc3cd4bd	-0.01152533
101	0x3ddeb759	0.108748145
102	0x3924fd8e	0.00015734715
103	0x3cc20452	0.0236837
104	0xbb25d7b1	-0.0025305564
105	0xbde153a8	-0.11002284
106	0xbd42da85	-0.047571678
107	0x394c048d	0.00019456651
108	0xbde0e515	-0.10981194
109	0x3d175bad	0.036952663
110	0xbd918de7	-0.07107144
111	0x3ddc1643	0.107464336
112	0x3d78e843	0.060768377
113	0x3d0f89e8	0.035043627
114	0xbd0996e3	-0.033591162
115	0xbdc701c4	-0.09717134
116	0xbdcca80f	-0.09992992
117	0xbcb014b7	-0.021494253
118	0xbd8a5d81	-0.06756116
119	0x3d93fa17	0.07225435
120	0x3c501db0	0.012702391
121	0xbdb028e3	-0.086015485
122	0xbd6414d9	-0.055683944
123	0x3c7b75e9	0.015347936
124	0xbe114ada	-0.1418871
125	0xbd3c9e0f	-0.046049174
126	0xbe62a95a	-0.22134915
127	0xbcab55b2	-0.020914886
128	0xbd700547	-0.058598783
129	0x3da2bc38	0.07946056
130	0xbb812192	-0.0039407695
131	0xbe17c0a7	-0.14819585
132	0xbdd41052	-0.10354675
133	0xbe042f9c	-0.12908787
134	0xbd8fc3e9	-0.07019789
135	0x3d34abf5	0.044109304
136	0xbddc4414	-0.10755172
137	0x3c76414a	0.015030215
138	0xbc8bc7d1	-0.017063053
139	0x3db16410	0.086616635
140	0xbde19bc3	-0.11016037
141	0xbe13f64c	-0.14449424
142	0xbdea8076	-0.11450283
143	0xbd22e4d9	-0.039769027
144	0x3d012906	0.031533264
145	0xbe2168bc	-0.15762609
146	0xbded64c5	-0.11591486
147	0x3d8095c5	0.06278566
148	0x3cbd5830	0.02311334
149	0xbd23e57d	-0.04001378
150	0x3c3ff42e	0.011715932
151	0x3d7aefbb	0.06126378
152	0x3e06e012	0.13171414
153	0xbb8d047a	-0.004303512
154	0x3cbd53a2	0.023111168
155	0xbdd96de8	-0.10616666
156	0xbd0d1910	-0.03444773
157	0xbd6d0898	-0.057869524
158	0xbd27d047	-0.040970113
159	0x3d42ad83	0.047528755
160	0xbc734665	-0.014848326
161	0x3c4ae744	0.01238424
162	0xbde237db	-0.1104581
163	0x3c196984	0.009363536
164	0xbd37fd92	-0.044919558
165	0xbdbe8259	-0.093022056
166	0xbdbf8aa8	-0.093526185
167	0xbc18535f	-0.009297221
168	0x3d3706b8	0.044684142
169	0xbbabc7ee	-0.0052423393
170	0x3de516be	0.11185978
171	0x3b5bcb8f	0.0033538078
172	0xbcae294f	-0.021259932
173	0x3c76606f	0.01503764
174	0x3d20e49c	0.03928052
175	0xbdc70f0c	-0.09719667
176	0xbc4c8d98	-0.01248493
177	0x3e1e82cd	0.15479584
178	0x3e062b5f	0.13102482
179	0x3cb0ad54	0.021567024
180	0xbda062ca	-0.078313425
181	0xbdd5b01b	-0.1043398
182	0xbda25193	-0.07925715
183	0xbd62d054	-0.05537446
184	0xbd76dc68	-0.06026879
185	0xbd11bb69	-0.03557912
186	0x3daec72f	0.08534085
187	0x3bb434a4	0.0054994393
188	0x3e4c1c8f	0.19932769
189	0x3c9e5d15	0.019331494
190	0xbd07bb88	-0.033137828
191	0xbdc9e80e	-0.09858714
192	0xbc5916e4	-0.013250086
193	0x3b045b39	0.0020195975
194	0xbdf78140	-0.12085199
195	0xbdbb811e	-0.091554865
196	0x3d722e01	0.059125904
197	0x3dac35be	0.08408688
198	0xbd37f188	-0.044908077
199	0xbce73d42	-0.028227452
200	0x3cbb53e9	0.02286716
201	0xbd458fe5	-0.04823293
202	0xbe07d126	-0.13263378
203	0x3ad325de	0.0016109308
204	0xbd571ca8	-0.052517563
205	0x3dab81f6	0.083743975
206	0x3c792523	0.015206608
207	0xbd804edf	-0.062650435
208	0xbc1d9c1b	-0.009619738
209	0xb9b56291	-0.00034596448
210	0x3c58517f	0.013203024
211	0xbd87ebf8	-0.06636804
212	0xbe01b6a3	-0.12667327
213	0xbd7d92c4	-0.061907545
214	0xbcf2d859	-0.029644178
215	0xbc4646c6	-0.012101835
216	0xbcb31935	-0.021862606
217	0xbd230ed6	-0.03980907
218	0xbde7dea4	-0.11321762
219	0xbdbc821f	-0.09204506
220	0xbbf9864c	-0.0076148864
221	0xbd276a01	-0.040872578
222	0xbdbb238a	-0.09137638
223	0x3e0d83f9	0.13819875
224	0xbcd68f22	-0.026191298
225	0x3d7e570f	0.062094744
226	0xbcf93ea7	-0.030425383
227	0xbcd84e1f	-0.026404439
228	0xbd95fb80	-0.073233604
229	0xbd9db848	-0.077011645
230	0xbdd911de	-0.10599111
231	0x3d956ab5	0.072957434
232	0x3d9d054a	0.076670244
233	0x3d876765	0.06611518
234	0x3da03ed4	0.078244835
235	0xbe04e7a3	-0.12978987
236	0xbdbff99b	-0.0937378
237	0xbd3d55fe	-0.046224587
238	0xbd4055a3	-0.04695667
239	0xbcf51ec7	-0.029921902
240	0xbcff45ae	-0.031161156
241	0xbb9c0977	-0.0047618705
242	0xbc4bdaef	-0.012442335
243	0xbcbdb10c	-0.023155712
244	0xbc8815c2	-0.016611937
245	0xbde4c0bb	-0.11169573
246	0xbc5a8e31	-0.013339565
247	0xbc137b33	-0.009001541
248	0xbc5213a1	-0.012822063
249	0x3d6b11a9	0.05738989
250	0x3e17a3a2	0.14808515
251	0x3dcc4bb3	0.09975376
252	0x3cfbb175	0.030724267
253	0xbe109813	-0.14120512
254	0xbd6b2be4	-0.057414904
255	0xbde6da2d	-0.112720825

5.bias f4 [32]
0	0x3b2d60d8	0.0026455428
1	0xbd8a59af	-0.06755387
2	0x3d0fe9a5	0.03513493
3	0x3d98f115	0.07467858
4	0x3da21e39	0.07915921
5	0x3d516ab1	0.05112714
6	0xbda626e4	-0.081128865
7	0x3c3a4a79	0.011370295
8	0xbce464d2	-0.027880106
9	0x3d8c1b55	0.06841151
10	0xbd8627df	-0.065505736
11	0xbd8309b2	-0.063983336
12	0xbcdb41c7	-0.026764764
13	0x3cf2f313	0.029656922
14	0xbd406db4	-0.04697962
15	0x3dd655d3	0.104655884
16	0x3d9b048a	0.07569225
17	0x3d39adba	0.045331694
18	0xbd9c0908	-0.0761891
19	0x3d1ce7e9	0.038307104
20	0x3d1ec620	0.038763165
21	0xbd982085	-0.074280776
22	0xbd6dd109	-0.05806068
23	0xbb3e5b85	-0.002904625
24	0xbd22df57	-0.039763775
25	0xbda84ec2	-0.08218147
26	0x3d4ec9a9	0.050485287
27	0xbd3fb0bb	-0.046799403
28	0xbbfab1c1	-0.0076505844
29	0xbd9398cb	-0.07206877
30	0xbd0d00cf	-0.0344246
31	0xbb7518e1	-0.0037398862

6.weight f4 [32]
0	0x3f5ad467	0.8548035
1	0x3f6b7ead	0.91990167
2	0x3f758a98	0.959146
3	0x3f6afeee	0.9179524
4	0x3f54d45e	0.83136547
5	0x3f707cb6	0.93940294
6	0x3f4d5a67	0.8021607
7	0x3f4bb5d5	0.7957433
8	0x3f6d62c4	0.9272883
9	0x3f5cbf57	0.8622946
10	0x3f42f171	0.7614966
11	0x3f7b8770	0.98253536
12	0x3f745a97	0.9545073
13	0x3f56e53b	0.8394353
14	0x3f741e9e	0.9535922
15	0x3f614182	0.8799058
16	0x3f5e2831	0.8678008
17	0x3f480373	0.78130263
18	0x3f6e3030	0.9304228
19	0x3f563a07	0.8368229
20	0x3f6a2394	0.9146054
21	0x3f6d1d85	0.9262317
22	0x3f629c83	0.8852007
23	0x3f70ec72	0.94110787
24	0x3f53a6ac	0.82676196
25	0x3f6d818f	0.92775816
26	0x3f54106c	0.8283756
27	0x3f57ec4b	0.8434493
28	0x3f5f3295	0.8718656
29	0x3f6d2523	0.9263479
30	0x3f72793e	0.9471625
31	0x3f62efec	0.8864734

6.bias f4 [32]
0	0xbdccbb52	-0.09996666
1	0xbe17f1ce	-0.14838335
2	0x3d00d3e2	0.031452067
3	0xbe12701f	-0.14300583
4	0xbe13d976	-0.14438424
5	0xbceee8ed	-0.029163802
6	0xbe17231b	-0.14759485
7	0xbd9a9d65	-0.07549552
8	0xbdc2f0b9	-0.095185705
9	0xbda95edb	-0.08270045
10	0x3d09d6be	0.03365206
11	0xbd8417cb	-0.06449851
12	0xbd91af78	-0.07113546
13	0xbdffd9ad	-0.1249269
14	0xbd67e82b	-0.056617897
15	0xbd1c0211	-0.03808791
16	0xbe000e15	-0.12505372
17	0xbd34dcb0	-0.044155777
18	0x3c6e425e	0.01454219
19	0xbdce8bd3	-0.10085263
20	0xbc5b1bec	-0.013373356
21	0xbdce168f	-0.100628965
22	0xbc88b90c	-0.0166898
23	0x3c55bfcb	0.013046215
24	0xbd7adabd	-0.06124376
25	0xbd7fc19d	-0.062440503
26	0xbe3c48b5	-0.1838711
27	0xbdf96d1b	-0.12179013
28	0x3cb6463d	0.02225029
29	0xbd93a90d	-0.07209978
30	0x3b153ad9	0.0022770672
31	0xbe61cf0c	-0.22051638

6.running_mean f4 [32]
0	0xbf3f48ef	-0.7472066
1	0xbf33a4f6	-0.70173585
2	0xbfabc600	-1.34198
3	0xbf080018	-0.53125143
4	0xbf2cd28f	-0.67508787
5	0xbe9bcacd	-0.30428162
6	0x3f2e9599	0.6819702
7	0x3e73719b	0.23773806
8	0xbf3ab85e	-0.7293757
9	0xbef653a3	-0.48110685
10	0x3cce7e9b	0.025206855
11	0xbd547759	-0.05187163
12	0xbe055414	-0.13020355
13	0xbf7d32df	-0.9890575
14	0xbf2a7e1a	-0.66598666
15	0xbf73d98c	-0.95253825
16	0xbe55eea5	-0.20891817
17	0xbf4ddd73	-0.8041603
18	0xbf739852	-0.951543
19	0xbf22f755	-0.6365865
20	0xbf55b8df	-0.83485216
21	0xbf9d89f6	-1.2307727
22	0xbfa20be5	-1.265988
23	0xbfb04526	-1.3771102
24	0xbf674391	-0.90337473
25	0xbf2e104e	-0.6799363
26	0xbe8193fb	-0.25308213
27	0xbf9b9d60	-1.2157402
28	0xbf3d0b0f	-0.73845
29	0xbf60a085	-0.87744933
30	0x3f1fde27	0.6244835
31	0xbe99dd2e	-0.3005156

6.running_var f4 [32]
0	0x41099aa2	8.600252
1	0x40d7a06f	6.738334
2	0x414d20a4	12.820469
3	0x410c753e	8.778624
4	0x411cee1f	9.808135
5	0x40a78e41	5.236115
6	0x410ff632	8.997606
7	0x40a86bd8	5.2631645
8	0x40cdbbd7	6.4291797
9	0x4097edec	4.747793
10	0x41003e95	8.015279
11	0x4068d78d	3.6381562
12	0x406a2be4	3.6589289
13	0x414dedc2	12.870546
14	0x40aa25be	5.317107
15	0x41197325	9.590611
16	0x412d5761	10.833833
17	0x413b9688	11.724251
18	0x40f70773	7.7196593
19	0x40cff2f4	6.4984074
20	0x40e29285	7.0803857
21	0x414232f2	12.137438
22	0x412a54fa	10.645746
23	0x417e2130	15.883102
24	0x4125d293	10.36391
25	0x412eb078	10.918083
26	0x40bcf4fc	5.9049053
27	0x416620a0	14.382965
28	0x4104526c	8.270123
29	0x40b691d6	5.7053022
30	0x40f2bb8c	7.585394
31	0x40acc771	5.399346

10.weight f4 [64, 320]
0	0x3ce4bd21	0.027922215
1	0xbd403bdc	-0.046932086
2	0xbd8dd4c8	-0.069253504
3	0xbc6f266b	-0.014596562
4	0xbdc8fac3	-0.09813454
5	0xbc1a844c	-0.009430956
6	0x3cab6d1d	0.020926053
7	0xbcc325f3	-0.023821807
8	0xbc89459e	-0.016756829
9	0x3db5d745	0.0887895
10	0xbc9a2297	-0.018815322
11	0x3cae2667	0.021258546
12	0xbce53196	-0.027977746
13	0xbd15ddb7	-0.036588397
14	0xbdaa2fde	-0.08309911
15	0x3b7f520d	0.0038958818
16	0xbceef1d5	-0.029168049
17	0x3b957b65	0.004561829
18	0x3c746bcb	0.014918278
19	0xbd5313cf	-0.051532563
20	0xbd986a86	-0.07442193
21	0x3bca02f4	0.006164903
22	0xbcc30177	-0.02380441
23	0xbcbfbbe6	-0.023405027
24	0x3d7b7c94	0.061398104
25	0xbd79bd5f	-0.060971614
26	0xbc28d78e	-0.0103052985
27	0x3a7b0b6f	0.0009576594
28	0x3b52caef	0.0032164415
29	0xbb929f1b	-0.0044745333
30	0xbd045c4a	-0.032314576
31	0x3c8cd15f	0.01718968
32	0x3b10dbb1	0.0022103603
33	0xbcceda91	-0.025250705
34	0xbd406f0e	-0.04698091
35	0xbd6c8d31	-0.057751838
36	0xbd308fa8	-0.04310575
37	0x3bc92ec5	0.0061396086
38	0x3ca49af0	0.020093411
39	0xbc6306b8	-0.013856582
40	0xbb35c2f5	-0.0027734612
41	0xbd1bef31	-0.038069908
42	0xbd168d75	-0.036755998
43	0xb95f494a	-0.0002129424
44	0x3d9b8b9b	0.07594987
45	0xbb5bcaae	-0.0033537555
46	0xbaddbceb	-0.0016917264
47	0xbd740c44	-0.05958201
48	0x3cc43d0d	0.023954893
49	0xbd28992f	-0.041161712
50	0xbd389c4b	-0.045070928
51	0xbc2bc1f9	-0.010483258
52	0xbdab6b56	-0.08370082
53	0x3d82bae3	0.06383302
54	0x3c0770c5	0.008266632
55	0x3c08d2e3	0.008351061
56	0xbdb9a731	-0.09065092
57	0xbd3a943c	-0.045551524
58	0x3c985b6c	0.01859828
59	0xbc875f45	-0.01652492
60	0x3cc53022	0.024070803
61	0xbddc633b	-0.10761114
62	0xbd24df0a	-0.04025177
63	0x3d1ef15d	0.0388044
64	0x3d75fb55	0.060054142
65	0xbd9a9135	-0.07547227
66	0x3cd0fc90	0.025511056
67	0x3cc6da6f	0.02427408
68	0x3e27e5b7	0.16396223
69	0x3dd01b99	0.10161514
70	0x3d053cde	0.03252875
71	0xbd8f085c	-0.06984016
72	0xbc95c47f	-0.018282173
73	0xbe02a8a1	-0.1275964
74	0x3dd218c9	0.10258634
75	0xbc89e80f	-0.016834287
76	0x3c170767	0.009218073
77	0xbccc7183	-0.02495647
78	0x3d3df716	0.046378218
79	0x3df642f4	0.12024489
80	0xbdca89c0	-0.09889555
81	0xbccb4d1c	-0.024817042
82	0xbd8b5c01	-0.06804658
83	0xbcd576f2	-0.026057694
84	0x3cda4907	0.02664615
85	0xbd05ef4c	-0.032698914
86	0xbd720b3d	-0.05909275
87	0xbd126a54	-0.035745934
88	0xbc970bd1	-0.018438252
89	0xbd7b7e42	-0.061399706
90	0xbd2cc160	-0.042176604
91	0xbd90fcdb	-0.07079478
92	0xbba3f3ae	-0.005003414
93	0x3dc80106	0.0976582
94	0xbb49fd9b	-0.0030821327
95	0xbce814f4	-0.028330304
96	0x3bd76ab7	0.0065740007
97	0xbc25d7ea	-0.010122279
98	0xbcf4b0b1	-0.02986941
99	0x3ccad44a	0.02475943
100	0x3cdff858	0.0273401
101	0xbd3b1675	-0.045675714
102	0xbd062ef0	-0.032759607
103	0xbd12a0e6	-0.035797976
104	0x3e48e405	0.19618233
105	0xbd5e8c2c	-0.054332897
106	0xbd08c10f	-0.03338724
107	0xbc8faf4e	-0.017539646
108	0xbcf0d2f8	-0.029397473
109	0x3c998bc0	0.018743396
110	0x3c032f69	0.008006909
111	0x3ccb3623	0.024806088
112	0x3d781525	0.06056704
113	0xbc9491d7	-0.018135948
114	0xbc09d794	-0.008413214
115	0xbccc617f	-0.024948834
116	0xbd040249	-0.03222874
117	0xbdaee056	-0.085388824
118	0x3c3071e5	0.010769342
119	0x3c1a7c2b	0.009429018
120	0xbd1f2b5b	-0.038859706
121	0xbcbebbbf	-0.023282884
122	0x3d015791	0.03157765
123	0xbca8a5f7	-0.02058695
124	0xbcc84bc6	-0.024450194
125	0xbe0c1268	-0.13678896
126	0xbd6f2ed5	-0.058394272
127	0xbbbfa602	-0.005848647
128	0x3e2377e5	0.15963705
129	0xbd43e76a	-0.047828116
130	0xbd806bdc	-0.062705725
131	0xbd61519d	-0.055009473
132	0xbd8d8b3c	-0.069113225
133	0xbd3eb84c	-0.046562478
134	0x3d558d8b	0.05213694
135	0xbdf4abc4	-0.11946824
136	0xbc23e609	-0.010003575
137	0xbd144ec3	-0.036207926
138	0xbc1de333	-0.009636688
139	0xbc08616d	-0.008324009
140	0xbd260dba	-0.040540434
141	0x3d966b58	0.07344693
142	0x3b6635bf	0.003512725
143	0xbc905deb	-0.017622909
144	0xbcae0685	-0.021243343
145	0xbd34355b	-0.043996196
146	0xbdcf6a91	-0.10127748
147	0xbdc170b7	-0.09445327
148	0xbc4402a8	-0.011963524
149	0xbca06b98	-0.019582555
150	0xbc22a7a7	-0.009927667
151	0xbd55d2c5	-0.05220296
152	0xbd00b96f	-0.031426843
153	0x3cca67d6	0.024707716
154	0xbc82a04a	-0.015945572
155	0xbd93a162	-0.07208516
156	0xbd9512e8	-0.07278997
157	0x3b8f03ee	0.004364482
158	0xbd712010	-0.058868468
159	0xbd5188e6	-0.051155947
160	0x3d68f529	0.056874428
161	0xbbbe85e6	-0.005814302
162	0x3d6b48cb	0.057442468
163	0xbd1fb8c4	-0.038994566
164	0xbc0c875c	-0.008577194
165	0xbd538620	-0.051641583
166	0xbc868c81	-0.01642442
167	0x3c4f5172	0.012653695
168	0xbc49aa03	-0.0123086
169	0xbba22ee9	-0.00494944
170	0xbc5d0f5c	-0.0134924315
171	0x3cb7232f	0.022355644
172	0xbc9501c9	-0.018189328
173	0xbc77f934	-0.015135098
174	0x3c83db9b	0.016095927
175	0x3d14dfa6	0.0363461
176	0xbcd4be69	-0.0259697
177	0x3d4c6b9b	0.049907308
178	0x3d04cd94	0.032422617
179	0x3d34e5bb	0.0441644
180	0xbd6b3295	-0.057421286
181	0xbb09f721	-0.0021051841
182	0x3b1203cc	0.0022280095
183	0xbc77b8e1	-0.015119762
184	0xbae5da31	-0.001753634
185	0xbcf80c36	-0.03027926
186	0xbcdcb769	-0.026942926
187	0xbd47fc40	-0.04882455
188	0xbd92e420	-0.07172418
189	0xbd94590a	-0.07243545
190	0xbcd7b44c	-0.02633109
191	0xbd718c3c	-0.05897163
192	0xbce52c09	-0.0279751
193	0x3b5296d8	0.0032133367
194	0xbdd2b7e8	-0.102889836
195	0xbc8117b1	-0.015758367
196	0xbd9c7383	-0.076392196
197	0xbbeda8db	-0.007252795
198	0x3c8f1232	0.01746473
199	0x3cc7b412	0.024377856
200	0x3d2b73e1	0.041858558
201	0xbd52c843	-0.051460516
202	0x3d1141b2	0.035463043
203	0x3daab5f3	0.08335485
204	0x3c2d0f91	0.010562793
205	0xbd845f8f	-0.06463539
206	0x3c7ab483	0.015301826
207	0x3d341861	0.043968562
208	0x3d697005	0.056991596
209	0xbd4cf0ab	-0.050034206
210	0xbd0326a3	-0.03201927
211	0xbd93aef2	-0.072111025
212	0x3cf24c95	0.029577533
213	0xbcb407bb	-0.021976342
214	0x3cbef075	0.023308018
215	0x3beb8b88	0.0071882643
216	0xbd334532	-0.04376716
217	0xbda3ca1e	-0.07997535
218	0xbc36c25a	-0.011154735
219	0x3b8cb186	0.0042936234
220	0xbd94e045	-0.072693385
221	0x3c04ae08	0.008098133
222	0xbd625443	-0.05525614
223	0xb959ff2d	-0.00020789793
224	0xbd8b4c15	-0.06801621
225	0xbd7c2c68	-0.061565787
226	0xbc9e1e6b	-0.019301614
227	0x3cb63837	0.022243602
228	0xbd39ecfd	-0.045392025
229	0xbcb0570c	-0.021525882
230	0xbd632590	-0.055455744
231	0xbd4abd88	-0.049497157
232	0x3be58b70	0.0070051476
233	0xbd034d92	-0.0320564
234	0x3c9fa2d8	0.01948683
235	0xbd1db8a9	-0.038506184
236	0xbd256575	-0.04037996
237	0xbd7109c9	-0.058847222
238	0x3c7fe317	0.015618107
239	0xbcf0db79	-0.029401528
240	0xbd959fd4	-0.073058754
241	0xbc8ba268	-0.017045215
242	0xbd3c3a27	-0.045953896
243	0xbcaf43ce	-0.021394636
244	0xbdc7c2db	-0.097539626
245	0x3c1ab77c	0.00944316
246	0x3bc98604	0.006150009
247	0xbd7f0f65	-0.06227054
248	0x3d014666	0.031561278
249	0x3cfcaab8	0.030843124
250	0xbd63460e	-0.05548673
251	0xbdb42fb9	-0.08798165
252	0xbd9323ec	-0.07184586
253	0x3db92ffb	0.09042355
254	0xbcb21aae	-0.021741237
255	0xbb9bf86f	-0.00475984

10.bias f4 [64]
0	0xbcc13cf4	-0.023588635
1	0xbd147969	-0.0362486
2	0x3d8b8b50	0.06813681
3	0xbcd5bb1a	-0.026090194
4	0xbcb069cf	-0.021534828
5	0x3db5d3b1	0.088782676
6	0xbdad482c	-0.08461031
7	0x3da5f148	0.08102661
8	0xbe0b3b44	-0.13596827
9	0xbde821bb	-0.113345586
10	0x3db5d5a4	0.08878639
11	0x3dfb4239	0.1226849
12	0xbcf06605	-0.029345522
13	0x3db57af6	0.088613436
14	0xbd8a1316	-0.067419216
15	0x3e090dfd	0.13384242
16	0xbc2bc5d0	-0.010484174
17	0x3d25e078	0.040497273
18	0x3d11636f	0.035495218
19	0xbdafa690	-0.08576691
20	0x3d646370	0.055758893
21	0x3d504f9e	0.05085718
22	0xbb36168f	-0.0027784442
23	0x3dca6e16	0.098842785
24	0x3d0f2182	0.034944065
25	0x3b7d169e	0.0038618217
26	0x3d3ab0f9	0.04557893
27	0xbd2e54bd	-0.04256128
28	0xbb98e72a	-0.004666229
29	0xbdb63553	-0.088968895
30	0x3dd4eb3f	0.10396432
31	0xbd915247	-0.07095771
32	0x3d051cf4	0.032498315
33	0x3d4056d8	0.04695782
34	0xbd546e5c	-0.05186306
35	0xbdc2b38e	-0.095069036
36	0x3db9e9ff	0.09077834
37	0xbcccb374	-0.024987914
38	0xbde874ae	-0.1135038
39	0xbd3ee5ba	-0.046605803
40	0xbd1a4ff8	-0.03767392
41	0xbdcfafde	-0.10140966
42	0x3dbbe467	0.09174424
43	0xbd8eb93c	-0.069689244
44	0x3cea629d	0.028611476
45	0xbcb5e021	-0.0222016
46	0xbd25caf4	-0.040476754
47	0x3da37059	0.07980413
48	0x3b2733e0	0.0025513098
49	0x3d5164f8	0.051121682
50	0x3cc40984	0.023930319
51	0x3e0d9ff7	0.13830553
52	0x3dbe56fb	0.09293934
53	0x3dfb2530	0.12262952
54	0x3c6966ed	0.014245731
55	0x3d0e9c7b	0.0348172
56	0x3dd504b0	0.10401285
57	0xbda8d9f6	-0.08244698
58	0xbd35becc	-0.04437141
59	0x3dd252bc	0.102696866
60	0xbdaabe66	-0.08337097
61	0x3d96368e	0.07334624
62	0x3d061c7a	0.032742
63	0x3d886ef8	0.066617906
