VFL/models/vfl_network/bottom_model_party2.pth (torch, 108155 bytes, 14 tensors)

0.weight f4 [16, 1, 3, 3]
0.07936506 -0.40056956 -0.5340607 0.035960514 -0.037554715 -0.111513175 -0.2793458 0.28923738
-0.15178543 0.3545349 -0.34647396 0.044209927 -0.05376779 0.043035947 0.032020085 -0.097604595
-0.16846691 -0.31486094 0.32318056 0.24974307 -0.26523942 0.0025519743 -0.17296942 0.2095268
-0.3655494 -0.15865716 0.01186864 0.10844837 -0.10282432 -0.39247203 -0.11175464 -0.07601515
-0.26983383 0.028357316 0.15461494 -0.20395227 0.367197 0.2740095 0.25726897 -0.26109904
0.22518486 0.18897414 -0.24739984 -0.11816946 -0.33263308 -0.027306117 -0.21609914 0.016243447
0.26822063 0.22136533 0.23593348 0.24550468 -0.006818514 -0.016947659 -0.10849414 0.4490128
0.29576457 -0.23646389 0.20524119 0.19632362 -0.15766855 -0.47321165 -0.029387377 0.09729925
0.38247412 -0.22827762 -0.002714707 -0.32714537 0.18252645 0.064625494 -0.4631798 -0.22397412
-0.2788187 0.32742828 0.23400609 0.04763875 -0.0199073 0.05104712 -0.25338542 -0.3205469
-0.015688686 -0.0010760619 -0.4076929 -0.0645054 -0.25675046 -0.4696219 -0.08269169 -0.047774613
-0.03877415 0.06266864 -0.19275878 -0.14780211 -0.14574759 -0.36999404 0.33228406 0.3156959
-0.19719766 -0.32677242 -0.025885293 0.0013121706 0.009319136 -0.44261113 0.03283292 -0.4906262
0.27200386 -0.33744553 -0.01846277 0.1571374 -0.2778188 0.20699029 0.25500515 -0.03220392
-0.034506246 -0.00916333 -0.24074075 -0.094619006 -0.3517789 0.24171764 0.2555445 -0.29259288
0.22472754 -0.2148493 -0.023356184 -0.3033849 0.14863522 -0.39530447 0.21785943 -0.0461041
-0.30780044 0.2963532 0.052797034 -0.3538185 -0.006637623 -0.1852872 -0.05030521 0.007085806
0.058411926 -0.31918007 0.35566837 0.044784978 -0.27113482 0.094471455 0.12236578 0.11207193
00000000: 268a a23d 7417 cdbe 34b8 08bf 554b 133d
00000010: f9d2 19bd 0561 e4bd 6a06 8fbe ec16 943e
00000020: a46d 1bbe 9985 b53e 0965 b1be 7815 353d
00000030: 9d3b 5cbd 7646 303d 7e27 033d ebe4 c7bd
00000040: 9782 2cbe 7435 a1be ec77 a53e a6bc 7f3e
00000050: 76cd 87be 063f 273b e51e 31be 328e 563e
00000060: 4a29 bbbe 0677 22be af74 423c 2e1a de3d
00000070: 8f95 d2bd 18f2 c8be 9edf e4bd d5ad 9bbd
00000080: a927 8abe 9a4d e83c 6153 1e3e ddd8 50be
00000090: 3f01 bc3e f94a 8c3e c2b8 833e c6ae 85be
000000a0: dc96 663e 7082 413e 6256 7dbe d402 f2bd
000000b0: e24e aabe 14b1 dfbc 1849 5dbe fa10 853c
000000c0: 3754 893e 98ad 623e 8c98 713e 9465 7b3e
000000d0: d76d dfbb d1d5 8abc 2d32 debd 01e5 e53e
000000e0: 746e 973e 9723 72be bf2a 523e 0f09 493e
000000f0: dd73 21be cc48 f2be ccbd f0bc d444 c73d
00000100: a6d3 c33e 9cc1 69be 3ae9 31bb 997f a7be
00000110: 37e8 3a3e 5f5a 843d e725 edbe 7959 65be
00000120: 53c1 8ebe aea4 a73e 4b9f 6f3e da20 433d
00000130: a214 a3bc c916 513d bcbb 81be b91e a4be
00000140: 8f85 80bc a50a 8dba 20bd d0be 681b 84bd
00000150: cc74 83be 4872 f0be 435a a9bd 50af 43bd
00000160: a5d1 1ebd 6a58 803d 8f62 45be 7059 17be
00000170: db3e 15be dc6f bdbe 2321 aa3e e5a2 a13e
00000180: 2fee 49be b74e a7be 650d d4bc 24fd ab3a
00000190: 4aaf 183c ed9d e2be d07b 063d 5b33 fbbe
000001a0: 1744 8b3e a9c5 acbe 3c3f 97bc a0e8 203e
000001b0: 443e 8ebe 43f5 533e 0990 823e 42e8 03bd
000001c0: 6c56 0dbd cb21 16bc be84 76be 9cc7 c1bd
000001d0: 5d1c b4be d484 773e bbd6 823e bcce 95be
000001e0: fa1e 663e 7401 5cbe 7855 bfbc 4455 9bbe
000001f0: d533 183e 5965 cabe 8b16 5f3e a7d7 3cbd
00000200: 0598 9dbe 9bbb 973e b441 583d b327 b5be
00000210: 6b80 d9bb eebb 3dbe d60c 4ebd 0d30 e83b
00000220: 5841 6f3d 926b a3be 2a1a b63e 7470 373d
00000230: 2fd2 8abe 407a c13d e99a fa3d f885 e53d

0.bias f4 [16]
-0.03723516 -0.10073737 0.04666856 -0.04657999 0.1679545 -0.15944885 0.16546105 0.31060514
0.1381514 0.23668498 -0.21129602 0.12893073 -0.26901895 -0.0010390911 -0.039790433 0.3297431
00000000: e583 18bd 654f cebd 8827 3f3d a9ca 3ebd
00000010: 44fc 2b3e 8f46 23be 9f6e 293e a307 9f3e
00000020: 9077 0d3e 8c5d 723e fc5d 58be 6b06 043e
00000030: dabc 89be 1d32 88ba 4bfb 22bd 16d4 a83e

1.weight f4 [16]
0.9687255 0.996038 0.9098957 1.174726 1.0152507 0.944252 0.9340153 0.9572141
1.0085931 1.0883921 1.1715235 0.8334689 1.0533676 0.93274784 1.0339295 0.9498065
00000000: 65fe 773f 59fc 7e3f edee 683f 6c5d 963f
00000010: bcf3 813f 80ba 713f a01b 6f3f fc0b 753f
00000020: 9419 813f 6f50 8b3f 7bf4 953f 385e 553f
00000030: c0d4 863f 90c8 6e3f cd57 843f 8526 733f

1.bias f4 [16]
-0.049838442 -0.21151383 -0.12576242 -0.025355931 -0.093123145 -0.20730561 -0.23365216 -0.15521826
-0.16944781 0.034044504 -0.12718152 -0.092378296 -0.018303948 -0.13776697 -0.036553163 -0.20826651
00000000: 6523 4cbd 1597 58be ddc7 00be 3eb7 cfbc
00000010: 59b7 bebd ec47 54be 8342 6fbe 89f1 1ebe
00000020: ba83 2dbe 4072 0b3d df3b 02be d530 bdbd
00000030: 29f2 95bc c912 0dbe c5b8 15bd d143 55be

1.running_mean f4 [16]
-0.03525112 -0.099841945 0.046902664 -0.045319125 0.16682526 -0.16026638 0.16474533 0.31142575
0.13818887 0.239324 -0.20998909 0.13077399 -0.2684474 -0.0007105802 -0.039125893 0.3293997
00000000: 7a63 10bd ef79 ccbd 021d 403d 8ca0 39bd
00000010: 3ed4 2a3e df1c 24be 00b3 283e 3273 9f3e
00000020: 6281 0d3e 5a11 753e 6107 57be 9ee9 053e
00000030: f071 89be 3b46 3aba 7942 20bd 14a7 a83e

1.running_var f4 [16]
0.39316615 0.21311183 0.28219804 0.21787792 0.39836314 0.2163556 0.44839567 0.390017
0.24233001 0.364511 0.4204056 0.43785602 0.21948025 0.3554164 0.2773685 0.2419132
00000000: 134d c93e fd39 5a3e 437c 903e 641b 5f3e
00000010: 41f6 cb3e 538c 5d3e 1e94 e53e 4fb0 c73e
00000020: 5c25 783e 30a1 ba3e 673f d73e aa2e e03e
00000030: 6ebf 603e 23f9 b53e 3e03 8e3e 18b8 773e

5.weight f4 [32, 16, 3, 3]
-0.15112391 0.09567771 0.01004365 -0.13987876 0.061088935 0.07673737 -0.024667965 -0.14821848
0.1291291 -0.11525011 0.0041581895 0.06466264 -0.11645186 0.035827544 -0.18201344 -0.011747327
-0.07177753 -0.08914167 -0.0006740618 0.011528385 0.029182365 -0.15160812 -0.04075919 -0.14358194
-0.17557365 -0.02212705 -0.044459883 -0.09819559 0.055283632 0.06603143 -0.2361945 0.028119838
0.065694556 0.009857048 -0.13079122 0.035325844 0.03408335 -0.042973794 0.06944169 0.114576355
0.02554441 -0.09513563 -0.027251745 0.028180674 -0.089439794 0.009036292 0.018451978 0.0630875
-0.018617246 -0.07364391 -0.20217332 0.0084784785 -0.19229035 -0.097812496 -0.022604117 -0.046387263
0.028440664 0.08741308 -0.018317267 -0.12959732 -0.030926663 0.008969536 -0.1560951 -0.116161436
-0.016743727 0.038434155 -0.11025577 0.0746555 -0.09222364 -0.00061341806 -0.036825936 0.011985541
0.08818797 -0.12023118 -0.004072443 0.06661429 -0.16960105 -0.12608069 0.028874164 0.06511454
-0.19984423 -0.080573894 -0.12016027 0.01723242 -0.0025569133 -0.11631189 0.19522719 -0.09810872
-0.0066924137 0.107230686 0.055362605 -0.061578657 0.059119783 -0.030374449 -0.1547405 -0.057566505
-0.1023918 -0.08774872 -0.030613491 0.03033748 -0.077508874 -0.030331716 0.034596313 -0.11408408
-0.063662186 0.06973858 -0.03756634 -0.02653036 0.05573704 -0.094638415 0.11875245 0.10744043
-0.22643952 -0.1576577 -0.05240481 0.078908086 -0.04172768 -0.118062474 0.017668637 -0.09059265
-0.045950197 0.16653623 0.020686792 -0.10634645 0.0026407365 -0.053717338 -0.049142167 -0.03018145
0.025822056 -0.18525274 -0.032095224 -0.031905767 -0.1360814 -0.07941161 0.0056466535 -0.16396491
-0.050763004 0.011420263 -0.16609576 0.05149296 -0.19728643 -0.01826628 0.017167421 0.008039436
0.14345881 0.002942478 0.091185704 0.0026194307 -0.0012059385 -0.00762262 -0.06986727 0.06915253
-0.0010352567 -0.09706668 -0.07751361 0.06491316 -0.22693346 -0.1668593 0.06698849 0.02946753
0.10532638 0.03238679 0.026370488 -0.0045979777 -0.023071067 -0.20599577 -0.06319357 -0.12394657
-0.043194722 0.12284578 -0.0398969 0.048825677 -0.15770143 0.087702446 -0.07138058 0.09205848
0.11004174 -0.033755727 -0.026654536 0.0339 -0.01604757 -0.08845205 -0.05007116 -0.2975292
-0.15023762 -0.012298121 0.0138366325 -0.050969675 0.027507586 0.09070739 -0.17291145 -0.09075254
-0.14295997 -0.10400473 0.07700681 -0.037807908 -0.039639257 0.062130716 -0.040259022 -0.028167827
-0.21135393 -0.3155455 -0.16191828 -0.050727483 0.09030689 0.037514225 -0.026470507 0.05926945
-0.032369234 -0.20039576 -0.19797327 -0.090740666 -0.03963522 0.078004315 -0.01996748 0.020738445
-0.14215721 -0.11113237 -0.05265304 -0.29708084 -0.056880984 0.012109863 0.041675936 -0.016538609
0.03866475 0.029466392 -0.044680025 0.084819585 -0.0077894484 0.11660757 -0.013775824 -0.093509465
0.058444906 0.06345587 -0.16951117 -0.013876704 -0.084132336 -0.4254174 -0.19550821 -0.07778628
0.15514855 0.046672545 -0.0035396004 0.10412263 -0.042477116 -0.1114923 0.011747627 0.094437875
-0.15060456 0.018269816 0.0487446 -0.06458708 -0.104453646 -0.04995977 -0.19849098 -0.13832673
00000000: 3ac0 1abe adf2 c33d 1f8e 243c 613c 0fbe
00000010: 6438 7a3d 7b28 9d3d 7914 cabc 96c6 17be
00000020: 6b3a 043e 4008 ecbd 6c41 883b d96d 843d
00000030: 507e eebd e7bf 123d bb61 3abe dc77 40bc
00000040: 1900 93bd e88f b6bd 86b3 30ba 8de1 3c3c
00000050: db0f ef3c 293f 1bbe 1cf3 26bd 2507 13be
00000060: 94c9 33be ca43 b5bc 911b 36bd c51a c9bd
00000070: 1771 623d 7d3b 873d f9dc 71be 935b e63c
00000080: de8a 863d 757f 213c 22ee 05be d5b1 103d
00000090: fc9a 0b3d 4a05 30bd 7237 8e3d 02a7 ea3d
000000a0: 8342 d13c 78d6 c2bd 0d3f dfbc 28db e63c
000000b0: 362c b7bd f50c 143c 9a28 973c 0534 813d
000000c0: 3283 98bc 9ed2 96bd 8606 4fbe 51e9 0a3c
000000d0: c3e7 44be eb51 c8bd 452c b9bc 9200 3ebd
000000e0: 65fc e83c a105 b33d 180e 96bc 29b5 04be
000000f0: ea59 fdbc f6f4 123c 65d7 1fbe 0ce6 edbd
00000100: 242a 89bc 226d 1d3d c7cd e1bd fce4 983d
00000110: bfdf bcbd cacd 20ba cbd6 16bd 015f 443c
00000120: e59b b43d c43b f6bd 2172 85bb 136d 883d
00000130: e6ab 2dbe 4c1b 01be 8389 ec3c c65a 853d
00000140: f7a3 4cbe ed03 a5bd 9616 f6bd 012b 8d3c
00000150: e391 27bb ee34 eebd a3e9 473e 39ed c8bd
00000160: 094c dbbb c39b db3d e6c3 623d e739 7cbd
00000170: 9627 723d d6d3 f8bc 4b74 1ebe dbca 6bbd
00000180: cbb2 d1bd 9ab5 b3bd 25c9 fabc 4f86 f83c
00000190: f9bc 9ebd 387a f8bc ddb4 0d3d eaa4 e9bd
000001a0: 5261 82bd 1ad3 8e3d 2adf 19bd 3356 d9bc
000001b0: 864c 643d c9d1 c1bd 7c34 f33d ba09 dc3d
000001c0: c3df 67be 0571 21be 6da6 56bd 909a a13d
000001d0: a5ea 2abd bdca f1bd d1bd 903c a488 b9bd
000001e0: 4636 3cbd 7988 2a3e 5977 a93c 2bcc d9bd
000001f0: 3510 2d3b b606 5cbd 4c49 49bd 173f f7bc
00000200: c788 d33c e5b2 3dbe 4876 03bd 9faf 02bd
00000210: ec58 0bbe 8ea2 a2bd 9007 b93b 6be6 27be
00000220: deec 4fbd 0e1c 3b3c 0215 2abe 48ea 523d
00000230: 7405 4abe 2aa3 95bc b1a2 8c3c d7b7 033c
00000240: dee6 123e 97d6 403b 92bf ba3d c1aa 2b3b
00000250: 9510 9eba 2cc7 f9bb 9216 8fbd d79f 8d3d
00000260: 73b1 87ba e5ca c6bd 75bf 9ebd 31f1 843d
00000270: 3f61 68be 2add 2abe 4331 893d e465 f13c
00000280: 5bb5 d73d 03a8 043d ec06 d83c a2aa 96bb
00000290: 89ff bcbc 8ef0 52be a16b 81bd b3d7 fdbd
000002a0: f3ec 30bd 9196 fb3d ef6a 23bd 6ffd 473d
000002b0: 7c7c 21be 579d b33d fb2f 92bd 2889 bc3d
000002c0: 905d e13d 7243 0abd 9d5a dabc bada 0a3d
000002d0: 3276 83bc 5926 b5bd 6b17 4dbd bf55 98be
000002e0: e4d7 19be 0f7e 49bc 0bb3 623c 94c5 50bd
000002f0: 9757 e13c ccc4 b93d b30f 31be 78dc b9bd
00000300: 1964 12be 6f00 d5bd bfb5 9d3d 77dc 1abd
00000310: c65c 22bd c77c 7e3d a5e6 24bd 37c0 e6bc
00000320: 2a6d 58be 2e8f a1be e8cd 25be 9fc7 4fbd
00000330: d2f2 b83d 84a8 193d add8 d8bc 86c4 723d
00000340: 9a95 04bd 8c34 4dbe 81b9 4abe 3ed6 b9bd
00000350: 8a58 22bd bac0 9f3d d792 a3bc ace3 a93c
00000360: a991 11be 5e99 e3bd b7aa 57bd fb1a 98be
00000370: 09fc 68bd 7268 463c 63b4 2a3d fa7b 87bc
00000380: ee5e 1e3d 8163 f13c 6702 37bd e4b5 ad3d
00000390: a13e ffbb f3cf ee3d feb3 61bc e481 bfbd
000003a0: ed63 6f3d 27f5 813d 5694 2dbe 1d5b 63bc
000003b0: 934d acbd 4fd0 d9be 4e33 48be 6a4e 9fbd
000003c0: 43df 1e3e b62b 3f3d a4f8 67bb 3f3e d53d
000003d0: 7cfc 2dbd 1356 e4bd 1e79 403c a568 c13d
000003e0: 1538 1abe 95aa 953c 6ba8 473d 3b46 84bd
000003f0: cbeb d5bd 9ea2 4cbd 3841 4bbe 86a5 0dbe

5.bias f4 [32]
-0.07705508 0.030975752 -0.02678339 -0.05274932 0.061856482 0.07224669 0.048855398 -0.028396817
-0.037688624 0.070705056 0.048832156 -0.01636091 -0.06470683 -0.037095547 -0.033445157 -0.050965156
-0.07186535 -0.019234555 0.06520792 -0.013666241 0.03415503 0.0017832201 -0.07154242 0.0663732
0.07057214 -0.017806215 0.03020929 0.03458567 -0.054302804 0.016372917 -0.047928017 0.03968358
00000000: 0ecf 9dbd dcc0 fd3c d768 dbbc ac0f 58bd
00000010: 395d 7d3d 13f6 933d 991c 483d 71a0 e8bc
00000020: 635f 1abd d0cd 903d 3a04 483d 5107 86bc
00000030: 0485 84bd 80f1 17bd cafd 08bd d7c0 50bd
00000040: 242e 93bd c991 9dbc bb8b 853d 5fe8 5fbc
00000050: 25e6 0b3d f0ba e93a d584 92bd acee 873d
00000060: 2088 903d 57de 91bc 7979 f73c b4a9 0d3d
00000070: 9e6c 5ebd 7f20 863c 2b50 44bd 408b 223d

6.weight f4 [32]
0.93447095 1.0615337 1.0131385 1.0548686 0.92175084 0.94506454 0.9577415 0.96225965
0.956497 1.0926006 0.99931806 1.0891625 0.8255241 0.97515386 1.0558268 1.0097138
1.0250639 1.0073147 1.0723807 1.0434538 0.9184982 1.1147826 1.0033697 1.1317728
1.0589001 1.0580615 1.0345874 0.9731786 0.9501892 1.0472833 1.0803086 0.9872432
00000000: 7d39 6f3f 56e0 873f 86ae 813f ef05 873f
00000010: ddf7 6b3f c0ef 713f 8c2e 753f a656 763f
00000020: fddc 743f 56da 8b3f 4fd3 7f3f ad69 8b3f
00000030: 8c55 533f afa3 793f 5525 873f 4d3e 813f
00000040: 4b35 833f b0ef 803f c543 893f e58f 853f
00000050: b322 6b3f 32b1 8e3f 6b6e 803f eedd 903f
00000060: 0a8a 873f 8f6e 873f 5c6d 843f 3c22 793f
00000070: 993f 733f 610d 863f 8d47 8a3f f8bb 7c3f

6.bias f4 [32]
0.119484514 0.11972487 0.09205077 0.01245787 -0.019463757 -0.16742411 0.113866694 0.032440472
0.10259456 0.14143617 0.010849621 0.02054256 -0.11991033 -0.02854977 0.051611308 0.030426612
-0.03517692 0.0062556677 -0.021487458 0.049310166 -0.055080943 0.033262674 0.0642097 0.03716014
0.06456472 0.010784121 0.05506191 0.06377649 0.047716778 0.036473203 0.114424236 0.024089545
00000000: 4cb4 f43d 5032 f53d 1d85 bc3d 181c 4c3c
00000010: 7572 9fbc 3a71 2bbe f132 e93d 4de0 043d
00000020: 191d d23d a5d4 103e 9cc2 313c df48 a83c
00000030: 8c93 f5bd 35e1 e9bc 6166 533d 3b41 f93c
00000040: ad15 10bd 58fc cc3b 7706 b0bc 75f9 493d
00000050: 8e9c 61bd 713e 083d 6080 833d 3b35 183d
00000060: 823a 843d e2af 303c 9988 613d 409d 823d
00000070: ab72 433d ed64 153d 4157 ea3d 7057 c53c

6.running_mean f4 [32]
-0.9694893 -1.0421532 -1.279294 -1.285852 -0.30147618 -0.045388617 -0.7095892 -0.6925256
-1.1097783 -1.0511667 -0.97281975 -1.4134551 0.46003482 -1.1921328 -1.3912808 -1.6743348
-0.86284155 -0.9197489 -0.73379153 -1.3513021 -0.32592905 -1.5638659 -1.1889175 -1.1185979
-1.3030999 -1.2829412 -1.1099228 -0.6226174 -1.4768523 -1.2080487 -1.5419223 -1.0284485
00000000: 7330 78bf 4765 85bf e8bf a3bf cc96 a4bf
00000010: 165b 9abe 6ae9 39bd a3a7 35bf 5c49 31bf
00000020: 370d 8ebf a18c 86bf b70a 79bf 19ec b4bf
00000030: af89 eb3e cf97 98bf 7d15 b2bf 9a50 d6bf
00000040: 2fe3 5cbf aa74 6bbf c3d9 3bbf 78f7 acbf
00000050: 2ce0 a6be c22c c8bf 732e 98bf 372e 8fbf
00000060: facb a6bf 6b37 a4bf f311 8ebf db63 1fbf
00000070: 7f09 bdbf 57a1 9abf b65d c5bf 33a4 83bf

6.running_var f4 [32]
4.8490458 8.623082 4.100506 8.482721 3.9398763 3.6864915 3.6855671 2.852866
4.772793 4.4796867 5.8419433 6.275238 3.1761706 5.5157204 8.432344 11.133863
3.983287 3.1819167 3.4157014 5.901882 4.407243 11.131409 3.777598 5.834305
7.1533313 8.352829 10.268543 3.3252764 5.990107 6.3609257 9.445141 7.6799
00000000: 622b 9b40 25f8 0941 5837 8340 3ab9 0741
00000010: ef26 7c40 7aef 6b40 55e0 6b40 5b95 3640
00000020: b8ba 9840 9859 8f40 33f1 ba40 c0ce c840
00000030: 6146 4b40 c880 b040 e2ea 0641 4e24 3241
00000040: 2dee 7e40 86a4 4b40 da9a 5a40 38dc bc40
00000050: 2208 8d40 401a 3241 2ac4 7140 a0b2 ba40
00000060: 17e8 e440 30a5 0541 f44b 2441 54d1 5440
00000070: f5ae bf40 b48c cb40 4c1f 1741 bec1 f540

10.weight f4 [64, 320]
-0.04730056 0.022305712 -0.05542444 0.07447482 -0.090339914 0.06618978 -0.090828545 -0.09571396
0.22399122 -0.07326779 0.1011427 -0.04943752 0.01307268 -0.037789322 0.24521929 0.036502764
-0.027712785 -0.02839514 0.029196776 -0.21125492 0.04378412 0.015033425 0.09485231 -0.12610677
0.1165237 0.07127132 0.017548554 0.037520364 -0.10478234 -0.065406024 -0.03375435 0.027049618
0.0895143 -0.0045964164 -0.070572905 0.03449064 -0.116719976 -0.06057477 -0.13720585 -0.107255965
0.2142606 -0.019985203 -0.031026214 0.018708251 0.014479853 0.054747917 -0.11775012 0.032687385
-0.115788214 0.16813578 0.054544795 -0.09518083 -0.10003313 0.034427576 -0.01966665 -0.10306857
0.0045077447 0.009363528 -0.034391675 -0.035465807 -0.043242667 -0.03180641 0.19750816 0.012589918
0.033053614 0.045433845 -0.0025301185 0.02228656 0.099299245 -0.06287846 0.0042005205 0.09570682
-0.13589682 0.030650845 0.16278936 -0.14104392 -0.033937752 0.12774035 -0.032165285 0.010744564
0.07749206 0.00084015337 0.075165324 0.10244505 0.13964291 -0.0051173386 -0.066733755 -0.14959261
0.089051835 -0.09464324 -0.034675088 -0.022802532 0.0749816 -0.036717977 -0.09369415 0.05319108
-0.04588666 -0.07139841 -0.12991771 -0.17687936 0.080256775 -0.14637432 -0.06370005 -0.12673739
0.041165236 0.02862898 -0.18593614 0.020578908 0.0011392605 -0.037183944 0.08619133 0.027315145
-0.0038472048 -0.024985814 -0.06657127 0.005407231 0.07564104 -0.10053816 -0.08787549 -0.114073
0.04422365 0.030158138 0.1249237 -0.064884886 0.11270621 0.036876753 0.050670676 -0.046105463
0.021522947 -0.055103913 -0.03679849 0.21456523 0.031875104 -0.09110621 0.052950513 0.032328103
-0.04032175 0.020049188 -0.075816445 0.035366487 0.15281494 0.045527812 -0.03661326 -0.1447369
0.04434729 0.04041674 -0.020519702 -0.09355222 -0.07063495 -0.09495801 0.1458323 0.011351977
0.06072528 -0.044585276 -0.08360918 -0.026351474 -0.046446912 -0.02154472 -0.11346907 -0.14577077
0.08237588 0.062414154 -0.1320006 0.12723579 0.017385058 0.008187973 -0.06622899 -0.0080106845
0.10934753 -0.0529717 0.015994022 -0.05372473 -0.05675628 0.020398406 0.05924331 0.15675999
-0.07328578 0.012269484 0.14156033 -0.075456135 -0.058077678 -0.09842464 -0.028776748 0.037467204
0.008523311 -0.034295864 0.018098177 0.08937701 0.009023826 -0.0056781336 -0.031146333 0.029760337
0.055411052 -0.06732498 -0.122449726 0.08085112 0.040481646 -0.022815337 -0.06166451 -0.13753909
-0.09219828 0.02440852 0.012236922 -0.14555871 0.02896574 0.029573055 0.025844581 -0.15005483
0.05036121 -0.03871301 0.014944183 -0.10022229 0.14172423 0.039040778 -0.0732303 0.03362088
-0.045147344 -0.12187865 -0.13828719 -0.14043862 0.08091302 -0.046716467 0.104012206 0.14233436
0.0550539 0.11222014 0.06846824 -0.14763153 0.05591034 -0.011238556 0.0036699423 0.038703453
-0.012734543 -0.0821621 -0.054516822 -0.020583682 0.037244026 0.1601242 -0.018258471 -0.13441713
0.058021434 0.08247168 -0.15049714 -0.08138857 0.19440621 0.014164787 0.020220423 0.08428645
-0.067184225 -0.10676358 0.10405941 -0.08058028 0.15324008 -0.034720063 0.023534989 0.03692937
00000000: 3bbe 41bd 78ba b63c bd04 63bd 4186 983d
00000010: 2204 b9bd 828e 873d 5104 babd ae05 c4bd
00000020: f45d 653e 6c0d 96bd e723 cf3d ff7e 4abd
00000030: cb2e 563c fac8 1abd c41a 7b3e ec83 153d
00000040: ec05 e3bc ed9c e8bc 142e ef3c 3653 58be
00000050: fa56 333d c14e 763c ee41 c23d 2222 01be
00000060: faa3 ee3d b3f6 913d fcc1 8f3c f4ae 193d
00000070: 2098 d6bd 98f3 85bd 0042 0abd 2997 dd3c
00000080: 4653 b73d 899d 96bb 8788 90bd 0f46 0d3d
00000090: e20a efbd 401d 78bd b17f 0cbe 04a9 dbbd
000000a0: 2167 5b3e 02b8 a3bc b02a febc 0c42 993c
000000b0: e83c 6d3c 5a3f 603d fa26 f1bd 35e3 053d
000000c0: 5f22 edbd c92b 2c3e 5d6a 5f3d 2bee c2bd
000000d0: 2bde ccbd ee03 0d3d f41b a1bc 9d15 d3bd
000000e0: b4b5 933b 7c69 193c 49de 0cbd 9844 11bd
000000f0: 391f 31bd 7047 02bd 943f 4a3e f245 4e3c
00000100: 3a63 073d d718 3a3d 58d0 25bb 4e92 b63c
00000110: 675d cb3d 6cc6 80bd 85a4 893b f001 c43d
00000120: 8928 0bbe 7b17 fb3c 41b2 263e d16d 10be
00000130: 5002 0bbd 5ece 023e bfbf 03bd f809 303c
00000140: 28b4 9e3d bd3d 5c3a 47f0 993d b6ce d13d
00000150: 8dfe 0e3e 59af a7bb b5ab 88bd ce2e 19be
00000160: cf60 b63d 51d4 c1bd 7707 0ebd 60cc babc
00000170: f48f 993d 9765 16bd b8e2 bfbd e4de 593d
00000180: a7f3 3bbd 5439 92bd 2609 05be dd1f 35be
00000190: aa5d a43d 26e3 15be 2c75 82bd 72c7 01be
000001a0: e19c 283d 5387 ea3c 0b66 3ebe 1995 a83c
000001b0: 3d53 953a 314e 18bd 1485 b03d 03c4 df3c
000001c0: 6321 7cbb 0daf ccbc 8556 88bd 242f b13b
000001d0: b1e9 9a3d f3e6 cdbd 11f8 b3bd 1b9f e9bd
000001e0: dc23 353d 330e f73c ffd7 ff3d 5ee2 84bd
000001f0: 83d2 e63d 140c 173d 0e8c 4f3d 15d9 3cbd
00000200: e450 b03c a4b4 61bd 03ba 16bd fdb6 5b3e
00000210: 788f 023d e595 babd a3e2 583d 796a 043d
00000220: 6b28 25bd 323e a43c a745 9bbd 73dc 103d
00000230: 857b 1c3e 5f7b 3a3d c9f7 15bd e935 14be
00000240: 81a5 353d 068c 253d ef18 a8bc 4e98 bfbd
00000250: 0fa9 90bd 5879 c2bd 1055 153e a4fd 393c
00000260: 12bb 783d 0d9f 36bd 4a3b abbd 0cdf d7bc
00000270: 1e3f 3ebd 8d7e b0bc 7962 e8bd ef44 15be
00000280: afb4 a83d fca5 7f3d 2a2b 07be 194a 023e
00000290: 1c6b 8e3c d926 063c 11a3 87bd 3f3f 03bc
000002a0: 99f1 df3d daf8 58bd e505 833c 760e 5cbd
000002b0: 4679 68bd 8f1a a73c 1da9 723d b185 203e
000002c0: db16 96bd f205 493c 31f5 103e bf88 9abd
000002d0: dce2 6dbd dc92 c9bd 37bd ebbc 3677 193d
000002e0: 5ba5 0b3c d279 0cbd a142 943c 4b0b b73d
000002f0: abd8 133c a30f babb 9826 ffbc f3cb f33c
00000300: b3f6 623d aee1 89bd ecc6 fabd 4695 a53d
00000310: 15d0 253d 3be7 babc ed93 7cbd 0cd7 0cbe
00000320: 74d2 bcbd 60f4 c73c 5f7d 483c 580d 15be
00000330: 8f49 ed3c 3143 f23c 04b8 d33c f9a7 19be
00000340: 8e47 4e3d 8891 1ebd 72d8 743c 5841 cdbd
00000350: 2820 113e 39e9 1f3d c4f9 95bd 0cb6 093d
00000360: 6cec 38bd 839b f9bd 289b 0dbe 24cf 0fbe
00000370: bab5 a53d c459 3fbd 5a04 d53d 19c0 113e
00000380: 3380 613d acd3 e53d 1439 8c3d b82c 17be
00000390: 3e02 653d ec21 38bc 6a83 703b 8387 1e3d
000003a0: 8ba4 50bc 9a44 a8bd 084d 5fbd 1c9f a8bc
000003b0: 318d 183d 99f7 233e ca92 95bc a5a4 09be
000003c0: e2a7 6d3d eae6 a83d ec1b 1abe 0daf a6bd
000003d0: 6c12 473e 6c13 683c 4da5 a53c 609e ac3d
000003e0: e297 89bd dda6 dabd 1a1d d53d 4607 a5bd
000003f0: f8ea 1c3e a036 0ebd 73cc c03c 4043 173d

10.bias f4 [64]
0.21465681 -0.032932214 0.031920996 0.32269594 0.018378146 0.0466399 0.050415423 0.009890016
0.12553157 0.054034192 0.2152373 0.17853294 0.0113963345 0.034219433 0.3071277 0.080608115
-0.057116963 0.10267823 -0.03308188 0.04961617 0.09585175 -0.061561715 0.009932154 0.11283128
0.03571417 0.038684145 0.06004505 0.22307113 0.03443292 -0.0034129706 0.025311835 0.106018856
0.0088364445 0.024136702 0.054054655 -0.024933197 0.11749121 -0.0027180784 -0.04094378 0.16002123
-0.042099778 0.081683844 0.08051819 0.11118963 0.13837785 -0.037854575 0.24719882 0.025079874
0.10272597 0.11435517 0.06711806 0.002149495 0.14337964 0.03247315 0.045203563 -0.03124347
0.22279452 0.10942705 0.31340575 0.000138492 0.15628478 0.103153154 0.0059669204 0.16222158
00000000: ffce 5b3e eee3 06bd 97bf 023d 6738 a53e
00000010: c48d 963c 7b09 3f3d 6780 4e3d bc09 223c
00000020: 598b 003e f552 5d3d 2b67 5c3e 57d1 363e
00000030: b1b7 3a3c ad29 0c3d d83f 9d3e de15 a53d
00000040: 7af3 69bd f748 d23d de80 07bd 533a 4b3d
00000050: ec4d c43d 2328 7cbd 79ba 223c 1614 e73d
00000060: 0649 123d 4473 1e3d ccf1 753d c26c 643e
00000070: 8909 0d3d 25ac 5fbb c45a cf3c 6a20 d93d
00000080: bcc6 103c 55ba c53c 6a68 5d3d b440 ccbc
00000090: 3b9f f03d ca21 32bb aab4 27bd 9bdc 233e
000000a0: d170 2cbd dc49 a73d b9e6 a43d 64b7 e33d
000000b0: ecb2 0d3e 660d 1bbd b021 7d3e 4f74 cd3c
000000c0: fe61 d23d 0b33 ea3d 3275 893d 8bde 0c3b
000000d0: 1dd2 123e 9102 053d 5f27 393d 4ef2 ffbc
000000e0: 3f24 643e 4a1b e03d b876 a03e 2a38 1139
000000f0: 1e09 203e f641 d33d 2886 c33b 6a1d 263e
