VFL/models/vfl_network/top_model.pth (torch, 135836 bytes, 6 tensors)

0.weight f4 [128, 192]
0	0xbdfa54e3	-0.12223222
1	0xbcd7edbe	-0.026358481
2	0xbd97e7db	-0.0741727
3	0xbe0973fd	-0.13423152
4	0xbdc0463d	-0.09388397
5	0x3cd132eb	0.025536975
6	0x3e45787f	0.19284247
7	0xbd2491eb	-0.04017822
8	0x3caffeeb	0.021483859
9	0xbe2bb725	-0.16769083
10	0xbd6efc53	-0.058346104
11	0xbdedf69a	-0.11619301
12	0x3df90495	0.12159077
13	0xbd80f12d	-0.06296001
14	0xbc0ce4ba	-0.008599455
15	0x3dcdc05a	0.10046454
16	0xbccfef1c	-0.02538257
17	0xbd602a54	-0.054727867
18	0xba8d1a5f	-0.0010765305
19	0xbde9a7c9	-0.114089556
20	0xbdbdd706	-0.09269528
21	0xbd5df60e	-0.054189734
22	0xbdc181a8	-0.09448558
23	0xbb9905c9	-0.004669879
24	0x3c0e553c	0.008687314
25	0x3d4e4a7c	0.050364003
26	0x3d97230f	0.07379734
27	0xbe3b7e97	-0.18310009
28	0xbdbc8c09	-0.09206397
29	0xbd6613a0	-0.05617106
30	0xbd8d22ad	-0.068913795
31	0xbdf5566f	-0.119793765
32	0xbe048170	-0.12940001
33	0x3d8270a0	0.06369138
34	0x3ce5700b	0.028007528
35	0x3e0426e3	0.12905459
36	0x3e63ede7	0.22258721
37	0xbdc1ca70	-0.0946244
38	0x3dd63de9	0.10461027
39	0x3c6e2bd3	0.014536816
40	0x3df5435b	0.11975738
41	0xbde5a11f	-0.11212372
42	0xbe37fd21	-0.17967655
43	0xbda9d93f	-0.082933895
44	0xbe6e4195	-0.23267205
45	0x3e2ea027	0.17053281
46	0x3e270cc8	0.1631347
47	0xbdc85581	-0.097819336
48	0x3e72ba3a	0.23703852
49	0xbe82f1f4	-0.2557522
50	0xbe2f82dd	-0.17139764
51	0x3bd2b41a	0.006430161
52	0x3dfe30c5	0.12411646
53	0xbde6a8cc	-0.11262664
54	0xbd6aa868	-0.05728951
55	0xbddd341f	-0.10800957
56	0xbc65b435	-0.0140200155
57	0xbdbf9671	-0.09354866
58	0xbdec9817	-0.11552446
59	0xbd0bff80	-0.03417921
60	0x3d78da4f	0.06075507
61	0xbe22fc29	-0.15916504
62	0xbc51affb	-0.012798305
63	0xbe470ac5	-0.19437702
64	0x3dbf0483	0.093270324
65	0x3d5e9de2	0.054349788
66	0x3d03c526	0.032170437
67	0xbd79a541	-0.060948614
68	0xbbb21f9c	-0.005435897
69	0x3e1dbb39	0.15403451
70	0xbdb9f46a	-0.090798214
71	0xbddb130d	-0.10696993
72	0xbd143f52	-0.0361932
73	0xbdf1063a	-0.11768766
74	0x3d0a785f	0.0338062
75	0x3e2c7867	0.16842805
76	0xbd0ed3e4	-0.034870043
77	0x3dbf0fb4	0.09329167
78	0xbdfa50d2	-0.122224465
79	0x3d51a603	0.05118371
80	0x3df38ad6	0.11891715
81	0xbbdc51c3	-0.006723614
82	0xbcf8b00d	-0.030357385
83	0x3d591661	0.052999858
84	0xbcf30374	-0.029664733
85	0xbc947175	-0.018120507
86	0x3cc6b6cb	0.024257084
87	0xbb90d850	-0.0044203177
88	0x3d81fa60	0.06346583
89	0xbcf0ffdc	-0.029418878
90	0xbd29bc28	-0.041439205
91	0x3e414725	0.18874796
92	0xbd033d5c	-0.03204094
93	0x3d81638f	0.063178174
94	0x3d53e6a6	0.051733635
95	0xbd2d661c	-0.042333707
96	0x3d5e9ebb	0.054350596
97	0x3d84b796	0.06480329
98	0x3bdd3892	0.0067511285
99	0x3d0c2771	0.0342173
100	0x3d9fdf2d	0.07806239
101	0xbdad1dc7	-0.08452945
102	0x3e463016	0.19354281
103	0x3d72cc91	0.05927712
104	0xbc85ac47	-0.0163175
105	0x3d09f287	0.033678558
106	0x3dd814d3	0.10550847
107	0xbda6e5bb	-0.08149286
108	0xbbe8e680	-0.007107556
109	0x3db30d61	0.08742786
110	0xbdc561a5	-0.09637765
111	0x3df1c724	0.11805561
112	0xbcd6febd	-0.026244516
113	0x3c0d6ff9	0.008632653
114	0x3e0903bc	0.13380331
115	0x3d98b051	0.07455505
116	0x3db1c09d	0.08679316
117	0x3c9460c5	0.01811255
118	0x3df7903c	0.120880574
119	0xbd0324e1	-0.032017592
120	0xbbe7fb98	-0.007079553
121	0x3d49795b	0.049188
122	0x3e24cb98	0.1609329
123	0x3dfe23ce	0.12409173
124	0xbd3159fc	-0.043298706
125	0xbdeb79a4	-0.114978105
126	0xbd97842f	-0.07398259
127	0x3d518126	0.051148556
128	0x3d79cdff	0.06098747
129	0xbda9f8e1	-0.08299423
130	0xbdd1e25f	-0.10248255
131	0xbd84be1f	-0.06481575
132	0xbe0862f6	-0.13319
133	0xbc38e828	-0.011285819
134	0xbd8192eb	-0.063268505
135	0xbde445ec	-0.11146149
136	0xbdad79ee	-0.08470522
137	0x3e067bf8	0.13133228
138	0xbd1f28d9	-0.038857315
139	0x3e007031	0.12542798
140	0xbde145f5	-0.10999671
141	0xbc8a067a	-0.016848791
142	0xbb934ec7	-0.004495475
143	0x3d9e8fb4	0.07742253
144	0xbd8dfc19	-0.069328494
145	0xbdc1d7bc	-0.09464976
146	0x3d169a37	0.036768164
147	0xbe1aa31c	-0.15101284
148	0xbccf7cad	-0.025328005
149	0x3c3384cb	0.010956953
150	0x3df32b9f	0.118735544
151	0xbbd4704e	-0.0064831143
152	0x3d257fa8	0.040404946
153	0xbdbe4ce7	-0.09292012
154	0xbcf2bb10	-0.029630214
155	0xbd6e1b6a	-0.058131613
156	0xbdc08ac6	-0.09401469
157	0x3d3d07e7	0.046150114
158	0x3d5e6074	0.054291204
159	0xbdd1af34	-0.102384955
160	0xbd9679ab	-0.07347425
161	0x3d9cb7f2	0.07652272
162	0x3cdcb0c6	0.02693976
163	0x3d8e0168	0.06933862
164	0x3c92352e	0.017847624
165	0xbda35a70	-0.07976234
166	0x3e2967e2	0.16543534
167	0xbcd13083	-0.025535828
168	0xbc818058	-0.01580827
169	0xbca963d4	-0.020677485
170	0x3dfa29ff	0.12215041
171	0xbcf9a507	-0.030474199
172	0xbccfd48e	-0.025369909
173	0xbd4b097b	-0.04956959
174	0xbd767264	-0.060167685
175	0xbd8fd405	-0.070228614
176	0xbc69e6e7	-0.014276243
177	0xbe3163ab	-0.17323177
178	0x3a8a4397	0.0010548708
179	0x3ddc5fd2	0.10760464
180	0xbca3b2c1	-0.019982697
181	0xbcc86bc6	-0.024465453
182	0xbc055b71	-0.008139477
183	0xbc4ee64a	-0.012628147
184	0xbe0159c4	-0.12631899
185	0xbd5c3a08	-0.05376628
186	0xbc397cb1	-0.011321233
187	0xbd23550b	-0.039876025
188	0xbdafdd99	-0.08587188
189	0xbc8b5cff	-0.017012117
190	0xbd3761fc	-0.04477118
191	0x3d2248c6	0.039620183
192	0xbd9623c0	-0.073310375
193	0xbd4224dc	-0.047398433
194	0xbdab9bb8	-0.0837931
195	0x3e37cc19	0.17948951
196	0xbc36fa88	-0.01116813
197	0xbe252cc0	-0.16130352
198	0x3d7d60ef	0.06186002
199	0x3c565201	0.013081075
200	0xbc340bb0	-0.010989115
201	0xbda85132	-0.08218612
202	0xbd9f55f3	-0.077800654
203	0x3db823d6	0.0899121
204	0x3dd960c2	0.10614158
205	0xbd9c0ded	-0.07619844
206	0x3d93209b	0.071839534
207	0xbd752d81	-0.05985785
208	0xbe1c818b	-0.15283792
209	0x3dcd473e	0.10023354
210	0x3a3f0a3b	0.0007287596
211	0xbdf402de	-0.119146094
212	0xbdd8b04a	-0.105804995
213	0x3d13cadc	0.036082134
214	0xbcc83d28	-0.024443224
215	0x3d145b39	0.03621981
216	0x3d253afb	0.04033945
217	0xbdb29fb2	-0.08721866
218	0x3e0e5f0c	0.13903445
219	0xbc37f0a4	-0.011226807
220	0xbb95b1ae	-0.0045683
221	0x3dfb935b	0.12283965
222	0x3c6aab26	0.0143230315
223	0x3db86a57	0.09004658
224	0xbd113ee7	-0.03546038
225	0xbd32669e	-0.043554895
226	0xbe214a1b	-0.15750925
227	0xbcbd4e58	-0.023108646
228	0xbd117ffc	-0.035522446
229	0x3c87ea63	0.016591256
230	0xbbb348f9	-0.0054713455
231	0xbdbf5334	-0.093420416
232	0xbe0e5658	-0.13900125
233	0x3d74f340	0.059802294
234	0xbcd0397d	-0.025418038
235	0xbe0b0669	-0.13576664
236	0xbc880e7e	-0.016608473
237	0x3d5b58f9	0.053551648
238	0xbe0b3037	-0.13592611
239	0x3d28d4a6	0.041218422
240	0xbe11caa1	-0.14237453
241	0xbd071efa	-0.032988526
242	0xbd2d7abe	-0.042353384
243	0xbd875a1f	-0.06608986
244	0x3d6bcea7	0.057570126
245	0xbe5eda05	-0.21762855
246	0x3cabbed3	0.020965016
247	0xbd108181	-0.035279755
248	0x3cafe928	0.021473482
249	0x3c0977e9	0.008390405
250	0xbc3dcef4	-0.011584986
251	0xbdf9a54c	-0.12189731
252	0xbe061f44	-0.13097864
253	0xbe23ebba	-0.16007891
254	0x3bd7d1cf	0.0065862904
255	0xbb65bd1c	-0.0035055345

0.bias f4 [128]
0	0xbd793300	-0.060839653
1	0xbd2849dd	-0.041086067
2	0x3c019dac	0.007911127
3	0xbd712427	-0.05887237
4	0x3dac9773	0.08427324
5	0xbca1fa5d	-0.019772703
6	0x3d87a530	0.06623304
7	0x3dd38248	0.103275836
8	0x3cad8bfb	0.021184912
9	0x3d9adb3d	0.07561348
10	0xbcc014df	-0.023447452
11	0xbd56d8d3	-0.052452873
12	0xbd041299	-0.0322443
13	0xbc03b91b	-0.008039738
14	0x3d4cc154	0.04998906
15	0xbdf9cbad	-0.12197051
16	0x3e05f8ec	0.13083237
17	0xbd98f6a0	-0.07468915
18	0xbd83f90e	-0.06443988
19	0xbd1e8412	-0.03870017
20	0x3da6242b	0.08112367
21	0xbd579cfa	-0.05263994
22	0x3d932860	0.07185435
23	0xbdc7ab35	-0.09749452
24	0xbb537d56	-0.003227075
25	0xbe154b6a	-0.1457955
26	0xbe498e85	-0.19683273
27	0x3c98c5d3	0.018649017
28	0xbdf059dc	-0.11735889
29	0x3d5401b8	0.05175945
30	0xbc3265da	-0.010888541
31	0xbd595619	-0.053060625
32	0x3d782a72	0.060587354
33	0x3cd08bf2	0.025457356
34	0xbcfd37b9	-0.03091036
35	0x3e1038d0	0.14084172
36	0x3d451a1e	0.04812061
37	0x3d1f1afc	0.038844094
38	0x3c4b114c	0.012394261
39	0xbd5c3ba2	-0.053767808
40	0x3beeb8a3	0.007285194
41	0xbd940074	-0.07226649
42	0xbdc97a2a	-0.09837754
43	0x3ce81195	0.028328696
44	0x3a9c594c	0.0011928468
45	0xbc9f13d8	-0.019418642
46	0xbc4b9967	-0.012426711
47	0xbd84e1ef	-0.06488406
48	0x3dcef7f1	0.10105885
49	0x3cc86b7c	0.024465315
50	0x3d844e1a	0.06460209
51	0x3c531211	0.012882725
52	0xbda12af6	-0.07869522
53	0xbbd1cc3b	-0.00640252
54	0xbc75d903	-0.015005353
55	0x3cb3f82e	0.021968927
56	0x3bc6e23e	0.0060694506
57	0x3d4d7642	0.050161608
58	0xbdd90074	-0.105957896
59	0x3bc94612	0.0061423862
60	0x3d9c27af	0.076247565
61	0xbd3c41aa	-0.04596106
62	0xbe5afbc1	-0.21385099
63	0x3dc2b6a2	0.09507491
64	0xbdd1d106	-0.10244946
65	0xbcbf7709	-0.02337219
66	0x3bedb612	0.0072543705
67	0xbd95a605	-0.07307056
68	0xbc861ca9	-0.016371088
69	0xbdcfb16e	-0.10141264
70	0xbd8b214f	-0.067934625
71	0x3cf7a02a	0.03022774
72	0xbc20924b	-0.009800504
73	0xbd1e2814	-0.03861244
74	0xbce84667	-0.028353883
75	0xbe34e2e9	-0.17664684
76	0x3d87e053	0.06634583
77	0x3d40220a	0.046907462
78	0xbe136146	-0.14392576
79	0x3b65d3d3	0.0035068884
80	0x3d0a3ce1	0.033749465
81	0xbd9a9da5	-0.075495996
82	0xbbf88304	-0.0075839777
83	0x3d862e77	0.06551831
84	0x3d838a23	0.06422832
85	0xbd48fe63	-0.049070727
86	0xbd1e9c99	-0.038723562
87	0xbc5c2f25	-0.0134389745
88	0x3dad6074	0.084656626
89	0xbd3dbf37	-0.046324935
90	0xbd728612	-0.05920989
91	0xbcbe83f6	-0.023256283
92	0xbd8cd843	-0.06877186
93	0x3d9798dd	0.07402203
94	0x3c757ca4	0.01498333
95	0x3dfb1ebe	0.12261723
96	0x3d9cf03a	0.07663007
97	0x3d9ecf00	0.07754326
98	0x3e440cfb	0.19145577
99	0x3da69847	0.08134513
100	0xbd289520	-0.04115784
101	0xbd991cff	-0.07476234
102	0x3c5ebea1	0.013595254
103	0x3da159db	0.07878467
104	0x3d823b13	0.06358924
105	0xbdcc83bc	-0.09986064
106	0x3d982c69	0.074303456
107	0xbd078ac7	-0.033091333
108	0x3d98053a	0.07422872
109	0x3d9682a5	0.07349137
110	0x3d661efb	0.05618189
111	0xbd445161	-0.04792917
112	0x3d6c3c71	0.05767483
113	0x3d2a516c	0.041581556
114	0x3c66e338	0.014092259
115	0xbda4ec8f	-0.080529325
116	0x3ce49fe3	0.027908271
117	0xbe345cfd	-0.17613597
118	0x3d263376	0.04057642
119	0xbe60170a	-0.21883789
120	0xbd2cb434	-0.042164043
121	0x3d1aac05	0.037761707
122	0xbd9ae623	-0.07563426
123	0x3e251562	0.16121438
124	0xbd679218	-0.05653581
125	0x3d50c63b	0.050970297
126	0x3c9bec2c	0.019033514
127	0x3b67035e	0.003524981

3.weight f4 [64, 128]
0	0xbd77f52a	-0.06053654
1	0x3dda7940	0.10667658
2	0x3c65cfdc	0.014026608
3	0x3e43c242	0.19117072
4	0x3c92c6ac	0.017917
5	0xbd2531e9	-0.0403308
6	0x3d6784b9	0.05652306
7	0x3d762f59	0.060103748
8	0xbd4fa7a0	-0.05069697
9	0xbe5475d9	-0.2074808
10	0xbde5f2c6	-0.11227946
11	0x3c9ac3bb	0.01889216
12	0xbe3841a9	-0.17993797
13	0xbd5295de	-0.051412456
14	0x3db0497c	0.08607766
15	0xbdfd4e21	-0.123684175
16	0xbe618ecb	-0.22027127
17	0x3bcdd437	0.0062814015
18	0xbd674390	-0.056460917
19	0xbccfdbaf	-0.025373308
20	0x3d68730c	0.056750342
21	0x3ddd83e9	0.108161755
22	0x3d19fa8c	0.037592456
23	0xbe11c143	-0.1423388
24	0xbd3ccda5	-0.046094555
25	0xbe09df38	-0.13464057
26	0xbdecdc5d	-0.115654685
27	0xb9627e7f	-0.00021600163
28	0xbd8eb665	-0.06968383
29	0xba9d4f8c	-0.0012001856
30	0xbda2d642	-0.07951023
31	0xbe5ef2b3	-0.2177227
32	0xbe7cf0bc	-0.24701208
33	0xbda5ec1f	-0.08101677
34	0xbe61a74c	-0.22036475
35	0x3c285a2f	0.010275408
36	0x3dc3dc1d	0.09563468
37	0xbd95969b	-0.07304116
38	0x3c97a1c6	0.018509757
39	0xbcc1bff2	-0.023651097
40	0xbd4b2012	-0.04959113
41	0x3d89e999	0.06734008
42	0x3d9b6933	0.075884245
43	0x3c9a2dce	0.01882067
44	0xbc9e8f4b	-0.019355437
45	0xbe26abcb	-0.16276471
46	0xbd716839	-0.058937285
47	0x3cba8889	0.022770183
48	0xbe060479	-0.13087644
49	0xbd7b098d	-0.061288405
50	0x3c561081	0.013065458
51	0x3b0fda2a	0.0021950104
52	0x3ce04c1f	0.027380047
53	0x3d5a4e39	0.053297255
54	0xbd81fcee	-0.06347071
55	0x3da12be9	0.07869703
56	0xbda8a983	-0.08235457
57	0x3d8458c8	0.06462246
58	0xbd4e3885	-0.05034687
59	0x3d6db249	0.058031354
60	0x3d352635	0.04422589
61	0xbd561c36	-0.052272998
62	0xbe20489c	-0.15652698
63	0xbdec774c	-0.115461916
64	0x3d665747	0.056235578
65	0xbd0cb794	-0.03435476
66	0xbcbdac71	-0.023153516
67	0xbddde1a8	-0.10834056
68	0xbc78925f	-0.015171616
69	0x3c85892d	0.016300762
70	0xbd5adb9c	-0.053432092
71	0xbc0db326	-0.008648669
72	0xbe815001	-0.2525635
73	0x3d222dfe	0.039594643
74	0xbd38ff65	-0.04516544
75	0xbc33d23f	-0.01097542
76	0x3decf98a	0.11571033
77	0xbd02509b	-0.031815153
78	0xbeacc99e	-0.33747572
79	0x3ce1fc63	0.027586168
80	0x3d875a0e	0.066089734
81	0x3d911e89	0.07085902
82	0x3e14a3c8	0.14515603
83	0xbcf473a9	-0.029840307
84	0xbc24215b	-0.010017718
85	0xbd9a848e	-0.07544814
86	0xbd912dac	-0.07088789
87	0x3c6a3d7b	0.014296885
88	0xbde3e2d0	-0.111272454
89	0xbe0c5a22	-0.13706258
90	0x3cdacdb6	0.026709419
91	0x3dcead83	0.100916885
92	0x3db74942	0.0894952
93	0x3cd7b0a8	0.026329353
94	0xbdc488f3	-0.095964335
95	0x3c3dffa5	0.011596595
96	0xbdbd3f14	-0.09240547
97	0x3ddc3635	0.10752527
98	0x3dabeada	0.08394404
99	0x3d80ed69	0.062952824
100	0xbca30918	-0.019901797
101	0xbd4e6d3e	-0.05039715
102	0xbd142232	-0.036165424
103	0x3c938f94	0.0180128
104	0xbe12b87d	-0.14328189
105	0x3cfeb8bc	0.031093948
106	0x3dd16a7b	0.10225388
107	0x3c64dce2	0.013968678
108	0x3cf00037	0.029296977
109	0xbd5911af	-0.05299538
110	0x3d7ebdf0	0.062192857
111	0x3e00fb49	0.12595858
112	0x3d785705	0.060629863
113	0xbcfe67ec	-0.031055413
114	0x3d500575	0.050786454
115	0xbd8df48f	-0.069314115
116	0x3cbe374f	0.023219733
117	0xbd7c768e	-0.0616365
118	0x3d5911b8	0.052995414
119	0x3d04b847	0.032402303
120	0xbdcec5b0	-0.100963
121	0x3d29d8c0	0.041466475
122	0x3c55d68e	0.013051642
123	0x3e778797	0.24172817
124	0xbe5ec07a	-0.21753111
125	0xbd10453a	-0.03522227
126	0x3bc64bdf	0.006051525
127	0xbe27e2d7	-0.16395126
128	0x3e46df28	0.19421065
129	0x3c7655f6	0.015035143
130	0x3d5d1f23	0.053984772
131	0x3dc737e5	0.09727458
132	0x3c911496	0.017710011
133	0xbdae0868	-0.08497697
134	0xbd749985	-0.05971672
135	0xbddd965d	-0.10819695
136	0xbe0dad5a	-0.1383566
137	0xbcd1b829	-0.02560051
138	0xbe0b4009	-0.13598646
139	0xbe0ccc25	-0.1374975
140	0x3e1816a3	0.14852385
141	0x3d3e3bc2	0.04644371
142	0xbd990403	-0.07471468
143	0xbdf80652	-0.121105805
144	0xbdc5694c	-0.096392244
145	0xbdd40cea	-0.10354026
146	0xbc5e1d3c	-0.013556775
147	0x3c83d9fb	0.016095152
148	0xbca5efc8	-0.020255938
149	0xbe04fd9a	-0.12987366
150	0xbe6194a8	-0.22029364
151	0x3e0a2bcb	0.13493268
152	0x3d333fdd	0.043762077
153	0xbe3dc55e	-0.18532321
154	0xbe490df8	-0.19634235
155	0x3d7c0f41	0.061537985
156	0x3c57d0ac	0.01317231
157	0xbdf33e5e	-0.1187713
158	0xbd2a7555	-0.041615803
159	0xbd9540d3	-0.07287755
160	0xbe1bd638	-0.15218437
161	0xbc78653e	-0.015160857
162	0xbe233e80	-0.1594181
163	0x3cf587b9	0.029971944
164	0xbd6096fe	-0.054831497
165	0xbd9d95c9	-0.07694585
166	0xbcfe3f48	-0.031036034
167	0x3d8d86ee	0.069105014
168	0xbdd53143	-0.104097866
169	0x3d9e78be	0.077378735
170	0xbe900e6f	-0.28136012
171	0xbe07c6a1	-0.13259365
172	0xbe41e171	-0.18933655
173	0xbdd5f3fe	-0.104469284
174	0xbe67c79d	-0.2263474
175	0xbdb7ac69	-0.089684315
176	0xbd85225c	-0.06500694
177	0xbdb0a75c	-0.08625671
178	0x3d93211b	0.07184049
179	0x3d728c99	0.059216116
180	0x3e368fb6	0.17828259
181	0xbe3084fc	-0.1723823
182	0xbce7cd79	-0.02829622
183	0xbd6c5bc3	-0.0577047
184	0x3df1df9d	0.11810229
185	0x3cf48056	0.029846352
186	0xbd89790e	-0.067125425
187	0xbdfcf36b	-0.12351116
188	0x3dc0c502	0.09412576
189	0xbe6a713c	-0.22894758
190	0xbebac8d2	-0.3648134
191	0xbd74c66e	-0.05975955
192	0xbdefc6bb	-0.11707827
193	0x3c8ee60b	0.017443677
194	0x3d556edd	0.05210768
195	0xbb559e18	-0.0032595452
196	0xbdbc5a8e	-0.091969594
197	0x3e409c29	0.1880957
198	0x3d553b3b	0.05205844
199	0x3ddd3fa4	0.10803154
200	0xbbf83ee4	-0.0075758565
201	0xbddc8a5f	-0.1076858
202	0x3ce9a6ac	0.028521858
203	0xbe207451	-0.15669371
204	0xbdc7025f	-0.09717249
205	0x3dd0a7e9	0.10188276
206	0xbe012ddd	-0.12615152
207	0x3cdcbe4f	0.026946215
208	0xbdd1a222	-0.102360025
209	0x3d9fff4a	0.078123644
210	0x3d012597	0.03152999
211	0x3cd93324	0.026513644
212	0xbd33580f	-0.04378515
213	0x3cd78aa4	0.026311226
214	0xbdf593a2	-0.11991049
215	0x3c1183a4	0.008881483
216	0xbe3b27de	-0.18276927
217	0x3c0c7896	0.008573672
218	0xbc8037c1	-0.015651586
219	0xbe35696f	-0.17716001
220	0x3c346e5d	0.011012641
221	0x3d03de36	0.03219434
222	0xbd719ff3	-0.05899043
223	0x3d398335	0.045291144
224	0x3c0e8794	0.0086993165
225	0x3c0930af	0.0083734235
226	0xbe268160	-0.1626029
227	0xbd465566	-0.048421286
228	0xbd410c6f	-0.047131
229	0xbd12cc0b	-0.03583912
230	0x3d2e323e	0.042528383
231	0xbb45ac54	-0.003016253
232	0xbd6c1def	-0.057645734
233	0x3d5b895b	0.05359779
234	0x3d9c57e4	0.07633951
235	0x3c47457b	0.0121625615
236	0xbd2f41c1	-0.042787317
237	0xbe2b3e0e	-0.1672289
238	0xbd0facf7	-0.03507706
239	0x3e2cab06	0.16862115
240	0xbda82c0d	-0.08211527
241	0xbd2462d6	-0.04013332
242	0x3a41c3d8	0.0007391549
243	0x3d9c6d26	0.07638006
244	0xbcadc0d8	-0.02121012
245	0xbded7639	-0.11594815
246	0xbd5b95d5	-0.053609688
247	0xbdbdab34	-0.0926117
248	0xbe4156bd	-0.18880744
249	0xbd3c5507	-0.045979526
250	0x3e01a5fa	0.12660971
251	0xbade6247	-0.0016966545
252	0xbe015d6c	-0.12633294
253	0x3e1279bd	0.14304252
254	0xbd96c308	-0.07361418
255	0xbd4d1fa4	-0.050079003

3.bias f4 [64]
0	0x3c888f59	0.016669916
1	0x3e20f989	0.1572019
2	0x3e34f4c0	0.1767149
3	0x3ec3edc3	0.38267335
4	0x3e2cbd19	0.1686901
5	0x3d068d97	0.032849874
6	0x3d88852a	0.06666024
7	0x3d2ebfbc	0.04266332
8	0xbd457465	-0.048206706
9	0x3dea902a	0.11453278
10	0xbe0de403	-0.13856511
11	0xbcab6fdc	-0.020927362
12	0xbcf657b4	-0.030071117
13	0x3e8481d7	0.2588031
14	0x3ea92ca3	0.33041868
15	0xbc8843a5	-0.016633818
16	0x3dd644f9	0.10462374
17	0xbce4a4f7	-0.027910693
18	0x3dfb2746	0.1226335
19	0x3de14741	0.10999919
20	0xbc6bec84	-0.014399651
21	0x3dfb013c	0.12256095
22	0xbde6357f	-0.11240672
23	0x3d36fea1	0.044676427
24	0x3e002c29	0.12516846
25	0x3d7b3a2e	0.06133478
26	0xbb81d609	-0.0039622826
27	0xbde3790d	-0.11107073
28	0x3d78147c	0.06056641
29	0x3e597769	0.21236958
30	0x3e6635ea	0.22481504
31	0x3c4e404b	0.012588571
32	0x3d9914d8	0.07474679
33	0xbda8ab52	-0.08235802
34	0x3e1cc82c	0.15310735
35	0x3ecddf25	0.40209308
36	0xbe1e0a2b	-0.15433566
37	0x3c653b93	0.013991254
38	0xba5a6b15	-0.00083319965
39	0xbd00a01a	-0.031402685
40	0x3c46a4fd	0.012124297
41	0x3c99876d	0.018741334
42	0x3df85c1a	0.12126942
43	0xbe5b01e3	-0.21387438
44	0xbd936cd2	-0.0719849
45	0x3d67ffca	0.056640424
46	0x3c9a64c2	0.018846873
47	0x3e4de7f1	0.2010801
48	0x3da718d4	0.081590325
49	0xbd847db3	-0.06469288
50	0x3c902433	0.017595386
51	0x3c8b68ff	0.01701784
52	0xbd9de716	-0.07710092
53	0xbd2ddfd1	-0.042449776
54	0xbc0877a7	-0.008329309
55	0xbdf394b4	-0.11893597
56	0xbda40c23	-0.080101274
57	0xbd84bbfe	-0.06481169
58	0x3d565ca0	0.052334428
59	0xbc9bf87a	-0.019039381
60	0x3e782c95	0.24235757
61	0x3d494e54	0.049146965
62	0x3c30c62c	0.010789435
63	0x3e93ec20	0.28891087

6.weight f4 [5, 64]
0	0xbe45a076	-0.19299492
1	0xbe2237f3	-0.15841655
2	0xbe947b6f	-0.29000422
3	0xbe89036d	-0.26760426
4	0x3dc2b965	0.095080175
5	0xbddd5789	-0.10807712
6	0xbd6432cf	-0.055712517
7	0xbc7f9d73	-0.015601504
8	0xbdc7b83e	-0.09751938
9	0xbe60e517	-0.21962391
10	0x3cb1742a	0.021661837
11	0xbe130e14	-0.14360839
12	0xbb7c65ff	-0.0038512943
13	0xbea69249	-0.32533482
14	0xbe952c15	-0.29135194
15	0xbd8bf981	-0.068346985
16	0xbda78c7e	-0.08181094
17	0xbcbf96af	-0.023387281
18	0xbf0593cf	-0.52178663
19	0xbe3a34fa	-0.18184271
20	0xbe817b7e	-0.2528953
21	0xbe91fc28	-0.28512692
22	0xbc4638a7	-0.012098468
23	0xbee519ed	-0.44746342
24	0xbe8959f2	-0.26826435
25	0x3dd39791	0.103316434
26	0xbd15eb62	-0.03660143
27	0xbd1ea8f2	-0.038735338
28	0xbec1b968	-0.37836766
29	0xbe8f2898	-0.27960658
30	0xbece5f62	-0.40307146
31	0x3dac17d6	0.08402984
32	0xbe968ed6	-0.2940585
33	0xbc96c3c1	-0.01840389
34	0xbe1f8e3a	-0.15581599
35	0xbf304b0d	-0.6886452
36	0xbb9ef3e5	-0.004850852
37	0xbda56595	-0.08076016
38	0xbc42bce4	-0.011885855
39	0x3d1610da	0.036637165
40	0xbea42245	-0.32057396
41	0x3d98fb6e	0.074698314
42	0xbe67d2f0	-0.2263906
43	0x3daf19cf	0.085498445
44	0x3c97b1ac	0.018517338
45	0xbe49a2d8	-0.19691026
46	0xbd01405d	-0.031555522
47	0xbeb26e2f	-0.34849688
48	0xbe40c54f	-0.18825267
49	0x3cf315c9	0.029673474
50	0x3dc0f7f9	0.09422297
51	0xbc5a8564	-0.013337467
52	0x3df1d280	0.11807728
53	0x3db9adac	0.090663284
54	0x3dbece9c	0.09316751
55	0x3c8dc785	0.017307052
56	0x3bd43258	0.006475728
57	0x3d372dfe	0.044721596
58	0xbe076223	-0.1322103
59	0x3d07326d	0.033007074
60	0x3cb71d96	0.022352975
61	0x3d2aeac8	0.04172781
62	0x3dc12744	0.094313174
63	0xbecda441	-0.40164378
64	0x3cc0a7eb	0.02351757
65	0x3d4c9b2b	0.049952667
66	0x3cf0544d	0.029337073
67	0xbd5cd69c	-0.053915605
68	0x3cdb12d2	0.026742373
69	0xbcf885b0	-0.030337185
70	0x3da0706f	0.07833945
71	0xbd60edc8	-0.054914266
72	0x3d0509b0	0.03247994
73	0xbd371022	-0.04469312
74	0xbe09caf4	-0.13456327
75	0xbda0700f	-0.078338735
76	0xbe17f236	-0.1483849
77	0xbd87005d	-0.06591866
78	0xbd144073	-0.036194276
79	0xbd630e14	-0.055433348
80	0xbc8ff32e	-0.017572012
81	0x3d656afa	0.056010224
82	0x3cd312e6	0.025765847
83	0xbe263fd5	-0.16235287
84	0x3c175359	0.00923618
85	0xbd1292a4	-0.03578438
86	0xbd33b470	-0.04387325
87	0x3c4be917	0.01244571
88	0xbdcad2b8	-0.09903473
89	0xbcb1ebfb	-0.02171897
90	0x3d93e1af	0.0722078
91	0xbd4e8325	-0.050418038
92	0x3ce428b1	0.027851434
93	0xbdd80d55	-0.10549418
94	0xbd362726	-0.04447093
95	0xbe0a1271	-0.13483597
96	0xbd5b8e3a	-0.053602435
97	0xbcdbd622	-0.026835505
98	0xbd61d564	-0.055135146
99	0xbd8484ad	-0.064706184
100	0x3cfeb445	0.031091819
101	0xbb49f88c	-0.0030818311
102	0x3d5764c1	0.05258632
103	0xbe53d01f	-0.2068486
104	0xbe2796b3	-0.16366081
105	0x3df9c4fd	0.12195776
106	0xbd1fe868	-0.03904
107	0xbdd8b3c3	-0.10581162
108	0xbd3b8ad8	-0.04578671
109	0xbe3c87b5	-0.18411143
110	0xbe023ad0	-0.12717748
111	0x3c7ec2bc	0.015549358
112	0x3d60b322	0.054858334
113	0x3d187d80	0.03722906
114	0xbde748e6	-0.11293201
115	0xbe869b64	-0.2629043
116	0xbe05bb2b	-0.1305968
117	0xbdd10092	-0.10205187
118	0xbb590536	-0.0033114678
119	0x3cf41993	0.029797351
120	0x3c41ec09	0.01183606
121	0xbc662d7a	-0.014048928
122	0x3cb84b1b	0.02249675
123	0x3d1358e9	0.035973463
124	0xbdaa670d	-0.083204366
125	0x3d1267fc	0.0357437
126	0xbc1100a1	-0.008850248
127	0xbd034003	-0.03204347
128	0xbdbc620f	-0.09198391
129	0xbd38937b	-0.045062523
130	0xbe25f34d	-0.16206093
131	0xbeba92eb	-0.36440215
132	0xbe13b143	-0.14423089
133	0x3daf69fc	0.08565137
134	0x3da91c85	0.08257393
135	0xbdaef777	-0.08543294
136	0x3d2e4e10	0.042554915
137	0xbc0e609d	-0.008690027
138	0xbdb14b89	-0.08656985
139	0xbd69527f	-0.05696344
140	0xbd0e05da	-0.03467355
141	0xbe2ea600	-0.17055511
142	0xbe20ea03	-0.15714268
143	0x3db00013	0.08593764
144	0xbe1e1a17	-0.1543964
145	0x3d131b82	0.035914905
146	0xbc865650	-0.016398579
147	0x3d6e842d	0.05823152
148	0xbd2d1a24	-0.042261258
149	0x3d8a8dc3	0.0676532
150	0xbd38c92e	-0.045113735
151	0x3c90fa3b	0.017697444
152	0xbdcc038d	-0.09961615
153	0x3dd0758a	0.10178669
154	0xbd530cf9	-0.051526044
155	0xbdcf505c	-0.10122749
156	0xbd252df0	-0.040327013
157	0xbe297bb9	-0.16551103
158	0xbe07c848	-0.13259995
159	0xbd124fd8	-0.035720676
160	0xbd73ae39	-0.059492324
161	0xbc9548cf	-0.018223194
162	0xbdd1728c	-0.10226926
163	0xbe9a97b5	-0.30193868
164	0x39069a43	0.00012836703
165	0x3d8dbcc5	0.069207706
166	0xbd7cfc2c	-0.061763927
167	0x3d2e896d	0.04261153
168	0xbe277e87	-0.1635686
169	0x3dd30873	0.10304346
170	0xbe4f191a	-0.20224419
171	0xbd49a1a4	-0.04922642
172	0xbd03fd63	-0.03222407
173	0x3d22f839	0.039787505
174	0xbda13364	-0.0787113
175	0xbe49bb0b	-0.19700257
176	0x3d1905d1	0.037359063
177	0x3ca8b718	0.020595118
178	0x3cedc84c	0.029026173
179	0x3d84171e	0.06449722
180	0xbc5d2f42	-0.013500037
181	0x3dcd59e5	0.10026912
182	0xbdb675d3	-0.08909192
183	0xba972d2f	-0.0011533852
184	0x3c89b4ef	0.016809909
185	0x3df810b8	0.12112564
186	0x3bceb0b6	0.0063076867
187	0x3c56543d	0.013081607
188	0xbe3b1604	-0.18270117
189	0x3d22fbab	0.03979079
190	0x3da183f7	0.078864984
191	0xbe546901	-0.20743181
192	0x3ccc2b47	0.02492298
193	0xbe1ab1fe	-0.15106961
194	0x3d5c36b0	0.05376309
195	0x3c99c9f7	0.018773062
196	0x3d8ba78c	0.068190664
197	0x3d6b639f	0.057468053
198	0xbd24bef6	-0.040221177
199	0xbcad38b5	-0.021145204
200	0x3c872a6c	0.01649972
201	0xbda83ac9	-0.082143374
202	0xbdea1a69	-0.114308186
203	0xbd25202e	-0.040313892
204	0xbdb504ba	-0.08838792
205	0x3d65049b	0.055912595
206	0x3cbb6341	0.022874476
207	0xbd6217b3	-0.055198383
208	0xbd26f809	-0.04076389
209	0xbdb84a18	-0.08998507
210	0x3dbb2bde	0.091392264
211	0xbca08160	-0.01959294
212	0xbb7cc6f7	-0.003857074
213	0x3d623b10	0.055232108
214	0xbdd737cd	-0.1050869
215	0xbc45ddca	-0.012076804
216	0x3d908782	0.07057096
217	0xbd0b61dd	-0.034028877
218	0xbe072742	-0.1319857
219	0xbde9744a	-0.113991335
220	0x3ca8d9c2	0.020611648
221	0xbd6d534a	-0.05794076
222	0x3d656fe3	0.056014907
223	0xbb107bb8	-0.0022046398
224	0x3d2afd68	0.041745573
225	0xbd63242b	-0.055454414
226	0x3db38e0a	0.08767326
227	0x3d1786ac	0.036993667
228	0xbe0145e9	-0.12624325
229	0xbdcc77ef	-0.09983813
230	0xbd5bf59d	-0.053701032
231	0xbdf9508d	-0.12173567
232	0xbe05e70b	-0.13076417
233	0x3c83bf7a	0.016082514
234	0x3b74ceea	0.0037354776
235	0xbd680783	-0.05664779
236	0xbdb10a59	-0.08644552
237	0x3aabdd30	0.0013112184
238	0xbd7f5a50	-0.062341988
239	0x3d40e14b	0.047089856
240	0xbd7762f1	-0.060397092
241	0xbd83c7ad	-0.064345695
242	0xbdc02211	-0.09381498
243	0x3cc2798e	0.023739602
244	0xbae2c550	-0.0017301235
245	0xbd0f49cf	-0.0349825
246	0xbd23bd86	-0.039975666
247	0xbd34553f	-0.04402661
248	0xbde34ca0	-0.110985994
249	0xbc8efeba	-0.017455447
250	0xbbd8df79	-0.006618437
251	0xbdc762ea	-0.09735663
252	0xbcf94315	-0.030427495
253	0xbd33dd47	-0.0439122
254	0x3d8565eb	0.0651358
255	0x3c84bf20	0.016204417

6.bias f4 [5]
0	0xbee6296e	-0.44953483
1	0xbd644da2	-0.0557381
2	0xbeaa9cb8	-0.33322692
3	0x3e019525	0.1265455
4	0x3dfbc615	0.122936405
