VFL/models/vfl_network/top_model.pth (torch, 136173 bytes, 6 tensors)

0.weight f4 [128, 192]
000000 82 db 99 3c 8b 5a 22 3c 99 c9 2c bd 74 fd ec 3d
       0.018781427 0.009909282 -0.042184446 0.1157178
000010 85 26 b2 bd 0c de e7 3d d7 ee 8f 3d 98 99 3f be
       -0.08698753 0.11321649 0.07027977 -0.18710935
000020 3e b3 94 3a 0c c0 f6 bb af 48 23 3d 0b 01 87 bd
       0.0011344922 -0.007530218 0.03986424 -0.06591996
000030 e0 10 d4 3c e7 a2 4c 3d 99 ce 31 be 2f 75 25 3c
       0.025886953 0.049960043 -0.17363967 0.0100987395
000040 4e ad b9 3d 81 1a d8 3c f4 81 42 be 2a 5c dc bd
       0.09066258 0.026379826 -0.18994886 -0.107597664
000050 af e4 8c bd cc 8c cc bd 3f e0 20 3c bb 74 09 bc
       -0.068795554 -0.099877924 0.009819089 -0.008389647
000060 f1 a9 5f 3b 86 b1 3d bd c7 00 c1 bd 43 01 54 be
       0.0034128393 -0.046311878 -0.094239764 -0.20703606
000070 66 60 44 be 6f 75 d2 bd 4a ed a6 3d 0a d4 16 be
       -0.19177398 -0.10276305 0.08150728 -0.14729324
000080 37 11 a6 be f9 db 30 3d 1d 38 4d be ed aa d6 3d
       -0.3243501 0.043178532 -0.20040937 0.1048182
000090 e7 c5 6e bd 38 af 1c be 0e d9 21 3c bb 58 65 be
       -0.058294203 -0.15301216 0.00987841 -0.22397129
0000a0 6c d3 f3 3d 55 09 ea bb 69 e7 d9 3d 9c 88 07 3e
       0.1190556 -0.0071422257 0.10639841 0.13235706
0000b0 5f b2 4e be 67 e2 00 be ec 62 46 3e 3c 20 c1 bd
       -0.2018523 -0.12586366 0.19373673 -0.09429976
0000c0 13 da cf 3d 56 cb d1 3b 7b 61 0d bc 7d 11 b9 3c
       0.10149016 0.0064024134 -0.008629198 0.022591347
0000d0 ae 11 77 3d dd 2e b3 3c bd dd 20 be ab c0 67 bd
       0.060319595 0.021872932 -0.15709586 -0.056580227
0000e0 31 04 17 3e 76 a8 04 be a8 31 27 be d4 ce 1a 3d
       0.14747693 -0.12954888 -0.16327536 0.037794903
0000f0 a3 f1 cd 3d 19 ae 7d bd 5d f7 53 be d8 17 5b be
       0.10055854 -0.06193361 -0.2069983 -0.21395814
000100 e9 6d b5 3d 67 c1 b1 3d 8e e2 d0 3c b4 bf 3e 3d
       0.08858854 0.08679467 0.025498655 0.04656954
000110 03 ad 8a bd 54 b9 8f 3d 2d 8b 2d bc c8 9c 86 bc
       -0.067712806 0.070177704 -0.010592264 -0.016432181
000120 68 d3 92 3c d4 4e 2d bd 69 30 88 bd bc db 23 3d
       0.017923072 -0.042311504 -0.066498585 0.040004477
000130 a0 9b 89 bc 19 42 69 3d be ad ad 3b 63 2e e0 3d
       -0.01679784 0.0569478 0.0053002527 0.109463476
000140 4b 64 63 bc 35 6c a5 bd c6 0e 9e 3d e2 f2 92 3c
       -0.013878892 -0.080772795 0.077176616 0.017938081
000150 c9 0f 90 3d de 48 b4 3d 9e a2 cc bb b7 d2 24 3d
       0.07034261 0.08802961 -0.0062449714 0.040240016
000160 69 6b e5 3d 25 6c a7 3d 80 53 7f bd 7a 02 19 3d
       0.112021275 0.08174924 -0.06233549 0.037355877
000170 a1 bd 8d 3d 70 11 28 3e 84 61 83 3d 99 64 b4 bc
       0.069209345 0.16412902 0.06415084 -0.022020625
000180 bf 9f 14 3e e8 94 f2 3d 9c ec 5f 3d 67 b5 48 3d
       0.14514063 0.11844808 0.054669008 0.049001124
000190 fd 8c e3 bc 6c 23 43 3d 04 e7 fc 3c 13 20 38 bd
       -0.02777719 0.047641203 0.030871876 -0.044952463
0001a0 b6 6f 47 bd 3d 20 34 bb 3e a8 c5 3d 6c 79 ed bb
       -0.04869052 -0.0027485036 0.0965123 -0.0072471406
0001b0 6d 0b 8a 3c f8 c9 8f bb 46 94 0a 3c ee 8f 89 bc
       0.016851151 -0.00438809 0.008458203 -0.016792264
0001c0 8a ef 44 bd 80 39 b6 3d 50 37 84 3c 50 f6 0c 3d
       -0.048080005 0.08897686 0.016139656 0.03441459
0001d0 ba 9d 5f 3d 40 7b 86 bd a2 d8 4e 3c af 23 ac 3c
       0.05459378 -0.06566477 0.0126248915 0.021013109
0001e0 ba 2d 1e 3d 81 84 d1 3d 0e ff 5d bd f6 91 be bb
       0.038617827 0.10230351 -0.054198317 -0.0058157397
0001f0 83 05 94 3d 2a d4 07 3c dc ff fc 3c 3c cd 56 3d
       0.07227614 0.00829033 0.030883722 0.05244182
000200 0f 6b f8 3d b7 f1 2e bb ba 0a 45 bd a0 bd 83 bd
       0.12129795 -0.0026694366 -0.048105933 -0.064326525
000210 4f dd 8e bd 3d e9 91 3c 47 36 c0 bc 37 bf 08 bd
       -0.06975805 0.017811412 -0.023463381 -0.03338548
000220 80 db 75 3c be 08 81 3c 43 77 80 bc ac a2 91 3d
       0.015005946 0.015751239 -0.015681868 0.07111105
000230 06 bc 16 bd ae 2b 23 bd 49 5f d2 bd 3b 92 5e bc
       -0.036800407 -0.039836578 -0.102720805 -0.013584669
000240 09 11 e1 bc 2d 74 b3 bd bd 42 d0 3c 88 02 8f ba
       -0.027473943 -0.08762393 0.025422448 -0.0010910789
000250 6d d5 5e bc 80 49 e5 ba ce 41 c8 3c 20 c0 96 3c
       -0.013600689 -0.0017493218 0.02444544 0.01840216
000260 36 9b 8c bd 4d 0e 27 bd ce 96 88 bd 75 08 0a bc
       -0.06865542 -0.040785123 -0.06669389 -0.008424868
000270 5f 0a 1e bd 9f 1a cf bc 20 7c bb 3b 8f 26 d2 bd
       -0.03858411 -0.025281249 0.005721584 -0.10261261
000280 b1 77 80 3d a2 23 ea 3d 14 0d d8 bd 3b ab 54 3d
       0.06272829 0.11432578 -0.105493695 0.05192111
000290 f9 57 99 bd c6 bc 12 bd 86 7f b0 3d 4c d8 f5 3b
       -0.074874826 -0.03582456 0.08618073 0.0075025912
0002a0 8e fa 28 3c 65 29 c7 bd c1 f2 77 3d 5d 2c f6 3c
       0.010313643 -0.09724692 0.060534243 0.030050451
0002b0 a0 98 c4 3d 95 11 87 bc 85 7b fe bc d2 10 87 bc
       0.095994234 -0.016487876 -0.031064758 -0.016487513
0002c0 0f 18 04 bd e0 ff 0a be 02 07 5d bc d5 ce 38 bd
       -0.032249507 -0.13574171 -0.01349044 -0.045119125
0002d0 cf 28 c9 3a be 3d 13 bd 96 dc 0a bd 2d d3 a5 3b
       0.0015347245 -0.035947554 -0.033901773 0.0050605745
0002e0 d5 87 06 bd 0c 7c 97 be 49 a3 84 3d 53 29 07 3d
       -0.032844383 -0.29586828 0.06476457 0.032998394
0002f0 6d 62 e3 bc 72 1b cd 3b 39 64 3b bc e4 f7 3e 3d
       -0.027756894 0.0062593753 -0.011437469 0.046623126
000300 f8 0e 88 3c b0 9e c0 b7 89 9b 87 bd b5 af 7c 3d
       0.0166087 -2.2962078e-05 -0.06621463 0.061691005
000310 c0 05 f7 bc f0 11 30 be 4a 70 22 3d b3 da 90 bd
       -0.030154109 -0.17194343 0.03965787 -0.070729636
000320 c4 23 5d 3d 2f a7 54 3d dd 1d 78 be 8f 40 18 bd
       0.053989187 0.05191725 -0.24230142 -0.037170943
000330 01 e4 9e 3d df b0 42 3d 77 e5 a4 bc e6 c7 c5 3c
       0.07758332 0.04753196 -0.020128949 0.02414317
000340 7b 06 41 bd 06 77 38 3e 15 20 ea 3c a6 a5 ca bd
       -0.04712532 0.18014154 0.028579751 -0.09894876
000350 68 e9 28 3d 87 9b c3 bc 39 35 a0 bc 06 c4 c8 3d
       0.04123822 -0.023877872 -0.019556629 0.098030135
000360 bb ac d4 3d c5 5a 00 3d 64 26 38 3d ed 60 05 3a
       0.10384508 0.031336565 0.044958487 0.00050879904
000370 2c 19 fd bb a3 fa 94 3d 0b 75 8d bd 57 66 a9 3d
       -0.007723948 0.07274368 -0.0690709 0.08271473
000380 1f c6 84 bb 64 87 aa 3d 04 92 55 bb 6a 15 13 be
       -0.004051938 0.08326605 -0.0032588253 -0.14363638
000390 d9 c4 eb bd f7 10 d3 bd db de c5 3d 21 99 ba 3b
       -0.11512155 -0.1030597 0.09661647 0.005694524
0003a0 aa dc 16 3d 98 b2 3e 3c 5f 95 1d be d2 3e 5b be
       0.036831535 0.01163926 -0.15389012 -0.21410683
0003b0 0b 9a b2 3d e0 99 05 bc fb 1f 14 be 98 9a 39 3e
       0.087207876 -0.008154362 -0.14465325 0.18125379
0003c0 86 6e 61 3d f3 1a c2 3c 0e 66 7b bd c3 b8 0c 3d
       0.055037044 0.023694491 -0.061376624 0.03435589
0003d0 90 20 01 be 6a 58 a4 bc 7d 2d d3 3b 23 12 43 3e
       -0.12610078 -0.02006169 0.0064446316 0.19049887
0003e0 82 78 19 bd 84 f9 81 3d 0b 16 29 be e3 ed 01 be
       -0.03746844 0.063464195 -0.16512315 -0.12688403
0003f0 4b f1 13 be 92 37 22 be 7f 9d c9 bd a3 61 10 3e
       -0.14447515 -0.15841511 -0.09844493 0.14099745

0.bias f4 [128]
000000 72 96 ff bc 5a 7b 50 3c 7d 47 bf 3d 67 64 9b 3d
       -0.031199668 0.012724722 0.09339807 0.075875096
000010 83 ab 3f 3d 0e 78 21 3c 24 79 38 3c 50 5e 8f 3d
       0.046794426 0.009855283 0.011259351 0.070004106
000020 c5 db 88 3d 8b 39 a2 3d 64 c6 20 3d 51 25 ed 3d
       0.06682543 0.07921132 0.0392517 0.11579383
000030 f4 19 ec bd 9d 42 d1 3d 75 43 f6 3c e2 8b f4 3c
       -0.11528388 0.102177836 0.030061463 0.029851858
000040 30 4c 9e 3c e1 0d 02 3d 4d 84 0d bd 28 15 b7 bc
       0.019323438 0.031751517 -0.03455 -0.022348955
000050 52 27 13 3d a2 ec 73 bd 49 7e 72 3d 57 d3 6f 3d
       0.03592617 -0.059551843 0.059202466 0.05855116
000060 39 d7 37 3d 8c b1 25 3d 74 23 94 bd 50 eb 1b 3d
       0.044882987 0.040452525 -0.07233325 0.03806621
000070 17 83 09 bc 03 ea 05 3d 2b 13 1e 3e 3e 22 df bc
       -0.008393071 0.032693874 0.15437 -0.027238008
000080 0e f2 22 3e 14 81 06 3e 6b 81 02 3d 79 36 ca 3c
       0.15912649 0.13135177 0.031861704 0.024684178
000090 c6 62 23 3e 72 19 5c 3d b9 98 72 bd 17 d1 21 3d
       0.15955648 0.053735204 -0.05922768 0.039506044
0000a0 3a 66 97 3d 53 34 14 3d bc 4d ec bc 3f 45 86 3d
       0.07392545 0.036182713 -0.02884566 0.065561764
0000b0 69 02 b3 3c a4 6c a4 3d 3f 4f 8d 3d a6 89 13 3d
       0.021851735 0.08028534 0.068998806 0.036019944
0000c0 2b d2 16 3e 1f 2f 9f 3d 76 e1 4c bd 94 ac 46 3d
       0.1472861 0.077726595 -0.050019704 0.048504427
0000d0 78 ac 03 3d 9f 53 c5 3c 2b 19 93 bd c4 e7 09 3d
       0.0321469 0.024087725 -0.07182535 0.033668295
0000e0 27 2e 75 3d 3d 25 04 bd a7 74 cb 3c c1 3f 86 3d
       0.059858467 -0.032262076 0.024835898 0.06555129
0000f0 02 9b 45 3d f1 18 d2 bd 67 27 8b bd 58 27 f3 3d
       0.04824353 -0.102586634 -0.06794625 0.118727386
000100 6e d9 44 bd 4a 94 d3 3d 99 95 e1 3c 81 a1 86 3b
       -0.04805892 0.10331018 0.027537154 0.0041086082
000110 e3 73 04 3e 59 dd 37 3d 2a fd 3a bd fd 87 8c 3d
       0.12934832 0.044888828 -0.045651592 0.06861875
000120 de 88 b1 3c 9a 80 c9 3d 91 04 e2 3d 5e 14 3d bd
       0.021671709 0.09838982 0.11036027 -0.046162
000130 68 87 c3 3d 01 5e 37 3d 19 68 39 3a e5 db 0b 3e
       0.09547311 0.044767383 0.00070727017 0.13658102
000140 f9 78 8e 3c b3 46 e4 bc 9c c8 96 3d 1a d1 f1 3d
       0.017391669 -0.027865743 0.07362482 0.11807461
000150 d3 73 ca 3d 18 85 3c 3d ed e7 29 bd 08 06 6a 3c
       0.09885373 0.046025366 -0.041480947 0.0142836645
000160 b9 99 48 3c e9 d8 03 3c 93 a8 04 bd 59 6d c3 3c
       0.012243682 0.008047321 -0.032387327 0.023855852
000170 b9 43 d7 3d c6 72 b9 3d 7f ac 6b 3d 55 e5 4b 3d
       0.10510964 0.090550944 0.057537552 0.049779255
000180 4b ec dd 3d 03 90 5c 3c 21 06 b0 3d b9 1e 5a 3d
       0.10836085 0.013462069 0.08594919 0.053251956
000190 8b 70 1a bc cf 52 07 3d b2 65 24 bd 82 92 41 3e
       -0.009426246 0.033037957 -0.040136047 0.18903545
0001a0 d8 6b f8 3b 87 3b d4 3b 41 52 82 3d d8 34 f5 3a
       0.0075812154 0.006476823 0.06363345 0.0018707765
0001b0 0b 25 2d 3d 14 fd 39 3d c5 16 00 3c d3 c1 7a bd
       0.042271655 0.04540737 0.007817929 -0.06122
0001c0 5a 52 bf 3d bb 5d 1d 3d 9e 94 5a bd 7d 29 8e bb
       0.09341879 0.038419466 -0.05336439 -0.004338442
0001d0 76 db a7 3d 4c 8e 0e be e7 fa 75 3d 2b 8b 7c bd
       0.08196156 -0.1392147 0.060053732 -0.06165616
0001e0 52 28 9d 3d 94 85 4b bd 71 75 03 3d e7 21 b6 3d
       0.07673706 -0.049687937 0.032094423 0.08893185
0001f0 ff 6f 1f bd a0 fc 04 3e 14 a1 dc 3c ee 0b 1b 3c
       -0.038925167 0.12986994 0.026932277 0.0094632935

3.weight f4 [64, 128]
000000 1b d9 48 bb 6e 00 22 3d 5e 2f 64 bd 8d a4 d3 bc
       -0.0030646983 0.03955119 -0.055709235 -0.0258353
000010 f5 bb c9 3e 23 1e 97 bd f7 d7 2b bd 1b d6 69 3d
       0.39401212 -0.07378795 -0.041954007 0.057088953
000020 31 51 98 3b cf b1 e3 bd ff a3 3a bd 41 e2 2f 3d
       0.0046483506 -0.11117899 -0.045566555 0.042940382
000030 fb be 82 bd aa e1 92 bd fa 54 b6 3d c7 72 80 be
       -0.06384083 -0.07171948 0.08902927 -0.25087568
000040 45 ce 48 be 39 1a e1 bc 61 8c c8 3c 5b 7e 19 be
       -0.19609936 -0.027478324 0.024481 -0.14989607
000050 a0 1f e5 bc 19 52 8a bc b2 e1 18 3e 0d 15 3d 3d
       -0.027969182 -0.01688485 0.14929846 0.046162654
000060 5c 22 71 3e 2c fa 96 3d 50 08 42 3d 62 99 77 3c
       0.23548263 0.07371935 0.04737121 0.015112253
000070 d8 68 47 3d aa 4b 17 bd 2c c3 c5 3c c9 c2 36 bb
       0.04868397 -0.036937393 0.024140917 -0.0027887097
000080 56 b0 eb bd 59 a3 8d bd f5 cf 4c be bc f6 42 bd
       -0.11508243 -0.06915922 -0.20001204 -0.047598585
000090 36 26 bd 3d b6 dc 08 be 45 41 47 be b5 c1 45 3d
       0.09235804 -0.13365445 -0.19458492 0.048280437
0000a0 2e 84 a7 bd f4 a0 21 be 8b ea b6 bd 6a 43 20 3e
       -0.08179508 -0.15784055 -0.08931454 0.15650716
0000b0 db 1e 05 3d ee 64 90 bd e0 47 10 bd 4a 86 ed 3d
       0.03250013 -0.07050501 -0.035224795 0.11597879
0000c0 a3 17 da 3c f1 43 cc bd 05 eb c2 bd f1 93 7d bd
       0.026622599 -0.09973896 -0.09517483 -0.061908666
0000d0 c4 b7 d4 3d 27 38 03 be 38 11 25 bd 58 ad f5 3d
       0.10386613 -0.12814389 -0.040299624 0.11995953
0000e0 b7 f2 58 bd 0d 2e 3b be 2a ae af bd 82 35 3c bc
       -0.052965846 -0.18279286 -0.08578141 -0.011487367
0000f0 65 22 16 bd d1 d3 8f 3d 02 ab 14 3e 46 5a 97 bd
       -0.036653895 0.07022823 0.1451836 -0.07390265
000100 07 cc 14 be 93 86 cc 3d 4c 18 4c bd 1a e8 6d 3d
       -0.14530955 0.099866055 -0.04982786 0.058082677
000110 2d a3 3e 3c 41 94 e1 bd 84 58 97 bd 7f 55 c7 bd
       0.011635584 -0.11014605 -0.0738993 -0.09733104
000120 3b 7a 10 be fe 37 41 be 12 10 ec bc ce 95 ae bd
       -0.14109127 -0.18869016 -0.028816257 -0.08524667
000130 ee 4c 14 ba 78 fb a7 3c 2e 62 4e bd 4f 4b fe 3d
       -0.00056572154 0.020505652 -0.0503866 0.12416708
000140 fc 4a 57 bd d0 68 09 3b 46 05 6f 3d 21 da 94 bc
       -0.052561745 0.0020967014 0.05835464 -0.018170418
000150 a0 98 f0 3d 55 80 55 3d bd 97 f6 3d 3c db 78 3d
       0.11747861 0.05212434 0.120406605 0.060755953
000160 8a eb e7 bd 67 0f 84 bc fe 68 93 bc e2 a0 a9 3d
       -0.113242224 -0.016120626 -0.0179944 0.08282639
000170 f5 da a6 3d 24 a2 51 bd 44 53 56 3d 7a c8 a2 bd
       0.081472315 -0.05118002 0.052325502 -0.07948394
000180 38 1b 3f bd b3 5a 06 3d fa 12 97 bd 0a 39 17 be
       -0.046656817 0.03280134 -0.07376666 -0.14767852
000190 84 4a 10 3e 17 1e 27 be 02 f1 94 3d 65 a8 f1 bc
       0.14090925 -0.16320072 0.07272531 -0.029499242
0001a0 a9 07 76 bd 1b 4a cb bb a7 76 0c 3e 03 c2 d1 bd
       -0.0600659 -0.0062039024 0.13717137 -0.10242083
0001b0 45 00 18 bd 1b a6 25 bd 81 41 0b 3e 53 f7 01 3e
       -0.037109632 -0.040441614 0.13599207 0.12692003
0001c0 1f 95 91 3d d0 d0 ac 3c 2a 9e 82 bd 63 38 55 be
       0.07108521 0.021095663 -0.06377824 -0.20822291
0001d0 d5 e5 c8 bd 05 33 8f bd ed 80 a9 bc 6a e6 0a 3d
       -0.09809462 -0.06992153 -0.02069136 0.033911146
0001e0 dc 66 c5 3b 7d ac b3 bd 5c 62 e2 3c 68 aa 06 3d
       0.0060242247 -0.08773134 0.027634792 0.032877356
0001f0 2e 19 bb bd d6 3a 6f 3d 23 b6 5d 3d f2 17 84 bb
       -0.09135662 0.05840572 0.054128777 -0.004031175
000200 10 40 cf bd e8 79 3c 3d 2c b8 a4 bc ef f8 e5 bd
       -0.10119641 0.046014696 -0.020107351 -0.11229121
000210 28 8d 91 3c 18 78 09 ba bd 8d 20 be c4 8c 5c be
       0.017767504 -0.00052440306 -0.15679069 -0.21538073
000220 54 d4 b5 bd a9 ed d3 bd cf da 9c be 65 24 1d 3c
       -0.08878389 -0.103480645 -0.30635688 0.009591197
000230 ee b7 f3 bd d3 a3 e1 3d ee 1b 5b bc 2b e0 8d be
       -0.11900316 0.11017575 -0.013373358 -0.2771009
000240 52 51 9a bd c4 d3 24 be dd bc ca bd 88 d8 5c be
       -0.07535042 -0.16096407 -0.09899304 -0.21566975
000250 00 d5 d9 3d 5d eb 72 bd 2d 32 60 bd 2d 17 ef bc
       0.1063633 -0.05930649 -0.05473535 -0.029185856
000260 5f 63 ef bd 24 c6 11 3e ca aa 64 bd f0 2b 3c bd
       -0.116888754 0.14235741 -0.05582694 -0.04594034
000270 f0 81 02 3d 18 a9 89 bd fb de a6 bc 17 c4 52 be
       0.0318622 -0.06721705 -0.020369997 -0.20582615
000280 27 d0 3c be 0f bc 2c 3d d4 f4 b4 bd c4 68 87 3d
       -0.18438779 0.042171534 -0.0883576 0.06611779
000290 e0 00 29 be 38 4b 84 bc 0d 1b 17 be 5d 82 9b 3d
       -0.1650424 -0.016149148 -0.14756413 0.07593224
0002a0 1c 2e a2 bd be d2 d1 bd 12 e5 23 be 39 00 bf bb
       -0.07918951 -0.10245274 -0.16005352 -0.005828884
0002b0 ff 92 ac bd e5 05 16 be bb 71 52 be 1c d2 65 bd
       -0.08426475 -0.14650686 -0.20551197 -0.05610858
0002c0 2e 96 c0 bc da a3 24 bc da 1d a1 bd 3b d0 d9 3d
       -0.023509111 -0.010048831 -0.07867022 0.1063542
0002d0 ab cd 9f 3c 83 32 18 be 22 d2 bb bd 8e 1c 52 3d
       0.01950725 -0.14863019 -0.09170939 0.051296763
0002e0 35 b3 b4 bb a4 30 4d bd c0 d3 30 bd ed 9f 2e be
       -0.005514527 -0.050095215 -0.04317069 -0.17053194
0002f0 62 88 f4 bd 95 c5 a5 bd 9b 60 19 bd ac ab 00 be
       -0.119400755 -0.080943264 -0.037445646 -0.12565488
000300 aa ff e0 bd 1e 50 0c 3c 82 85 c3 3c ee a4 8e 3c
       -0.10986264 0.008564023 0.023867372 0.017412629
000310 d8 4b 69 bc 7e 2e 85 be 5a 75 b7 3b 1e d6 dc bd
       -0.014239274 -0.26012033 0.005598706 -0.10783027
000320 a7 85 ce bd 95 a2 20 be 77 15 c5 3d a0 6c 98 bd
       -0.10084086 -0.1568702 0.09623235 -0.074425936
000330 4d da 01 bd fd 8a 09 bd 82 0e 30 3d 86 78 a5 3d
       -0.03170233 -0.033579815 0.042982586 0.08079629
000340 38 dd 40 be 54 30 56 bd 63 73 9a 3d 9a c1 8b bc
       -0.18834388 -0.052292183 0.075415395 -0.01706009
000350 48 e6 c7 3d 01 53 fd bb 94 bd 6b be 37 fa 82 3c
       0.097607195 -0.007730842 -0.23021537 0.015988452
000360 c5 af 23 be d5 50 9f bd 98 bc 81 bc 44 c5 02 bd
       -0.1598502 -0.07779089 -0.015836999 -0.03192641
000370 3e c1 ac bb d1 dc 60 3d 96 36 7a be aa 09 d1 bd
       -0.0052720597 0.054898087 -0.24434885 -0.102069214
000380 c9 85 e7 3d ed 01 04 be 80 f5 fb bd 1b 06 61 bd
       0.11304814 -0.1289136 -0.12302685 -0.054937463
000390 4f bd 1d be 7a cb 43 be c1 c3 9e bd 60 ef 53 3d
       -0.15404247 -0.19120589 -0.07752181 0.051741958
0003a0 03 e0 1d be 5d 6d be 3c 86 a4 ec 3d 3e 89 a0 bd
       -0.15417485 0.023245508 0.11554818 -0.07838677
0003b0 4e 58 97 3d 74 24 c8 bd 92 cc 7f 3d 35 ee 98 bc
       0.0738989 -0.09772578 0.062450953 -0.018668273
0003c0 6e e8 c4 3b 02 5d 7b bd 44 d7 86 3a e8 8d 45 3c
       0.006009153 -0.061367996 0.0010287543 0.012057759
0003d0 4a ad 21 be bd ea 1b bb 99 22 10 be 17 8f e1 bd
       -0.15788761 -0.0023791038 -0.14075698 -0.1101362
0003e0 3f 4b d2 bd ec 05 c4 3c df 4b a0 3d 42 30 3c be
       -0.10268258 0.023928605 0.07826971 -0.18377784
0003f0 ae 5c 5a bd 3c 28 f8 bc 1a dc b4 bc b9 bf c2 bd
       -0.053311042 -0.030292623 -0.022077609 -0.095092244

3.bias f4 [64]
000000 6a 08 5a 3e 2a 8d ad 3e 2b fb 32 bd 6e 09 e9 3d
       0.21292272 0.33896762 -0.043696564 0.11378752
000010 ac c6 a7 3d 65 02 5c 3e 69 cb 84 3e 5b e9 5c 3d
       0.081921905 0.21485288 0.2593644 0.053933483
000020 5f d2 84 3e 5a dd 2a 3e 65 1a db 3d 21 3b 3b 3e
       0.2594175 0.16686001 0.10698394 0.18284275
000030 e1 3c 38 3e b8 d1 53 3e bd 7c 75 3e eb 9b ad 3e
       0.17991973 0.2068547 0.23973365 0.33908018
000040 16 b7 77 3e de c1 83 3e 9b 41 38 3e a7 d9 34 3e
       0.24190935 0.25733846 0.17993777 0.17661153
000050 14 cf 46 3e 1b ab 4d 3e f1 89 9b 3e f3 96 b7 3d
       0.19414932 0.20084803 0.30378678 0.08964338
000060 8a 74 b4 3d 98 85 02 3e ec e4 5b 3e df 9f e6 3d
       0.088112906 0.12746274 0.21474046 0.11260962
000070 13 b0 8f 3e eb 6a 76 3d 38 b2 85 3e e3 a5 3b 3d
       0.2806402 0.06016056 0.26112533 0.0458125
000080 8e fa 79 3e 58 14 f9 bb 9f 79 c7 3c aa 9b 7f 3d
       0.24411985 -0.007601302 0.024349986 0.062404312
000090 66 2f 26 3e 23 56 c0 3e 1b 94 b6 3e 3f ac 9c 3d
       0.16229019 0.37565717 0.3565987 0.07650041
0000a0 83 97 a4 3e 0d eb 36 3e d5 84 35 3e 8c a0 45 bd
       0.32146844 0.17863102 0.17726453 -0.048248813
0000b0 f1 87 80 3c 67 28 a2 3e 21 7b 1a bc 8e c5 44 3e
       0.015689822 0.3167145 -0.00942877 0.19215986
0000c0 3f 4c 9f 3e ce 32 89 3d 45 f5 23 3e c1 ef 57 3e
       0.3111286 0.06699143 0.16011532 0.21087553
0000d0 9b 3f 92 bc 63 6b ed 3d 24 7e 41 3e e1 f8 04 bd
       -0.017852595 0.11592748 0.18895775 -0.032463912
0000e0 01 38 87 3e 55 db ea 3d c9 ef 4c 3e a7 ff b8 3d
       0.26409915 0.114676155 0.20013346 0.09033137
0000f0 d2 94 08 3e a0 01 ce 3d 2a fa ac 3d 06 ab a0 3e
       0.1333802 0.10058904 0.084461525 0.3138048

6.weight f4 [5, 64]
000000 97 73 52 be 66 6d 1f be 28 60 8a 3d 70 66 3e 3b
       -0.20551907 -0.15569076 0.067566216 0.0029052757
000010 68 5d e9 3d 2d e1 4d bc 21 a9 c6 bd d3 fa 96 3d
       0.11394769 -0.012565893 -0.097002275 0.0737206
000020 e6 14 ba bd 93 78 50 be d4 9e 09 be ce 51 0b be
       -0.09086017 -0.20358495 -0.13439494 -0.13605425
000030 09 15 6b be 6e 18 05 be 65 3c e8 bd 1a 60 2b be
       -0.22957243 -0.129976 -0.11339644 -0.16735879
000040 56 62 f3 bd 20 1f 83 3d 33 9d 61 be 0a 59 8d be
       -0.118839905 0.06402421 -0.22032623 -0.27606994
000050 d5 58 f6 ba d3 69 38 be b1 d1 0f bd 3e 55 e5 bd
       -0.0018794785 -0.18009119 -0.035112087 -0.11197899
000060 6c b2 2b be 8b 51 da 3d 2f 19 e3 ba fe 2a ad 3c
       -0.16767281 0.10660084 -0.0017326231 0.021138664
000070 ec da 16 be cb d5 20 3d 02 9f 8d be 4c cd 79 3d
       -0.1473195 0.03926639 -0.27660376 0.060986802
000080 d3 1d 8d be bd 05 bf 3d 55 68 27 bc 4c fc 0f bd
       -0.27561817 0.09327266 -0.010217746 -0.03515272
000090 6f 13 e6 bc 6b 0c 83 be 25 24 79 be f0 2e ba 3d
       -0.028085439 -0.25595412 -0.24330194 0.09090984
0000a0 44 04 98 be 8a 8a 25 bd d2 9a 23 bd 0b cc bc 3d
       -0.29690754 -0.040415324 -0.03994257 0.092186056
0000b0 04 0d a4 3d b9 7e 28 be f7 31 85 3d f1 75 ca bd
       0.08010295 -0.16454591 0.06503671 -0.09885777
0000c0 3f 8d c8 bd 33 7a 08 3e 38 c2 aa 3d 31 d9 15 be
       -0.097925656 0.13327865 0.083378255 -0.14633633
0000d0 69 29 af 3d 41 ca f6 3d fe 53 c0 3d 42 ae a6 3d
       0.0855282 0.120502956 0.0939102 0.08138706
0000e0 09 32 c7 bc dc f0 9a 3d 3f 80 d1 be 21 67 82 3d
       -0.02431585 0.075654715 -0.40918157 0.063673265
0000f0 6f c9 1e 3d fc ac d5 3d 03 a0 00 3e a6 c6 b6 bd
       0.03876632 0.10433385 0.1256104 -0.08924608
000100 d1 a2 d7 3d 2a f5 ea 3d da ae 87 3c 37 bd 32 be
       0.10529102 0.114725426 0.016562868 -0.17454992
000110 3a 38 cb 3d 9c e7 ab bd bb bc 01 3e 21 51 3c 3d
       0.09922834 -0.08393785 0.12669651 0.045975808
000120 d5 c4 0f 3e 88 80 ba bc d4 af 3c bc 6a de 37 be
       0.14039929 -0.022766367 -0.01151653 -0.17955938
000130 1e 56 b7 3c b3 c9 fb 3d 85 1d ac 3d 12 fa 0a 3e
       0.022379931 0.122943304 0.08404068 0.13571957
000140 65 91 c2 3d 27 7e cd 3d 3b 04 b9 bd 31 53 9d bc
       0.09500388 0.10033827 -0.0903401 -0.019204708
000150 a3 c6 8f 3d be ad d7 3d c4 62 33 3d 00 a6 85 bc
       0.07020309 0.105311856 0.043795362 -0.016314507
000160 67 69 2f bd 09 49 76 3d d7 72 5d 3d 16 64 a7 bd
       -0.04282513 0.060128246 0.054064598 -0.08173387
000170 b5 9a 0c 3e 0f 9b 8e 3c b3 4a c2 3d 2d b3 e3 bb
       0.13730891 0.017407922 0.09486904 -0.0069488497
000180 aa 66 90 bd 5b c6 9d 3d 40 17 80 bd 9f b3 05 be
       -0.070508316 0.07703849 -0.062544346 -0.13056801
000190 cd 37 71 3d 10 45 01 3e 64 1f a8 3d f9 a8 05 be
       0.058891106 0.12624002 0.08209112 -0.13052739
0001a0 5e b5 5f 3c 4d 8b f4 3b 6e 6c c0 3c f4 27 65 bd
       0.013654081 0.007462895 0.023489203 -0.055946305
0001b0 c7 1c b6 bd 1e a4 34 3d 33 ff 43 bd 4e 36 a2 3d
       -0.088922076 0.044101827 -0.0478508 0.07920514
0001c0 17 75 08 3e 1f 17 cc bc de a3 eb bd 54 13 c9 bd
       0.13325916 -0.024913369 -0.115058646 -0.0981814
0001d0 0e da 76 bd 32 54 11 be df 17 dc 3d a2 5f 9a 3d
       -0.060266547 -0.14192274 0.107467405 0.07537772
0001e0 5b 51 0e 3d bc c7 50 bc 96 68 da 3d e9 55 93 3d
       0.034745555 -0.012742933 0.106644794 0.071941204
0001f0 54 40 b1 3d 13 09 3f 3d ed 89 5d 3d a7 a7 e4 3d
       0.08654848 0.046639513 0.054086614 0.1116479
000200 60 9c cd bd cd 2e 39 bc c1 b9 89 bd 41 9b 88 bd
       -0.10039592 -0.011302662 -0.06724883 -0.06670237
000210 18 61 e4 bd 1e 3e fe 3d 44 00 1a 3e 4c ba bc bd
       -0.11151332 0.12414192 0.15039164 -0.09215221
000220 85 c1 36 bd c1 87 e0 3d 3c db 3f be cc b7 a9 3c
       -0.04461815 0.10963393 -0.18735975 0.020717524
000230 7c 45 db b9 36 32 8e be 56 82 be bd 7b e2 e9 3d
       -0.00041822705 -0.27772683 -0.09302203 0.11420151
000240 0e 9c 09 bd ec 48 23 3c 82 83 17 bd 14 21 a8 3d
       -0.03359609 0.009966116 -0.03699065 0.08209434
000250 02 cf 81 3b fd 60 19 3d 88 ac 69 bd ae 1b 39 3e
       0.003961445 0.03744601 -0.057049304 0.18076965
000260 e0 4d 9e bd a9 72 a5 3d 10 51 20 bc 0f 7c 45 be
       -0.07729697 0.0807851 -0.009784952 -0.19285606
000270 76 06 24 3d 0d 09 68 bd 54 a7 51 bd c6 40 a1 bd
       0.040045224 -0.056649256 -0.051184967 -0.07873683
000280 96 01 18 3d 4a 61 7e bb fd c5 02 be 42 05 a2 3d
       0.037110887 -0.0038815313 -0.12770839 0.07911159
000290 44 b5 11 bb b2 b5 c6 3d 3c 36 8b be 3f 27 d6 3d
       -0.0022233287 0.097026244 -0.27189815 0.10456704
0002a0 35 f1 60 be cb 9a 59 3e 96 a6 0e be e5 5a 84 bd
       -0.21967013 0.21250455 -0.13930735 -0.06462649
0002b0 ba 1b 3e bd ab b1 41 3d 35 38 91 bd 59 3b 6e bd
       -0.04641316 0.047288578 -0.07090799 -0.058162067
0002c0 f6 1a e1 3d ac c0 22 3d c3 52 9d 3d 51 3b c2 3d
       0.109914705 0.039734527 0.07681801 0.0948397
0002d0 0a 83 5a bc a2 6c c7 3d 0b f6 13 bd f9 8c b0 bd
       -0.013336906 0.09737517 -0.036123317 -0.086206384
0002e0 11 f6 df 3c 37 4a 79 3d eb 6b f1 bd 71 bc 71 3d
       0.027339013 0.060861792 -0.11788162 0.059017602
0002f0 71 f9 9b bd 5d 94 d4 3a 5a d6 03 3e be c1 74 bd
       -0.076159365 0.0016218532 0.12874737 -0.05975508
000300 f8 cd 02 3e 88 1b fa bd 15 5f 63 3d 19 8c 3b bc
       0.12773883 -0.122122824 0.0555106 -0.011446976
000310 7d 40 dd 3d ab 2c 9b 3d 8a c2 51 bd bd 25 08 3d
       0.10803316 0.07576879 -0.051210918 0.033239115
000320 f5 d4 bc 3d 27 ba 8e be 55 06 d3 bd 13 3b 42 bd
       0.09220306 -0.27876398 -0.10303942 -0.04741962
000330 b3 83 59 3b be 8a 25 3e b4 85 dd 3d 57 a7 1b be
       0.003319007 0.16166207 0.108165175 -0.15200554
000340 09 21 03 bc ae d0 50 be bc 5c 4c 3e 5c 7f fe 3d
       -0.008003482 -0.20392105 0.1995725 0.124266356
000350 79 7f c7 bd 18 f4 0d 3e dc 35 0c be 71 e0 61 be
       -0.0974111 0.13862646 -0.1369242 -0.22058274
000360 af 55 13 3d ec 87 5e be ce 42 d4 bd 5f 4f cf 3d
       0.035970386 -0.21731538 -0.103643045 0.10122561
000370 98 ee 4e bd 6f 96 9f bd 81 80 a1 3d a9 91 38 be
       -0.05052051 -0.07792365 0.07885838 -0.18024315
000380 ce 87 e0 3d 6d f8 45 be 16 66 8f 3d c0 df 52 be
       0.10963403 -0.19333048 0.07001893 -0.20593166
000390 92 43 f0 bd 8c 59 a5 be 6f 46 df 3d ab 1e 55 be
       -0.11731638 -0.3229488 0.10902106 -0.2081248
0003a0 08 73 3b 3c 46 8c 21 3e 71 36 0a be 49 6c 67 bd
       0.011441 0.15776166 -0.1349733 -0.056499753
0003b0 45 b7 14 be ee b7 60 bd 02 5e 86 bd 42 af 9f 3d
       -0.14523037 -0.05486291 -0.06560899 0.077971
0003c0 99 df 83 be ad 4d 06 be 60 c4 59 be 42 18 2e 3d
       -0.2575653 -0.13115568 -0.21266317 0.042503603
0003d0 26 8f a1 bc 85 d3 d8 3c ca c3 ac bd e2 0c b7 bd
       -0.019721579 0.026468048 -0.08435781 -0.08938004
0003e0 9d 9e 09 be 82 93 9d bd 70 49 cf 3d fa 08 9a be
       -0.13439412 -0.076941505 0.10121429 -0.30084974
0003f0 0d 8d 10 be d6 1b dc bd c8 24 9d bc 92 67 17 bd
       -0.14116307 -0.10747497 -0.019182578 -0.036964007

6.bias f4 [5]
000000 ac c9 91 bd 2e 6f 94 3e 82 11 27 be 0f a2 65 bd
       -0.07118544 0.28991073 -0.16315272 -0.056062754
000010 70 0c cc bc
       -0.024908274
